{"format": "graph-model", "generatedBy": "2.2.0", "convertedBy": "TensorFlow.js Converter v2.6.0", "userDefinedMetadata": {"signature": {"inputs": {"input_1:0": {"name": "input_1:0", "dtype": "DT_FLOAT", "tensorShape": {"dim": [{"size": "-1"}, {"size": "256"}, {"size": "256"}, {"size": "3"}]}}, "input_2:0": {"name": "input_2:0", "dtype": "DT_FLOAT", "tensorShape": {"dim": [{"size": "-1"}, {"size": "64"}]}}}, "outputs": {"Identity:0": {"name": "Identity:0", "dtype": "DT_FLOAT", "tensorShape": {"dim": [{"size": "-1"}, {"size": "256"}, {"size": "256"}, {"size": "3"}]}}}}}, "modelTopology": {"node": [{"name": "input_1", "op": "Placeholder", "attr": {"shape": {"shape": {"dim": [{"size": "-1"}, {"size": "256"}, {"size": "256"}, {"size": "3"}]}}, "dtype": {"type": "DT_FLOAT"}}}, {"name": "input_2", "op": "Placeholder", "attr": {"dtype": {"type": "DT_FLOAT"}, "shape": {"shape": {"dim": [{"size": "-1"}, {"size": "64"}]}}}}, {"name": "Func/StatefulPartitionedCall/input_control_node/_0", "op": "NoOp", "input": ["^input_1", "^input_2"]}, {"name": "StatefulPartitionedCall/Generator/sequential/ins_norm/Reshape_2", "op": "Const", "input": ["^Func/StatefulPartitionedCall/input_control_node/_0"], "attr": {"value": {"tensor": {"dtype": "DT_FLOAT", "tensorShape": {"dim": [{"size": "1"}, {"size": "1"}, {"size": "1"}, {"size": "64"}, {"size": "1"}]}}}, "dtype": {"type": "DT_FLOAT"}}}, {"name": "StatefulPartitionedCall/Generator/sequential/ins_norm/Reshape_1", "op": "Const", "input": ["^Func/StatefulPartitionedCall/input_control_node/_0"], "attr": {"value": {"tensor": {"dtype": "DT_FLOAT", "tensorShape": {"dim": [{"size": "1"}, {"size": "1"}, {"size": "1"}, {"size": "64"}, {"size": "1"}]}}}, "dtype": {"type": "DT_FLOAT"}}}, {"name": "Func/StatefulPartitionedCall/input/_126", "op": "Const", "input": ["^Func/StatefulPartitionedCall/input_control_node/_0"], "attr": {"value": {"tensor": {"dtype": "DT_FLOAT", "tensorShape": {"dim": [{"size": "64"}, {"size": "64"}]}}}, "dtype": {"type": "DT_FLOAT"}}}, {"name": "Func/StatefulPartitionedCall/input/_127", "op": "Const", "input": ["^Func/StatefulPartitionedCall/input_control_node/_0"], "attr": {"value": {"tensor": {"dtype": "DT_FLOAT", "tensorShape": {"dim": [{"size": "64"}]}}}, "dtype": {"type": "DT_FLOAT"}}}, {"name": "Func/StatefulPartitionedCall/input/_124", "op": "Const", "input": ["^Func/StatefulPartitionedCall/input_control_node/_0"], "attr": {"value": {"tensor": {"dtype": "DT_FLOAT", "tensorShape": {"dim": [{"size": "64"}, {"size": "64"}]}}}, "dtype": {"type": "DT_FLOAT"}}}, {"name": "Func/StatefulPartitionedCall/input/_125", "op": "Const", "input": ["^Func/StatefulPartitionedCall/input_control_node/_0"], "attr": {"value": {"tensor": {"dtype": "DT_FLOAT", "tensorShape": {"dim": [{"size": "64"}]}}}, "dtype": {"type": "DT_FLOAT"}}}, {"name": "StatefulPartitionedCall/Generator/decoder_up_adaresblock_0/adain_1/Reshape/shape", "op": "Const", "input": ["^Func/StatefulPartitionedCall/input_control_node/_0"], "attr": {"value": {"tensor": {"dtype": "DT_INT32", "tensorShape": {"dim": [{"size": "4"}]}}}, "dtype": {"type": "DT_INT32"}}}, {"name": "Func/StatefulPartitionedCall/input/_120", "op": "Const", "input": ["^Func/StatefulPartitionedCall/input_control_node/_0"], "attr": {"value": {"tensor": {"dtype": "DT_FLOAT", "tensorShape": {"dim": [{"size": "64"}, {"size": "128"}]}}}, "dtype": {"type": "DT_FLOAT"}}}, {"name": "Func/StatefulPartitionedCall/input/_121", "op": "Const", "input": ["^Func/StatefulPartitionedCall/input_control_node/_0"], "attr": {"value": {"tensor": {"dtype": "DT_FLOAT", "tensorShape": {"dim": [{"size": "128"}]}}}, "dtype": {"type": "DT_FLOAT"}}}, {"name": "Func/StatefulPartitionedCall/input/_118", "op": "Const", "input": ["^Func/StatefulPartitionedCall/input_control_node/_0"], "attr": {"value": {"tensor": {"dtype": "DT_FLOAT", "tensorShape": {"dim": [{"size": "64"}, {"size": "128"}]}}}, "dtype": {"type": "DT_FLOAT"}}}, {"name": "Func/StatefulPartitionedCall/input/_119", "op": "Const", "input": ["^Func/StatefulPartitionedCall/input_control_node/_0"], "attr": {"value": {"tensor": {"dtype": "DT_FLOAT", "tensorShape": {"dim": [{"size": "128"}]}}}, "dtype": {"type": "DT_FLOAT"}}}, {"name": "Func/StatefulPartitionedCall/input/_122", "op": "Const", "input": ["^Func/StatefulPartitionedCall/input_control_node/_0"], "attr": {"value": {"tensor": {"dtype": "DT_FLOAT", "tensorShape": {"dim": [{"size": "3"}, {"size": "3"}, {"size": "128"}, {"size": "64"}]}}}, "dtype": {"type": "DT_FLOAT"}}}, {"name": "Func/StatefulPartitionedCall/input/_123", "op": "Const", "input": ["^Func/StatefulPartitionedCall/input_control_node/_0"], "attr": {"value": {"tensor": {"dtype": "DT_FLOAT", "tensorShape": {"dim": [{"size": "64"}]}}}, "dtype": {"type": "DT_FLOAT"}}}, {"name": "Func/StatefulPartitionedCall/input/_128", "op": "Const", "input": ["^Func/StatefulPartitionedCall/input_control_node/_0"], "attr": {"value": {"tensor": {"dtype": "DT_FLOAT", "tensorShape": {"dim": [{"size": "3"}, {"size": "3"}, {"size": "64"}, {"size": "64"}]}}}, "dtype": {"type": "DT_FLOAT"}}}, {"name": "Func/StatefulPartitionedCall/input/_129", "op": "Const", "input": ["^Func/StatefulPartitionedCall/input_control_node/_0"], "attr": {"dtype": {"type": "DT_FLOAT"}, "value": {"tensor": {"dtype": "DT_FLOAT", "tensorShape": {"dim": [{"size": "64"}]}}}}}, {"name": "Func/StatefulPartitionedCall/input/_113", "op": "Const", "input": ["^Func/StatefulPartitionedCall/input_control_node/_0"], "attr": {"value": {"tensor": {"dtype": "DT_FLOAT", "tensorShape": {"dim": [{"size": "64"}, {"size": "128"}]}}}, "dtype": {"type": "DT_FLOAT"}}}, {"name": "Func/StatefulPartitionedCall/input/_114", "op": "Const", "input": ["^Func/StatefulPartitionedCall/input_control_node/_0"], "attr": {"dtype": {"type": "DT_FLOAT"}, "value": {"tensor": {"dtype": "DT_FLOAT", "tensorShape": {"dim": [{"size": "128"}]}}}}}, {"name": "Func/StatefulPartitionedCall/input/_111", "op": "Const", "input": ["^Func/StatefulPartitionedCall/input_control_node/_0"], "attr": {"dtype": {"type": "DT_FLOAT"}, "value": {"tensor": {"dtype": "DT_FLOAT", "tensorShape": {"dim": [{"size": "64"}, {"size": "128"}]}}}}}, {"name": "Func/StatefulPartitionedCall/input/_112", "op": "Const", "input": ["^Func/StatefulPartitionedCall/input_control_node/_0"], "attr": {"value": {"tensor": {"dtype": "DT_FLOAT", "tensorShape": {"dim": [{"size": "128"}]}}}, "dtype": {"type": "DT_FLOAT"}}}, {"name": "StatefulPartitionedCall/Generator/decoder_up_adaresblock_0/adain_0/Reshape/shape", "op": "Const", "input": ["^Func/StatefulPartitionedCall/input_control_node/_0"], "attr": {"value": {"tensor": {"dtype": "DT_INT32", "tensorShape": {"dim": [{"size": "4"}]}}}, "dtype": {"type": "DT_INT32"}}}, {"name": "Func/StatefulPartitionedCall/input/_107", "op": "Const", "input": ["^Func/StatefulPartitionedCall/input_control_node/_0"], "attr": {"dtype": {"type": "DT_FLOAT"}, "value": {"tensor": {"dtype": "DT_FLOAT", "tensorShape": {"dim": [{"size": "64"}, {"size": "256"}]}}}}}, {"name": "Func/StatefulPartitionedCall/input/_108", "op": "Const", "input": ["^Func/StatefulPartitionedCall/input_control_node/_0"], "attr": {"value": {"tensor": {"dtype": "DT_FLOAT", "tensorShape": {"dim": [{"size": "256"}]}}}, "dtype": {"type": "DT_FLOAT"}}}, {"name": "Func/StatefulPartitionedCall/input/_105", "op": "Const", "input": ["^Func/StatefulPartitionedCall/input_control_node/_0"], "attr": {"value": {"tensor": {"dtype": "DT_FLOAT", "tensorShape": {"dim": [{"size": "64"}, {"size": "256"}]}}}, "dtype": {"type": "DT_FLOAT"}}}, {"name": "Func/StatefulPartitionedCall/input/_106", "op": "Const", "input": ["^Func/StatefulPartitionedCall/input_control_node/_0"], "attr": {"value": {"tensor": {"dtype": "DT_FLOAT", "tensorShape": {"dim": [{"size": "256"}]}}}, "dtype": {"type": "DT_FLOAT"}}}, {"name": "Func/StatefulPartitionedCall/input/_109", "op": "Const", "input": ["^Func/StatefulPartitionedCall/input_control_node/_0"], "attr": {"value": {"tensor": {"dtype": "DT_FLOAT", "tensorShape": {"dim": [{"size": "3"}, {"size": "3"}, {"size": "256"}, {"size": "128"}]}}}, "dtype": {"type": "DT_FLOAT"}}}, {"name": "Func/StatefulPartitionedCall/input/_110", "op": "Const", "input": ["^Func/StatefulPartitionedCall/input_control_node/_0"], "attr": {"value": {"tensor": {"dtype": "DT_FLOAT", "tensorShape": {"dim": [{"size": "128"}]}}}, "dtype": {"type": "DT_FLOAT"}}}, {"name": "Func/StatefulPartitionedCall/input/_115", "op": "Const", "input": ["^Func/StatefulPartitionedCall/input_control_node/_0"], "attr": {"value": {"tensor": {"dtype": "DT_FLOAT", "tensorShape": {"dim": [{"size": "3"}, {"size": "3"}, {"size": "128"}, {"size": "128"}]}}}, "dtype": {"type": "DT_FLOAT"}}}, {"name": "Func/StatefulPartitionedCall/input/_116", "op": "Const", "input": ["^Func/StatefulPartitionedCall/input_control_node/_0"], "attr": {"value": {"tensor": {"dtype": "DT_FLOAT", "tensorShape": {"dim": [{"size": "128"}]}}}, "dtype": {"type": "DT_FLOAT"}}}, {"name": "Func/StatefulPartitionedCall/input/_100", "op": "Const", "input": ["^Func/StatefulPartitionedCall/input_control_node/_0"], "attr": {"value": {"tensor": {"dtype": "DT_FLOAT", "tensorShape": {"dim": [{"size": "64"}, {"size": "256"}]}}}, "dtype": {"type": "DT_FLOAT"}}}, {"name": "Func/StatefulPartitionedCall/input/_101", "op": "Const", "input": ["^Func/StatefulPartitionedCall/input_control_node/_0"], "attr": {"value": {"tensor": {"dtype": "DT_FLOAT", "tensorShape": {"dim": [{"size": "256"}]}}}, "dtype": {"type": "DT_FLOAT"}}}, {"name": "Func/StatefulPartitionedCall/input/_98", "op": "Const", "input": ["^Func/StatefulPartitionedCall/input_control_node/_0"], "attr": {"dtype": {"type": "DT_FLOAT"}, "value": {"tensor": {"dtype": "DT_FLOAT", "tensorShape": {"dim": [{"size": "64"}, {"size": "256"}]}}}}}, {"name": "Func/StatefulPartitionedCall/input/_99", "op": "Const", "input": ["^Func/StatefulPartitionedCall/input_control_node/_0"], "attr": {"value": {"tensor": {"dtype": "DT_FLOAT", "tensorShape": {"dim": [{"size": "256"}]}}}, "dtype": {"type": "DT_FLOAT"}}}, {"name": "StatefulPartitionedCall/Generator/decoder_up_adaresblock_1/adain_0/Reshape/shape", "op": "Const", "input": ["^Func/StatefulPartitionedCall/input_control_node/_0"], "attr": {"value": {"tensor": {"dtype": "DT_INT32", "tensorShape": {"dim": [{"size": "4"}]}}}, "dtype": {"type": "DT_INT32"}}}, {"name": "Func/StatefulPartitionedCall/input/_94", "op": "Const", "input": ["^Func/StatefulPartitionedCall/input_control_node/_0"], "attr": {"value": {"tensor": {"dtype": "DT_FLOAT", "tensorShape": {"dim": [{"size": "64"}, {"size": "512"}]}}}, "dtype": {"type": "DT_FLOAT"}}}, {"name": "Func/StatefulPartitionedCall/input/_95", "op": "Const", "input": ["^Func/StatefulPartitionedCall/input_control_node/_0"], "attr": {"value": {"tensor": {"dtype": "DT_FLOAT", "tensorShape": {"dim": [{"size": "512"}]}}}, "dtype": {"type": "DT_FLOAT"}}}, {"name": "Func/StatefulPartitionedCall/input/_92", "op": "Const", "input": ["^Func/StatefulPartitionedCall/input_control_node/_0"], "attr": {"value": {"tensor": {"dtype": "DT_FLOAT", "tensorShape": {"dim": [{"size": "64"}, {"size": "512"}]}}}, "dtype": {"type": "DT_FLOAT"}}}, {"name": "Func/StatefulPartitionedCall/input/_93", "op": "Const", "input": ["^Func/StatefulPartitionedCall/input_control_node/_0"], "attr": {"value": {"tensor": {"dtype": "DT_FLOAT", "tensorShape": {"dim": [{"size": "512"}]}}}, "dtype": {"type": "DT_FLOAT"}}}, {"name": "Func/StatefulPartitionedCall/input/_96", "op": "Const", "input": ["^Func/StatefulPartitionedCall/input_control_node/_0"], "attr": {"value": {"tensor": {"dtype": "DT_FLOAT", "tensorShape": {"dim": [{"size": "3"}, {"size": "3"}, {"size": "512"}, {"size": "256"}]}}}, "dtype": {"type": "DT_FLOAT"}}}, {"name": "Func/StatefulPartitionedCall/input/_97", "op": "Const", "input": ["^Func/StatefulPartitionedCall/input_control_node/_0"], "attr": {"value": {"tensor": {"dtype": "DT_FLOAT", "tensorShape": {"dim": [{"size": "256"}]}}}, "dtype": {"type": "DT_FLOAT"}}}, {"name": "Func/StatefulPartitionedCall/input/_102", "op": "Const", "input": ["^Func/StatefulPartitionedCall/input_control_node/_0"], "attr": {"value": {"tensor": {"dtype": "DT_FLOAT", "tensorShape": {"dim": [{"size": "3"}, {"size": "3"}, {"size": "256"}, {"size": "256"}]}}}, "dtype": {"type": "DT_FLOAT"}}}, {"name": "Func/StatefulPartitionedCall/input/_103", "op": "Const", "input": ["^Func/StatefulPartitionedCall/input_control_node/_0"], "attr": {"value": {"tensor": {"dtype": "DT_FLOAT", "tensorShape": {"dim": [{"size": "256"}]}}}, "dtype": {"type": "DT_FLOAT"}}}, {"name": "Func/StatefulPartitionedCall/input/_88", "op": "Const", "input": ["^Func/StatefulPartitionedCall/input_control_node/_0"], "attr": {"value": {"tensor": {"dtype": "DT_FLOAT", "tensorShape": {"dim": [{"size": "64"}, {"size": "512"}]}}}, "dtype": {"type": "DT_FLOAT"}}}, {"name": "Func/StatefulPartitionedCall/input/_89", "op": "Const", "input": ["^Func/StatefulPartitionedCall/input_control_node/_0"], "attr": {"value": {"tensor": {"dtype": "DT_FLOAT", "tensorShape": {"dim": [{"size": "512"}]}}}, "dtype": {"type": "DT_FLOAT"}}}, {"name": "Func/StatefulPartitionedCall/input/_86", "op": "Const", "input": ["^Func/StatefulPartitionedCall/input_control_node/_0"], "attr": {"value": {"tensor": {"dtype": "DT_FLOAT", "tensorShape": {"dim": [{"size": "64"}, {"size": "512"}]}}}, "dtype": {"type": "DT_FLOAT"}}}, {"name": "Func/StatefulPartitionedCall/input/_87", "op": "Const", "input": ["^Func/StatefulPartitionedCall/input_control_node/_0"], "attr": {"value": {"tensor": {"dtype": "DT_FLOAT", "tensorShape": {"dim": [{"size": "512"}]}}}, "dtype": {"type": "DT_FLOAT"}}}, {"name": "Func/StatefulPartitionedCall/input/_82", "op": "Const", "input": ["^Func/StatefulPartitionedCall/input_control_node/_0"], "attr": {"value": {"tensor": {"dtype": "DT_FLOAT", "tensorShape": {"dim": [{"size": "64"}, {"size": "512"}]}}}, "dtype": {"type": "DT_FLOAT"}}}, {"name": "Func/StatefulPartitionedCall/input/_83", "op": "Const", "input": ["^Func/StatefulPartitionedCall/input_control_node/_0"], "attr": {"value": {"tensor": {"dtype": "DT_FLOAT", "tensorShape": {"dim": [{"size": "512"}]}}}, "dtype": {"type": "DT_FLOAT"}}}, {"name": "Func/StatefulPartitionedCall/input/_80", "op": "Const", "input": ["^Func/StatefulPartitionedCall/input_control_node/_0"], "attr": {"value": {"tensor": {"dtype": "DT_FLOAT", "tensorShape": {"dim": [{"size": "64"}, {"size": "512"}]}}}, "dtype": {"type": "DT_FLOAT"}}}, {"name": "Func/StatefulPartitionedCall/input/_81", "op": "Const", "input": ["^Func/StatefulPartitionedCall/input_control_node/_0"], "attr": {"value": {"tensor": {"dtype": "DT_FLOAT", "tensorShape": {"dim": [{"size": "512"}]}}}, "dtype": {"type": "DT_FLOAT"}}}, {"name": "Func/StatefulPartitionedCall/input/_84", "op": "Const", "input": ["^Func/StatefulPartitionedCall/input_control_node/_0"], "attr": {"value": {"tensor": {"dtype": "DT_FLOAT", "tensorShape": {"dim": [{"size": "3"}, {"size": "3"}, {"size": "512"}, {"size": "512"}]}}}, "dtype": {"type": "DT_FLOAT"}}}, {"name": "Func/StatefulPartitionedCall/input/_85", "op": "Const", "input": ["^Func/StatefulPartitionedCall/input_control_node/_0"], "attr": {"value": {"tensor": {"dtype": "DT_FLOAT", "tensorShape": {"dim": [{"size": "512"}]}}}, "dtype": {"type": "DT_FLOAT"}}}, {"name": "Func/StatefulPartitionedCall/input/_90", "op": "Const", "input": ["^Func/StatefulPartitionedCall/input_control_node/_0"], "attr": {"value": {"tensor": {"dtype": "DT_FLOAT", "tensorShape": {"dim": [{"size": "3"}, {"size": "3"}, {"size": "512"}, {"size": "512"}]}}}, "dtype": {"type": "DT_FLOAT"}}}, {"name": "Func/StatefulPartitionedCall/input/_91", "op": "Const", "input": ["^Func/StatefulPartitionedCall/input_control_node/_0"], "attr": {"value": {"tensor": {"dtype": "DT_FLOAT", "tensorShape": {"dim": [{"size": "512"}]}}}, "dtype": {"type": "DT_FLOAT"}}}, {"name": "Func/StatefulPartitionedCall/input/_76", "op": "Const", "input": ["^Func/StatefulPartitionedCall/input_control_node/_0"], "attr": {"value": {"tensor": {"dtype": "DT_FLOAT", "tensorShape": {"dim": [{"size": "64"}, {"size": "512"}]}}}, "dtype": {"type": "DT_FLOAT"}}}, {"name": "Func/StatefulPartitionedCall/input/_77", "op": "Const", "input": ["^Func/StatefulPartitionedCall/input_control_node/_0"], "attr": {"value": {"tensor": {"dtype": "DT_FLOAT", "tensorShape": {"dim": [{"size": "512"}]}}}, "dtype": {"type": "DT_FLOAT"}}}, {"name": "Func/StatefulPartitionedCall/input/_74", "op": "Const", "input": ["^Func/StatefulPartitionedCall/input_control_node/_0"], "attr": {"value": {"tensor": {"dtype": "DT_FLOAT", "tensorShape": {"dim": [{"size": "64"}, {"size": "512"}]}}}, "dtype": {"type": "DT_FLOAT"}}}, {"name": "Func/StatefulPartitionedCall/input/_75", "op": "Const", "input": ["^Func/StatefulPartitionedCall/input_control_node/_0"], "attr": {"value": {"tensor": {"dtype": "DT_FLOAT", "tensorShape": {"dim": [{"size": "512"}]}}}, "dtype": {"type": "DT_FLOAT"}}}, {"name": "Func/StatefulPartitionedCall/input/_70", "op": "Const", "input": ["^Func/StatefulPartitionedCall/input_control_node/_0"], "attr": {"dtype": {"type": "DT_FLOAT"}, "value": {"tensor": {"dtype": "DT_FLOAT", "tensorShape": {"dim": [{"size": "64"}, {"size": "512"}]}}}}}, {"name": "Func/StatefulPartitionedCall/input/_71", "op": "Const", "input": ["^Func/StatefulPartitionedCall/input_control_node/_0"], "attr": {"dtype": {"type": "DT_FLOAT"}, "value": {"tensor": {"dtype": "DT_FLOAT", "tensorShape": {"dim": [{"size": "512"}]}}}}}, {"name": "Func/StatefulPartitionedCall/input/_68", "op": "Const", "input": ["^Func/StatefulPartitionedCall/input_control_node/_0"], "attr": {"value": {"tensor": {"dtype": "DT_FLOAT", "tensorShape": {"dim": [{"size": "64"}, {"size": "512"}]}}}, "dtype": {"type": "DT_FLOAT"}}}, {"name": "Func/StatefulPartitionedCall/input/_69", "op": "Const", "input": ["^Func/StatefulPartitionedCall/input_control_node/_0"], "attr": {"value": {"tensor": {"dtype": "DT_FLOAT", "tensorShape": {"dim": [{"size": "512"}]}}}, "dtype": {"type": "DT_FLOAT"}}}, {"name": "Func/StatefulPartitionedCall/input/_72", "op": "Const", "input": ["^Func/StatefulPartitionedCall/input_control_node/_0"], "attr": {"value": {"tensor": {"dtype": "DT_FLOAT", "tensorShape": {"dim": [{"size": "3"}, {"size": "3"}, {"size": "512"}, {"size": "512"}]}}}, "dtype": {"type": "DT_FLOAT"}}}, {"name": "Func/StatefulPartitionedCall/input/_73", "op": "Const", "input": ["^Func/StatefulPartitionedCall/input_control_node/_0"], "attr": {"value": {"tensor": {"dtype": "DT_FLOAT", "tensorShape": {"dim": [{"size": "512"}]}}}, "dtype": {"type": "DT_FLOAT"}}}, {"name": "Func/StatefulPartitionedCall/input/_78", "op": "Const", "input": ["^Func/StatefulPartitionedCall/input_control_node/_0"], "attr": {"value": {"tensor": {"dtype": "DT_FLOAT", "tensorShape": {"dim": [{"size": "3"}, {"size": "3"}, {"size": "512"}, {"size": "512"}]}}}, "dtype": {"type": "DT_FLOAT"}}}, {"name": "Func/StatefulPartitionedCall/input/_79", "op": "Const", "input": ["^Func/StatefulPartitionedCall/input_control_node/_0"], "attr": {"value": {"tensor": {"dtype": "DT_FLOAT", "tensorShape": {"dim": [{"size": "512"}]}}}, "dtype": {"type": "DT_FLOAT"}}}, {"name": "Func/StatefulPartitionedCall/input/_64", "op": "Const", "input": ["^Func/StatefulPartitionedCall/input_control_node/_0"], "attr": {"value": {"tensor": {"dtype": "DT_FLOAT", "tensorShape": {"dim": [{"size": "64"}, {"size": "512"}]}}}, "dtype": {"type": "DT_FLOAT"}}}, {"name": "Func/StatefulPartitionedCall/input/_65", "op": "Const", "input": ["^Func/StatefulPartitionedCall/input_control_node/_0"], "attr": {"value": {"tensor": {"dtype": "DT_FLOAT", "tensorShape": {"dim": [{"size": "512"}]}}}, "dtype": {"type": "DT_FLOAT"}}}, {"name": "Func/StatefulPartitionedCall/input/_62", "op": "Const", "input": ["^Func/StatefulPartitionedCall/input_control_node/_0"], "attr": {"value": {"tensor": {"dtype": "DT_FLOAT", "tensorShape": {"dim": [{"size": "64"}, {"size": "512"}]}}}, "dtype": {"type": "DT_FLOAT"}}}, {"name": "Func/StatefulPartitionedCall/input/_63", "op": "Const", "input": ["^Func/StatefulPartitionedCall/input_control_node/_0"], "attr": {"value": {"tensor": {"dtype": "DT_FLOAT", "tensorShape": {"dim": [{"size": "512"}]}}}, "dtype": {"type": "DT_FLOAT"}}}, {"name": "Func/StatefulPartitionedCall/input/_58", "op": "Const", "input": ["^Func/StatefulPartitionedCall/input_control_node/_0"], "attr": {"value": {"tensor": {"dtype": "DT_FLOAT", "tensorShape": {"dim": [{"size": "64"}, {"size": "512"}]}}}, "dtype": {"type": "DT_FLOAT"}}}, {"name": "Func/StatefulPartitionedCall/input/_59", "op": "Const", "input": ["^Func/StatefulPartitionedCall/input_control_node/_0"], "attr": {"dtype": {"type": "DT_FLOAT"}, "value": {"tensor": {"dtype": "DT_FLOAT", "tensorShape": {"dim": [{"size": "512"}]}}}}}, {"name": "StatefulPartitionedCall/Generator/decoder_up_adaresblock_0/adain_1/FullyConnected/flatten/Const", "op": "Const", "input": ["^Func/StatefulPartitionedCall/input_control_node/_0"], "attr": {"dtype": {"type": "DT_INT32"}, "value": {"tensor": {"dtype": "DT_INT32", "tensorShape": {"dim": [{"size": "2"}]}}}}}, {"name": "StatefulPartitionedCall/Generator/decoder_up_adaresblock_0/resize/size", "op": "Const", "input": ["^Func/StatefulPartitionedCall/input_control_node/_0"], "attr": {"value": {"tensor": {"dtype": "DT_INT32", "tensorShape": {"dim": [{"size": "2"}]}}}, "dtype": {"type": "DT_INT32"}}}, {"name": "Func/StatefulPartitionedCall/input/_134", "op": "Const", "input": ["^Func/StatefulPartitionedCall/input_control_node/_0"], "attr": {"value": {"tensor": {"dtype": "DT_FLOAT", "tensorShape": {"dim": [{"size": "3"}]}}}, "dtype": {"type": "DT_FLOAT"}}}, {"name": "Func/StatefulPartitionedCall/input/_56", "op": "Const", "input": ["^Func/StatefulPartitionedCall/input_control_node/_0"], "attr": {"value": {"tensor": {"dtype": "DT_FLOAT", "tensorShape": {"dim": [{"size": "64"}, {"size": "512"}]}}}, "dtype": {"type": "DT_FLOAT"}}}, {"name": "Func/StatefulPartitionedCall/input/_130", "op": "Const", "input": ["^Func/StatefulPartitionedCall/input_control_node/_0"], "attr": {"dtype": {"type": "DT_FLOAT"}, "value": {"tensor": {"dtype": "DT_FLOAT", "tensorShape": {"dim": [{"size": "1"}, {"size": "1"}, {"size": "128"}, {"size": "64"}]}}}}}, {"name": "Func/StatefulPartitionedCall/input/_57", "op": "Const", "input": ["^Func/StatefulPartitionedCall/input_control_node/_0"], "attr": {"value": {"tensor": {"dtype": "DT_FLOAT", "tensorShape": {"dim": [{"size": "512"}]}}}, "dtype": {"type": "DT_FLOAT"}}}, {"name": "StatefulPartitionedCall/Generator/decoder_up_adaresblock_2/adain_0/Reshape/shape", "op": "Const", "input": ["^Func/StatefulPartitionedCall/input_control_node/_0"], "attr": {"value": {"tensor": {"dtype": "DT_INT32", "tensorShape": {"dim": [{"size": "4"}]}}}, "dtype": {"type": "DT_INT32"}}}, {"name": "StatefulPartitionedCall/Generator/decoder_up_adaresblock_0/adain_1/add_1/x", "op": "Const", "input": ["^Func/StatefulPartitionedCall/input_control_node/_0"], "attr": {"value": {"tensor": {"dtype": "DT_FLOAT", "tensorShape": {}}}, "dtype": {"type": "DT_FLOAT"}}}, {"name": "Func/StatefulPartitionedCall/input/_60", "op": "Const", "input": ["^Func/StatefulPartitionedCall/input_control_node/_0"], "attr": {"dtype": {"type": "DT_FLOAT"}, "value": {"tensor": {"dtype": "DT_FLOAT", "tensorShape": {"dim": [{"size": "3"}, {"size": "3"}, {"size": "512"}, {"size": "512"}]}}}}}, {"name": "Func/StatefulPartitionedCall/input/_61", "op": "Const", "input": ["^Func/StatefulPartitionedCall/input_control_node/_0"], "attr": {"value": {"tensor": {"dtype": "DT_FLOAT", "tensorShape": {"dim": [{"size": "512"}]}}}, "dtype": {"type": "DT_FLOAT"}}}, {"name": "StatefulPartitionedCall/Generator/decoder_up_adaresblock_0/adain_0/moments/mean/reduction_indices", "op": "Const", "input": ["^Func/StatefulPartitionedCall/input_control_node/_0"], "attr": {"value": {"tensor": {"dtype": "DT_INT32", "tensorShape": {"dim": [{"size": "2"}]}}}, "dtype": {"type": "DT_INT32"}}}, {"name": "Func/StatefulPartitionedCall/input/_66", "op": "Const", "input": ["^Func/StatefulPartitionedCall/input_control_node/_0"], "attr": {"dtype": {"type": "DT_FLOAT"}, "value": {"tensor": {"dtype": "DT_FLOAT", "tensorShape": {"dim": [{"size": "3"}, {"size": "3"}, {"size": "512"}, {"size": "512"}]}}}}}, {"name": "Func/StatefulPartitionedCall/input/_67", "op": "Const", "input": ["^Func/StatefulPartitionedCall/input_control_node/_0"], "attr": {"value": {"tensor": {"dtype": "DT_FLOAT", "tensorShape": {"dim": [{"size": "512"}]}}}, "dtype": {"type": "DT_FLOAT"}}}, {"name": "StatefulPartitionedCall/Generator/encoder_bottleneck_resblock_1/instance_norm_1/Reshape_2", "op": "Const", "input": ["^Func/StatefulPartitionedCall/input_control_node/_0"], "attr": {"value": {"tensor": {"dtype": "DT_FLOAT", "tensorShape": {"dim": [{"size": "1"}, {"size": "1"}, {"size": "1"}, {"size": "512"}, {"size": "1"}]}}}, "dtype": {"type": "DT_FLOAT"}}}, {"name": "StatefulPartitionedCall/Generator/encoder_bottleneck_resblock_1/instance_norm_1/Reshape_1", "op": "Const", "input": ["^Func/StatefulPartitionedCall/input_control_node/_0"], "attr": {"value": {"tensor": {"dtype": "DT_FLOAT", "tensorShape": {"dim": [{"size": "1"}, {"size": "1"}, {"size": "1"}, {"size": "512"}, {"size": "1"}]}}}, "dtype": {"type": "DT_FLOAT"}}}, {"name": "StatefulPartitionedCall/Generator/encoder_bottleneck_resblock_1/instance_norm_0/Reshape_2", "op": "Const", "input": ["^Func/StatefulPartitionedCall/input_control_node/_0"], "attr": {"value": {"tensor": {"dtype": "DT_FLOAT", "tensorShape": {"dim": [{"size": "1"}, {"size": "1"}, {"size": "1"}, {"size": "512"}, {"size": "1"}]}}}, "dtype": {"type": "DT_FLOAT"}}}, {"name": "StatefulPartitionedCall/Generator/encoder_bottleneck_resblock_1/instance_norm_0/Reshape_1", "op": "Const", "input": ["^Func/StatefulPartitionedCall/input_control_node/_0"], "attr": {"dtype": {"type": "DT_FLOAT"}, "value": {"tensor": {"dtype": "DT_FLOAT", "tensorShape": {"dim": [{"size": "1"}, {"size": "1"}, {"size": "1"}, {"size": "512"}, {"size": "1"}]}}}}}, {"name": "StatefulPartitionedCall/Generator/encoder_bottleneck_resblock_0/instance_norm_1/Reshape_2", "op": "Const", "input": ["^Func/StatefulPartitionedCall/input_control_node/_0"], "attr": {"value": {"tensor": {"dtype": "DT_FLOAT", "tensorShape": {"dim": [{"size": "1"}, {"size": "1"}, {"size": "1"}, {"size": "512"}, {"size": "1"}]}}}, "dtype": {"type": "DT_FLOAT"}}}, {"name": "StatefulPartitionedCall/Generator/encoder_bottleneck_resblock_0/instance_norm_1/Reshape_1", "op": "Const", "input": ["^Func/StatefulPartitionedCall/input_control_node/_0"], "attr": {"value": {"tensor": {"dtype": "DT_FLOAT", "tensorShape": {"dim": [{"size": "1"}, {"size": "1"}, {"size": "1"}, {"size": "512"}, {"size": "1"}]}}}, "dtype": {"type": "DT_FLOAT"}}}, {"name": "StatefulPartitionedCall/Generator/encoder_bottleneck_resblock_0/instance_norm_0/Reshape_2", "op": "Const", "input": ["^Func/StatefulPartitionedCall/input_control_node/_0"], "attr": {"value": {"tensor": {"dtype": "DT_FLOAT", "tensorShape": {"dim": [{"size": "1"}, {"size": "1"}, {"size": "1"}, {"size": "512"}, {"size": "1"}]}}}, "dtype": {"type": "DT_FLOAT"}}}, {"name": "StatefulPartitionedCall/Generator/encoder_bottleneck_resblock_0/instance_norm_0/Reshape_1", "op": "Const", "input": ["^Func/StatefulPartitionedCall/input_control_node/_0"], "attr": {"value": {"tensor": {"dtype": "DT_FLOAT", "tensorShape": {"dim": [{"size": "1"}, {"size": "1"}, {"size": "1"}, {"size": "512"}, {"size": "1"}]}}}, "dtype": {"type": "DT_FLOAT"}}}, {"name": "Func/StatefulPartitionedCall/input/_42", "op": "Const", "input": ["^Func/StatefulPartitionedCall/input_control_node/_0"], "attr": {"value": {"tensor": {"dtype": "DT_FLOAT", "tensorShape": {"dim": [{"size": "3"}, {"size": "3"}, {"size": "512"}, {"size": "512"}]}}}, "dtype": {"type": "DT_FLOAT"}}}, {"name": "Func/StatefulPartitionedCall/input/_43", "op": "Const", "input": ["^Func/StatefulPartitionedCall/input_control_node/_0"], "attr": {"dtype": {"type": "DT_FLOAT"}, "value": {"tensor": {"dtype": "DT_FLOAT", "tensorShape": {"dim": [{"size": "512"}]}}}}}, {"name": "Func/StatefulPartitionedCall/input/_46", "op": "Const", "input": ["^Func/StatefulPartitionedCall/input_control_node/_0"], "attr": {"value": {"tensor": {"dtype": "DT_FLOAT", "tensorShape": {"dim": [{"size": "3"}, {"size": "3"}, {"size": "512"}, {"size": "512"}]}}}, "dtype": {"type": "DT_FLOAT"}}}, {"name": "Func/StatefulPartitionedCall/input/_47", "op": "Const", "input": ["^Func/StatefulPartitionedCall/input_control_node/_0"], "attr": {"value": {"tensor": {"dtype": "DT_FLOAT", "tensorShape": {"dim": [{"size": "512"}]}}}, "dtype": {"type": "DT_FLOAT"}}}, {"name": "StatefulPartitionedCall/Generator/encoder_down_resblock_3/instance_norm_1/Reshape_2", "op": "Const", "input": ["^Func/StatefulPartitionedCall/input_control_node/_0"], "attr": {"value": {"tensor": {"dtype": "DT_FLOAT", "tensorShape": {"dim": [{"size": "1"}, {"size": "1"}, {"size": "1"}, {"size": "512"}, {"size": "1"}]}}}, "dtype": {"type": "DT_FLOAT"}}}, {"name": "StatefulPartitionedCall/Generator/encoder_down_resblock_3/instance_norm_1/Reshape_1", "op": "Const", "input": ["^Func/StatefulPartitionedCall/input_control_node/_0"], "attr": {"value": {"tensor": {"dtype": "DT_FLOAT", "tensorShape": {"dim": [{"size": "1"}, {"size": "1"}, {"size": "1"}, {"size": "512"}, {"size": "1"}]}}}, "dtype": {"type": "DT_FLOAT"}}}, {"name": "StatefulPartitionedCall/Generator/encoder_down_resblock_3/instance_norm_0/Reshape_2", "op": "Const", "input": ["^Func/StatefulPartitionedCall/input_control_node/_0"], "attr": {"dtype": {"type": "DT_FLOAT"}, "value": {"tensor": {"dtype": "DT_FLOAT", "tensorShape": {"dim": [{"size": "1"}, {"size": "1"}, {"size": "1"}, {"size": "512"}, {"size": "1"}]}}}}}, {"name": "StatefulPartitionedCall/Generator/encoder_down_resblock_3/instance_norm_0/Reshape_1", "op": "Const", "input": ["^Func/StatefulPartitionedCall/input_control_node/_0"], "attr": {"value": {"tensor": {"dtype": "DT_FLOAT", "tensorShape": {"dim": [{"size": "1"}, {"size": "1"}, {"size": "1"}, {"size": "512"}, {"size": "1"}]}}}, "dtype": {"type": "DT_FLOAT"}}}, {"name": "StatefulPartitionedCall/Generator/encoder_bottleneck_resblock_1/instance_norm_1/stack/3", "op": "Const", "input": ["^Func/StatefulPartitionedCall/input_control_node/_0"], "attr": {"value": {"tensor": {"dtype": "DT_INT32", "tensorShape": {}}}, "dtype": {"type": "DT_INT32"}}}, {"name": "Func/StatefulPartitionedCall/input/_31", "op": "Const", "input": ["^Func/StatefulPartitionedCall/input_control_node/_0"], "attr": {"value": {"tensor": {"dtype": "DT_FLOAT", "tensorShape": {"dim": [{"size": "1"}, {"size": "1"}, {"size": "256"}, {"size": "512"}]}}}, "dtype": {"type": "DT_FLOAT"}}}, {"name": "StatefulPartitionedCall/Generator/encoder_down_resblock_2/instance_norm_1/Reshape_2", "op": "Const", "input": ["^Func/StatefulPartitionedCall/input_control_node/_0"], "attr": {"value": {"tensor": {"dtype": "DT_FLOAT", "tensorShape": {"dim": [{"size": "1"}, {"size": "1"}, {"size": "1"}, {"size": "256"}, {"size": "1"}]}}}, "dtype": {"type": "DT_FLOAT"}}}, {"name": "StatefulPartitionedCall/Generator/encoder_down_resblock_2/instance_norm_1/Reshape_1", "op": "Const", "input": ["^Func/StatefulPartitionedCall/input_control_node/_0"], "attr": {"value": {"tensor": {"dtype": "DT_FLOAT", "tensorShape": {"dim": [{"size": "1"}, {"size": "1"}, {"size": "1"}, {"size": "256"}, {"size": "1"}]}}}, "dtype": {"type": "DT_FLOAT"}}}, {"name": "StatefulPartitionedCall/Generator/encoder_down_resblock_2/instance_norm_0/Reshape_2", "op": "Const", "input": ["^Func/StatefulPartitionedCall/input_control_node/_0"], "attr": {"value": {"tensor": {"dtype": "DT_FLOAT", "tensorShape": {"dim": [{"size": "1"}, {"size": "1"}, {"size": "1"}, {"size": "256"}, {"size": "1"}]}}}, "dtype": {"type": "DT_FLOAT"}}}, {"name": "StatefulPartitionedCall/Generator/encoder_down_resblock_2/instance_norm_0/Reshape_1", "op": "Const", "input": ["^Func/StatefulPartitionedCall/input_control_node/_0"], "attr": {"value": {"tensor": {"dtype": "DT_FLOAT", "tensorShape": {"dim": [{"size": "1"}, {"size": "1"}, {"size": "1"}, {"size": "256"}, {"size": "1"}]}}}, "dtype": {"type": "DT_FLOAT"}}}, {"name": "StatefulPartitionedCall/Generator/encoder_down_resblock_2/instance_norm_1/stack/3", "op": "Const", "input": ["^Func/StatefulPartitionedCall/input_control_node/_0"], "attr": {"value": {"tensor": {"dtype": "DT_INT32", "tensorShape": {}}}, "dtype": {"type": "DT_INT32"}}}, {"name": "Func/StatefulPartitionedCall/input/_22", "op": "Const", "input": ["^Func/StatefulPartitionedCall/input_control_node/_0"], "attr": {"value": {"tensor": {"dtype": "DT_FLOAT", "tensorShape": {"dim": [{"size": "1"}, {"size": "1"}, {"size": "128"}, {"size": "256"}]}}}, "dtype": {"type": "DT_FLOAT"}}}, {"name": "StatefulPartitionedCall/Generator/encoder_down_resblock_1/instance_norm_1/Reshape_2", "op": "Const", "input": ["^Func/StatefulPartitionedCall/input_control_node/_0"], "attr": {"value": {"tensor": {"dtype": "DT_FLOAT", "tensorShape": {"dim": [{"size": "1"}, {"size": "1"}, {"size": "1"}, {"size": "128"}, {"size": "1"}]}}}, "dtype": {"type": "DT_FLOAT"}}}, {"name": "StatefulPartitionedCall/Generator/encoder_down_resblock_1/instance_norm_1/Reshape_1", "op": "Const", "input": ["^Func/StatefulPartitionedCall/input_control_node/_0"], "attr": {"value": {"tensor": {"dtype": "DT_FLOAT", "tensorShape": {"dim": [{"size": "1"}, {"size": "1"}, {"size": "1"}, {"size": "128"}, {"size": "1"}]}}}, "dtype": {"type": "DT_FLOAT"}}}, {"name": "StatefulPartitionedCall/Generator/encoder_down_resblock_1/instance_norm_0/Reshape_2", "op": "Const", "input": ["^Func/StatefulPartitionedCall/input_control_node/_0"], "attr": {"value": {"tensor": {"dtype": "DT_FLOAT", "tensorShape": {"dim": [{"size": "1"}, {"size": "1"}, {"size": "1"}, {"size": "128"}, {"size": "1"}]}}}, "dtype": {"type": "DT_FLOAT"}}}, {"name": "StatefulPartitionedCall/Generator/encoder_down_resblock_1/instance_norm_0/Reshape_1", "op": "Const", "input": ["^Func/StatefulPartitionedCall/input_control_node/_0"], "attr": {"value": {"tensor": {"dtype": "DT_FLOAT", "tensorShape": {"dim": [{"size": "1"}, {"size": "1"}, {"size": "1"}, {"size": "128"}, {"size": "1"}]}}}, "dtype": {"type": "DT_FLOAT"}}}, {"name": "StatefulPartitionedCall/Generator/encoder_down_resblock_1/instance_norm_1/stack/3", "op": "Const", "input": ["^Func/StatefulPartitionedCall/input_control_node/_0"], "attr": {"dtype": {"type": "DT_INT32"}, "value": {"tensor": {"dtype": "DT_INT32", "tensorShape": {}}}}}, {"name": "ConstantFolding/StatefulPartitionedCall/Generator/encoder_down_resblock_0/truediv_recip", "op": "Const", "input": ["^Func/StatefulPartitionedCall/input_control_node/_0"], "attr": {"value": {"tensor": {"dtype": "DT_FLOAT", "tensorShape": {}}}, "dtype": {"type": "DT_FLOAT"}}}, {"name": "Func/StatefulPartitionedCall/input/_13", "op": "Const", "input": ["^Func/StatefulPartitionedCall/input_control_node/_0"], "attr": {"value": {"tensor": {"dtype": "DT_FLOAT", "tensorShape": {"dim": [{"size": "1"}, {"size": "1"}, {"size": "64"}, {"size": "128"}]}}}, "dtype": {"type": "DT_FLOAT"}}}, {"name": "StatefulPartitionedCall/Generator/encoder_down_resblock_0/instance_norm_1/Reshape_2", "op": "Const", "input": ["^Func/StatefulPartitionedCall/input_control_node/_0"], "attr": {"value": {"tensor": {"dtype": "DT_FLOAT", "tensorShape": {"dim": [{"size": "1"}, {"size": "1"}, {"size": "1"}, {"size": "64"}, {"size": "1"}]}}}, "dtype": {"type": "DT_FLOAT"}}}, {"name": "StatefulPartitionedCall/Generator/encoder_down_resblock_0/instance_norm_1/Reshape_1", "op": "Const", "input": ["^Func/StatefulPartitionedCall/input_control_node/_0"], "attr": {"value": {"tensor": {"dtype": "DT_FLOAT", "tensorShape": {"dim": [{"size": "1"}, {"size": "1"}, {"size": "1"}, {"size": "64"}, {"size": "1"}]}}}, "dtype": {"type": "DT_FLOAT"}}}, {"name": "StatefulPartitionedCall/Generator/encoder_down_resblock_0/instance_norm_0/Reshape_2", "op": "Const", "input": ["^Func/StatefulPartitionedCall/input_control_node/_0"], "attr": {"value": {"tensor": {"dtype": "DT_FLOAT", "tensorShape": {"dim": [{"size": "1"}, {"size": "1"}, {"size": "1"}, {"size": "64"}, {"size": "1"}]}}}, "dtype": {"type": "DT_FLOAT"}}}, {"name": "StatefulPartitionedCall/Generator/encoder_down_resblock_0/instance_norm_0/Reshape_1", "op": "Const", "input": ["^Func/StatefulPartitionedCall/input_control_node/_0"], "attr": {"value": {"tensor": {"dtype": "DT_FLOAT", "tensorShape": {"dim": [{"size": "1"}, {"size": "1"}, {"size": "1"}, {"size": "64"}, {"size": "1"}]}}}, "dtype": {"type": "DT_FLOAT"}}}, {"name": "StatefulPartitionedCall/Generator/sequential/ins_norm/batchnorm/add/y", "op": "Const", "input": ["^Func/StatefulPartitionedCall/input_control_node/_0"], "attr": {"value": {"tensor": {"dtype": "DT_FLOAT", "tensorShape": {}}}, "dtype": {"type": "DT_FLOAT"}}}, {"name": "StatefulPartitionedCall/Generator/sequential/ins_norm/strided_slice/stack", "op": "Const", "input": ["^Func/StatefulPartitionedCall/input_control_node/_0"], "attr": {"value": {"tensor": {"dtype": "DT_INT32", "tensorShape": {"dim": [{"size": "1"}]}}}, "dtype": {"type": "DT_INT32"}}}, {"name": "StatefulPartitionedCall/Generator/sequential/ins_norm/strided_slice_1/stack_1", "op": "Const", "input": ["^Func/StatefulPartitionedCall/input_control_node/_0"], "attr": {"value": {"tensor": {"dtype": "DT_INT32", "tensorShape": {"dim": [{"size": "1"}]}}}, "dtype": {"type": "DT_INT32"}}}, {"name": "StatefulPartitionedCall/Generator/sequential/ins_norm/strided_slice_2/stack_1", "op": "Const", "input": ["^Func/StatefulPartitionedCall/input_control_node/_0"], "attr": {"value": {"tensor": {"dtype": "DT_INT32", "tensorShape": {"dim": [{"size": "1"}]}}}, "dtype": {"type": "DT_INT32"}}}, {"name": "StatefulPartitionedCall/Generator/sequential/ins_norm/strided_slice/stack_1", "op": "Const", "input": ["^Func/StatefulPartitionedCall/input_control_node/_0"], "attr": {"dtype": {"type": "DT_INT32"}, "value": {"tensor": {"dtype": "DT_INT32", "tensorShape": {"dim": [{"size": "1"}]}}}}}, {"name": "StatefulPartitionedCall/Generator/sequential/ins_norm/stack/3", "op": "Const", "input": ["^Func/StatefulPartitionedCall/input_control_node/_0"], "attr": {"value": {"tensor": {"dtype": "DT_INT32", "tensorShape": {}}}, "dtype": {"type": "DT_INT32"}}}, {"name": "StatefulPartitionedCall/Generator/sequential/ins_norm/stack/4", "op": "Const", "input": ["^Func/StatefulPartitionedCall/input_control_node/_0"], "attr": {"value": {"tensor": {"dtype": "DT_INT32", "tensorShape": {}}}, "dtype": {"type": "DT_INT32"}}}, {"name": "StatefulPartitionedCall/Generator/sequential/ins_norm/moments/mean/reduction_indices", "op": "Const", "input": ["^Func/StatefulPartitionedCall/input_control_node/_0"], "attr": {"value": {"tensor": {"dtype": "DT_INT32", "tensorShape": {"dim": [{"size": "3"}]}}}, "dtype": {"type": "DT_INT32"}}}, {"name": "Func/StatefulPartitionedCall/input/_3", "op": "Const", "input": ["^Func/StatefulPartitionedCall/input_control_node/_0"], "attr": {"value": {"tensor": {"dtype": "DT_FLOAT", "tensorShape": {"dim": [{"size": "3"}, {"size": "3"}, {"size": "3"}, {"size": "64"}]}}}, "dtype": {"type": "DT_FLOAT"}}}, {"name": "Func/StatefulPartitionedCall/input/_4", "op": "Const", "input": ["^Func/StatefulPartitionedCall/input_control_node/_0"], "attr": {"value": {"tensor": {"dtype": "DT_FLOAT", "tensorShape": {"dim": [{"size": "64"}]}}}, "dtype": {"type": "DT_FLOAT"}}}, {"name": "Func/StatefulPartitionedCall/input/_7", "op": "Const", "input": ["^Func/StatefulPartitionedCall/input_control_node/_0"], "attr": {"value": {"tensor": {"dtype": "DT_FLOAT", "tensorShape": {"dim": [{"size": "3"}, {"size": "3"}, {"size": "64"}, {"size": "64"}]}}}, "dtype": {"type": "DT_FLOAT"}}}, {"name": "Func/StatefulPartitionedCall/input/_8", "op": "Const", "input": ["^Func/StatefulPartitionedCall/input_control_node/_0"], "attr": {"value": {"tensor": {"dtype": "DT_FLOAT", "tensorShape": {"dim": [{"size": "64"}]}}}, "dtype": {"type": "DT_FLOAT"}}}, {"name": "Func/StatefulPartitionedCall/input/_11", "op": "Const", "input": ["^Func/StatefulPartitionedCall/input_control_node/_0"], "attr": {"value": {"tensor": {"dtype": "DT_FLOAT", "tensorShape": {"dim": [{"size": "3"}, {"size": "3"}, {"size": "64"}, {"size": "128"}]}}}, "dtype": {"type": "DT_FLOAT"}}}, {"name": "Func/StatefulPartitionedCall/input/_12", "op": "Const", "input": ["^Func/StatefulPartitionedCall/input_control_node/_0"], "attr": {"value": {"tensor": {"dtype": "DT_FLOAT", "tensorShape": {"dim": [{"size": "128"}]}}}, "dtype": {"type": "DT_FLOAT"}}}, {"name": "Func/StatefulPartitionedCall/input/_16", "op": "Const", "input": ["^Func/StatefulPartitionedCall/input_control_node/_0"], "attr": {"value": {"tensor": {"dtype": "DT_FLOAT", "tensorShape": {"dim": [{"size": "3"}, {"size": "3"}, {"size": "128"}, {"size": "128"}]}}}, "dtype": {"type": "DT_FLOAT"}}}, {"name": "Func/StatefulPartitionedCall/input/_17", "op": "Const", "input": ["^Func/StatefulPartitionedCall/input_control_node/_0"], "attr": {"value": {"tensor": {"dtype": "DT_FLOAT", "tensorShape": {"dim": [{"size": "128"}]}}}, "dtype": {"type": "DT_FLOAT"}}}, {"name": "Func/StatefulPartitionedCall/input/_20", "op": "Const", "input": ["^Func/StatefulPartitionedCall/input_control_node/_0"], "attr": {"value": {"tensor": {"dtype": "DT_FLOAT", "tensorShape": {"dim": [{"size": "3"}, {"size": "3"}, {"size": "128"}, {"size": "256"}]}}}, "dtype": {"type": "DT_FLOAT"}}}, {"name": "Func/StatefulPartitionedCall/input/_21", "op": "Const", "input": ["^Func/StatefulPartitionedCall/input_control_node/_0"], "attr": {"value": {"tensor": {"dtype": "DT_FLOAT", "tensorShape": {"dim": [{"size": "256"}]}}}, "dtype": {"type": "DT_FLOAT"}}}, {"name": "Func/StatefulPartitionedCall/input/_25", "op": "Const", "input": ["^Func/StatefulPartitionedCall/input_control_node/_0"], "attr": {"value": {"tensor": {"dtype": "DT_FLOAT", "tensorShape": {"dim": [{"size": "3"}, {"size": "3"}, {"size": "256"}, {"size": "256"}]}}}, "dtype": {"type": "DT_FLOAT"}}}, {"name": "Func/StatefulPartitionedCall/input/_26", "op": "Const", "input": ["^Func/StatefulPartitionedCall/input_control_node/_0"], "attr": {"value": {"tensor": {"dtype": "DT_FLOAT", "tensorShape": {"dim": [{"size": "256"}]}}}, "dtype": {"type": "DT_FLOAT"}}}, {"name": "Func/StatefulPartitionedCall/input/_29", "op": "Const", "input": ["^Func/StatefulPartitionedCall/input_control_node/_0"], "attr": {"value": {"tensor": {"dtype": "DT_FLOAT", "tensorShape": {"dim": [{"size": "3"}, {"size": "3"}, {"size": "256"}, {"size": "512"}]}}}, "dtype": {"type": "DT_FLOAT"}}}, {"name": "Func/StatefulPartitionedCall/input/_30", "op": "Const", "input": ["^Func/StatefulPartitionedCall/input_control_node/_0"], "attr": {"value": {"tensor": {"dtype": "DT_FLOAT", "tensorShape": {"dim": [{"size": "512"}]}}}, "dtype": {"type": "DT_FLOAT"}}}, {"name": "Func/StatefulPartitionedCall/input/_34", "op": "Const", "input": ["^Func/StatefulPartitionedCall/input_control_node/_0"], "attr": {"value": {"tensor": {"dtype": "DT_FLOAT", "tensorShape": {"dim": [{"size": "3"}, {"size": "3"}, {"size": "512"}, {"size": "512"}]}}}, "dtype": {"type": "DT_FLOAT"}}}, {"name": "Func/StatefulPartitionedCall/input/_35", "op": "Const", "input": ["^Func/StatefulPartitionedCall/input_control_node/_0"], "attr": {"value": {"tensor": {"dtype": "DT_FLOAT", "tensorShape": {"dim": [{"size": "512"}]}}}, "dtype": {"type": "DT_FLOAT"}}}, {"name": "Func/StatefulPartitionedCall/input/_38", "op": "Const", "input": ["^Func/StatefulPartitionedCall/input_control_node/_0"], "attr": {"value": {"tensor": {"dtype": "DT_FLOAT", "tensorShape": {"dim": [{"size": "3"}, {"size": "3"}, {"size": "512"}, {"size": "512"}]}}}, "dtype": {"type": "DT_FLOAT"}}}, {"name": "Func/StatefulPartitionedCall/input/_39", "op": "Const", "input": ["^Func/StatefulPartitionedCall/input_control_node/_0"], "attr": {"value": {"tensor": {"dtype": "DT_FLOAT", "tensorShape": {"dim": [{"size": "512"}]}}}, "dtype": {"type": "DT_FLOAT"}}}, {"name": "Func/StatefulPartitionedCall/input/_50", "op": "Const", "input": ["^Func/StatefulPartitionedCall/input_control_node/_0"], "attr": {"value": {"tensor": {"dtype": "DT_FLOAT", "tensorShape": {"dim": [{"size": "3"}, {"size": "3"}, {"size": "512"}, {"size": "512"}]}}}, "dtype": {"type": "DT_FLOAT"}}}, {"name": "Func/StatefulPartitionedCall/input/_51", "op": "Const", "input": ["^Func/StatefulPartitionedCall/input_control_node/_0"], "attr": {"value": {"tensor": {"dtype": "DT_FLOAT", "tensorShape": {"dim": [{"size": "512"}]}}}, "dtype": {"type": "DT_FLOAT"}}}, {"name": "StatefulPartitionedCall/Generator/decoder_up_adaresblock_0/conv_0/Pad/paddings", "op": "Const", "input": ["^Func/StatefulPartitionedCall/input_control_node/_0"], "attr": {"value": {"tensor": {"dtype": "DT_INT32", "tensorShape": {"dim": [{"size": "4"}, {"size": "2"}]}}}, "dtype": {"type": "DT_INT32"}}}, {"name": "Func/StatefulPartitionedCall/input/_54", "op": "Const", "input": ["^Func/StatefulPartitionedCall/input_control_node/_0"], "attr": {"value": {"tensor": {"dtype": "DT_FLOAT", "tensorShape": {"dim": [{"size": "3"}, {"size": "3"}, {"size": "512"}, {"size": "512"}]}}}, "dtype": {"type": "DT_FLOAT"}}}, {"name": "Func/StatefulPartitionedCall/input/_55", "op": "Const", "input": ["^Func/StatefulPartitionedCall/input_control_node/_0"], "attr": {"value": {"tensor": {"dtype": "DT_FLOAT", "tensorShape": {"dim": [{"size": "512"}]}}}, "dtype": {"type": "DT_FLOAT"}}}, {"name": "StatefulPartitionedCall/Generator/decoder_up_adaresblock_3/resize/size", "op": "Const", "input": ["^Func/StatefulPartitionedCall/input_control_node/_0"], "attr": {"value": {"tensor": {"dtype": "DT_INT32", "tensorShape": {"dim": [{"size": "2"}]}}}, "dtype": {"type": "DT_INT32"}}}, {"name": "StatefulPartitionedCall/Generator/decoder_up_adaresblock_2/resize/size", "op": "Const", "input": ["^Func/StatefulPartitionedCall/input_control_node/_0"], "attr": {"value": {"tensor": {"dtype": "DT_INT32", "tensorShape": {"dim": [{"size": "2"}]}}}, "dtype": {"type": "DT_INT32"}}}, {"name": "Func/StatefulPartitionedCall/input/_104", "op": "Const", "input": ["^Func/StatefulPartitionedCall/input_control_node/_0"], "attr": {"value": {"tensor": {"dtype": "DT_FLOAT", "tensorShape": {"dim": [{"size": "1"}, {"size": "1"}, {"size": "512"}, {"size": "256"}]}}}, "dtype": {"type": "DT_FLOAT"}}}, {"name": "StatefulPartitionedCall/Generator/decoder_up_adaresblock_1/resize/size", "op": "Const", "input": ["^Func/StatefulPartitionedCall/input_control_node/_0"], "attr": {"value": {"tensor": {"dtype": "DT_INT32", "tensorShape": {"dim": [{"size": "2"}]}}}, "dtype": {"type": "DT_INT32"}}}, {"name": "Func/StatefulPartitionedCall/input/_133", "op": "Const", "input": ["^Func/StatefulPartitionedCall/input_control_node/_0"], "attr": {"value": {"tensor": {"dtype": "DT_FLOAT", "tensorShape": {"dim": [{"size": "1"}, {"size": "1"}, {"size": "64"}, {"size": "3"}]}}}, "dtype": {"type": "DT_FLOAT"}}}, {"name": "Func/StatefulPartitionedCall/input/_117", "op": "Const", "input": ["^Func/StatefulPartitionedCall/input_control_node/_0"], "attr": {"value": {"tensor": {"dtype": "DT_FLOAT", "tensorShape": {"dim": [{"size": "1"}, {"size": "1"}, {"size": "256"}, {"size": "128"}]}}}, "dtype": {"type": "DT_FLOAT"}}}, {"name": "StatefulPartitionedCall/Generator/decoder_up_adaresblock_0/adain_1/FullyConnected/flatten/Reshape", "op": "Reshape", "input": ["input_2", "StatefulPartitionedCall/Generator/decoder_up_adaresblock_0/adain_1/FullyConnected/flatten/Const"], "attr": {"T": {"type": "DT_FLOAT"}, "Tshape": {"type": "DT_INT32"}}}, {"name": "StatefulPartitionedCall/Generator/from_rgb/Pad", "op": "Pad", "input": ["input_1", "StatefulPartitionedCall/Generator/decoder_up_adaresblock_0/conv_0/Pad/paddings"], "attr": {"T": {"type": "DT_FLOAT"}, "Tpaddings": {"type": "DT_INT32"}}}, {"name": "StatefulPartitionedCall/Generator/decoder_up_adaresblock_0/adain_1/FullyConnected_1/FullyConnected/BiasAdd", "op": "_FusedMatMul", "input": ["StatefulPartitionedCall/Generator/decoder_up_adaresblock_0/adain_1/FullyConnected/flatten/Reshape", "Func/StatefulPartitionedCall/input/_126", "Func/StatefulPartitionedCall/input/_127"], "device": "/device:CPU:0", "attr": {"num_args": {"i": "1"}, "epsilon": {"f": 0.0}, "fused_ops": {"list": {"s": ["Qmlhc0FkZA=="]}}, "transpose_a": {"b": false}, "transpose_b": {"b": false}, "T": {"type": "DT_FLOAT"}}}, {"name": "StatefulPartitionedCall/Generator/decoder_up_adaresblock_0/adain_1/FullyConnected/FullyConnected/BiasAdd", "op": "_FusedMatMul", "input": ["StatefulPartitionedCall/Generator/decoder_up_adaresblock_0/adain_1/FullyConnected/flatten/Reshape", "Func/StatefulPartitionedCall/input/_124", "Func/StatefulPartitionedCall/input/_125"], "device": "/device:CPU:0", "attr": {"transpose_b": {"b": false}, "T": {"type": "DT_FLOAT"}, "num_args": {"i": "1"}, "epsilon": {"f": 0.0}, "fused_ops": {"list": {"s": ["Qmlhc0FkZA=="]}}, "transpose_a": {"b": false}}}, {"name": "StatefulPartitionedCall/Generator/decoder_up_adaresblock_0/adain_0/FullyConnected_1/FullyConnected/BiasAdd", "op": "_FusedMatMul", "input": ["StatefulPartitionedCall/Generator/decoder_up_adaresblock_0/adain_1/FullyConnected/flatten/Reshape", "Func/StatefulPartitionedCall/input/_120", "Func/StatefulPartitionedCall/input/_121"], "device": "/device:CPU:0", "attr": {"fused_ops": {"list": {"s": ["Qmlhc0FkZA=="]}}, "transpose_a": {"b": false}, "transpose_b": {"b": false}, "T": {"type": "DT_FLOAT"}, "num_args": {"i": "1"}, "epsilon": {"f": 0.0}}}, {"name": "StatefulPartitionedCall/Generator/decoder_up_adaresblock_0/adain_0/FullyConnected/FullyConnected/BiasAdd", "op": "_FusedMatMul", "input": ["StatefulPartitionedCall/Generator/decoder_up_adaresblock_0/adain_1/FullyConnected/flatten/Reshape", "Func/StatefulPartitionedCall/input/_118", "Func/StatefulPartitionedCall/input/_119"], "device": "/device:CPU:0", "attr": {"T": {"type": "DT_FLOAT"}, "num_args": {"i": "1"}, "epsilon": {"f": 0.0}, "fused_ops": {"list": {"s": ["Qmlhc0FkZA=="]}}, "transpose_a": {"b": false}, "transpose_b": {"b": false}}}, {"name": "StatefulPartitionedCall/Generator/decoder_up_adaresblock_1/adain_1/FullyConnected_1/FullyConnected/BiasAdd", "op": "_FusedMatMul", "input": ["StatefulPartitionedCall/Generator/decoder_up_adaresblock_0/adain_1/FullyConnected/flatten/Reshape", "Func/StatefulPartitionedCall/input/_113", "Func/StatefulPartitionedCall/input/_114"], "device": "/device:CPU:0", "attr": {"transpose_b": {"b": false}, "T": {"type": "DT_FLOAT"}, "num_args": {"i": "1"}, "epsilon": {"f": 0.0}, "fused_ops": {"list": {"s": ["Qmlhc0FkZA=="]}}, "transpose_a": {"b": false}}}, {"name": "StatefulPartitionedCall/Generator/decoder_up_adaresblock_1/adain_1/FullyConnected/FullyConnected/BiasAdd", "op": "_FusedMatMul", "input": ["StatefulPartitionedCall/Generator/decoder_up_adaresblock_0/adain_1/FullyConnected/flatten/Reshape", "Func/StatefulPartitionedCall/input/_111", "Func/StatefulPartitionedCall/input/_112"], "device": "/device:CPU:0", "attr": {"epsilon": {"f": 0.0}, "fused_ops": {"list": {"s": ["Qmlhc0FkZA=="]}}, "transpose_a": {"b": false}, "transpose_b": {"b": false}, "T": {"type": "DT_FLOAT"}, "num_args": {"i": "1"}}}, {"name": "StatefulPartitionedCall/Generator/decoder_up_adaresblock_1/adain_0/FullyConnected_1/FullyConnected/BiasAdd", "op": "_FusedMatMul", "input": ["StatefulPartitionedCall/Generator/decoder_up_adaresblock_0/adain_1/FullyConnected/flatten/Reshape", "Func/StatefulPartitionedCall/input/_107", "Func/StatefulPartitionedCall/input/_108"], "device": "/device:CPU:0", "attr": {"T": {"type": "DT_FLOAT"}, "num_args": {"i": "1"}, "epsilon": {"f": 0.0}, "fused_ops": {"list": {"s": ["Qmlhc0FkZA=="]}}, "transpose_a": {"b": false}, "transpose_b": {"b": false}}}, {"name": "StatefulPartitionedCall/Generator/decoder_up_adaresblock_1/adain_0/FullyConnected/FullyConnected/BiasAdd", "op": "_FusedMatMul", "input": ["StatefulPartitionedCall/Generator/decoder_up_adaresblock_0/adain_1/FullyConnected/flatten/Reshape", "Func/StatefulPartitionedCall/input/_105", "Func/StatefulPartitionedCall/input/_106"], "device": "/device:CPU:0", "attr": {"transpose_a": {"b": false}, "transpose_b": {"b": false}, "T": {"type": "DT_FLOAT"}, "num_args": {"i": "1"}, "epsilon": {"f": 0.0}, "fused_ops": {"list": {"s": ["Qmlhc0FkZA=="]}}}}, {"name": "StatefulPartitionedCall/Generator/decoder_up_adaresblock_2/adain_1/FullyConnected_1/FullyConnected/BiasAdd", "op": "_FusedMatMul", "input": ["StatefulPartitionedCall/Generator/decoder_up_adaresblock_0/adain_1/FullyConnected/flatten/Reshape", "Func/StatefulPartitionedCall/input/_100", "Func/StatefulPartitionedCall/input/_101"], "device": "/device:CPU:0", "attr": {"transpose_a": {"b": false}, "transpose_b": {"b": false}, "T": {"type": "DT_FLOAT"}, "num_args": {"i": "1"}, "epsilon": {"f": 0.0}, "fused_ops": {"list": {"s": ["Qmlhc0FkZA=="]}}}}, {"name": "StatefulPartitionedCall/Generator/decoder_up_adaresblock_2/adain_1/FullyConnected/FullyConnected/BiasAdd", "op": "_FusedMatMul", "input": ["StatefulPartitionedCall/Generator/decoder_up_adaresblock_0/adain_1/FullyConnected/flatten/Reshape", "Func/StatefulPartitionedCall/input/_98", "Func/StatefulPartitionedCall/input/_99"], "device": "/device:CPU:0", "attr": {"num_args": {"i": "1"}, "epsilon": {"f": 0.0}, "fused_ops": {"list": {"s": ["Qmlhc0FkZA=="]}}, "transpose_a": {"b": false}, "transpose_b": {"b": false}, "T": {"type": "DT_FLOAT"}}}, {"name": "StatefulPartitionedCall/Generator/decoder_up_adaresblock_2/adain_0/FullyConnected_1/FullyConnected/BiasAdd", "op": "_FusedMatMul", "input": ["StatefulPartitionedCall/Generator/decoder_up_adaresblock_0/adain_1/FullyConnected/flatten/Reshape", "Func/StatefulPartitionedCall/input/_94", "Func/StatefulPartitionedCall/input/_95"], "device": "/device:CPU:0", "attr": {"epsilon": {"f": 0.0}, "fused_ops": {"list": {"s": ["Qmlhc0FkZA=="]}}, "transpose_a": {"b": false}, "transpose_b": {"b": false}, "T": {"type": "DT_FLOAT"}, "num_args": {"i": "1"}}}, {"name": "StatefulPartitionedCall/Generator/decoder_up_adaresblock_2/adain_0/FullyConnected/FullyConnected/BiasAdd", "op": "_FusedMatMul", "input": ["StatefulPartitionedCall/Generator/decoder_up_adaresblock_0/adain_1/FullyConnected/flatten/Reshape", "Func/StatefulPartitionedCall/input/_92", "Func/StatefulPartitionedCall/input/_93"], "device": "/device:CPU:0", "attr": {"transpose_a": {"b": false}, "transpose_b": {"b": false}, "T": {"type": "DT_FLOAT"}, "num_args": {"i": "1"}, "epsilon": {"f": 0.0}, "fused_ops": {"list": {"s": ["Qmlhc0FkZA=="]}}}}, {"name": "StatefulPartitionedCall/Generator/decoder_up_adaresblock_3/adain_1/FullyConnected_1/FullyConnected/BiasAdd", "op": "_FusedMatMul", "input": ["StatefulPartitionedCall/Generator/decoder_up_adaresblock_0/adain_1/FullyConnected/flatten/Reshape", "Func/StatefulPartitionedCall/input/_88", "Func/StatefulPartitionedCall/input/_89"], "device": "/device:CPU:0", "attr": {"num_args": {"i": "1"}, "epsilon": {"f": 0.0}, "fused_ops": {"list": {"s": ["Qmlhc0FkZA=="]}}, "transpose_a": {"b": false}, "transpose_b": {"b": false}, "T": {"type": "DT_FLOAT"}}}, {"name": "StatefulPartitionedCall/Generator/decoder_up_adaresblock_3/adain_1/FullyConnected/FullyConnected/BiasAdd", "op": "_FusedMatMul", "input": ["StatefulPartitionedCall/Generator/decoder_up_adaresblock_0/adain_1/FullyConnected/flatten/Reshape", "Func/StatefulPartitionedCall/input/_86", "Func/StatefulPartitionedCall/input/_87"], "device": "/device:CPU:0", "attr": {"transpose_a": {"b": false}, "transpose_b": {"b": false}, "T": {"type": "DT_FLOAT"}, "num_args": {"i": "1"}, "epsilon": {"f": 0.0}, "fused_ops": {"list": {"s": ["Qmlhc0FkZA=="]}}}}, {"name": "StatefulPartitionedCall/Generator/decoder_up_adaresblock_3/adain_0/FullyConnected_1/FullyConnected/BiasAdd", "op": "_FusedMatMul", "input": ["StatefulPartitionedCall/Generator/decoder_up_adaresblock_0/adain_1/FullyConnected/flatten/Reshape", "Func/StatefulPartitionedCall/input/_82", "Func/StatefulPartitionedCall/input/_83"], "device": "/device:CPU:0", "attr": {"T": {"type": "DT_FLOAT"}, "num_args": {"i": "1"}, "epsilon": {"f": 0.0}, "fused_ops": {"list": {"s": ["Qmlhc0FkZA=="]}}, "transpose_a": {"b": false}, "transpose_b": {"b": false}}}, {"name": "StatefulPartitionedCall/Generator/decoder_up_adaresblock_3/adain_0/FullyConnected/FullyConnected/BiasAdd", "op": "_FusedMatMul", "input": ["StatefulPartitionedCall/Generator/decoder_up_adaresblock_0/adain_1/FullyConnected/flatten/Reshape", "Func/StatefulPartitionedCall/input/_80", "Func/StatefulPartitionedCall/input/_81"], "device": "/device:CPU:0", "attr": {"transpose_a": {"b": false}, "transpose_b": {"b": false}, "T": {"type": "DT_FLOAT"}, "num_args": {"i": "1"}, "epsilon": {"f": 0.0}, "fused_ops": {"list": {"s": ["Qmlhc0FkZA=="]}}}}, {"name": "StatefulPartitionedCall/Generator/decoder_bottleneck_adaresblock_0/adain_1/FullyConnected_1/FullyConnected/BiasAdd", "op": "_FusedMatMul", "input": ["StatefulPartitionedCall/Generator/decoder_up_adaresblock_0/adain_1/FullyConnected/flatten/Reshape", "Func/StatefulPartitionedCall/input/_76", "Func/StatefulPartitionedCall/input/_77"], "device": "/device:CPU:0", "attr": {"fused_ops": {"list": {"s": ["Qmlhc0FkZA=="]}}, "transpose_a": {"b": false}, "transpose_b": {"b": false}, "T": {"type": "DT_FLOAT"}, "num_args": {"i": "1"}, "epsilon": {"f": 0.0}}}, {"name": "StatefulPartitionedCall/Generator/decoder_bottleneck_adaresblock_0/adain_1/FullyConnected/FullyConnected/BiasAdd", "op": "_FusedMatMul", "input": ["StatefulPartitionedCall/Generator/decoder_up_adaresblock_0/adain_1/FullyConnected/flatten/Reshape", "Func/StatefulPartitionedCall/input/_74", "Func/StatefulPartitionedCall/input/_75"], "device": "/device:CPU:0", "attr": {"T": {"type": "DT_FLOAT"}, "num_args": {"i": "1"}, "epsilon": {"f": 0.0}, "fused_ops": {"list": {"s": ["Qmlhc0FkZA=="]}}, "transpose_a": {"b": false}, "transpose_b": {"b": false}}}, {"name": "StatefulPartitionedCall/Generator/decoder_bottleneck_adaresblock_0/adain_0/FullyConnected_1/FullyConnected/BiasAdd", "op": "_FusedMatMul", "input": ["StatefulPartitionedCall/Generator/decoder_up_adaresblock_0/adain_1/FullyConnected/flatten/Reshape", "Func/StatefulPartitionedCall/input/_70", "Func/StatefulPartitionedCall/input/_71"], "device": "/device:CPU:0", "attr": {"transpose_a": {"b": false}, "transpose_b": {"b": false}, "T": {"type": "DT_FLOAT"}, "num_args": {"i": "1"}, "epsilon": {"f": 0.0}, "fused_ops": {"list": {"s": ["Qmlhc0FkZA=="]}}}}, {"name": "StatefulPartitionedCall/Generator/decoder_bottleneck_adaresblock_0/adain_0/FullyConnected/FullyConnected/BiasAdd", "op": "_FusedMatMul", "input": ["StatefulPartitionedCall/Generator/decoder_up_adaresblock_0/adain_1/FullyConnected/flatten/Reshape", "Func/StatefulPartitionedCall/input/_68", "Func/StatefulPartitionedCall/input/_69"], "device": "/device:CPU:0", "attr": {"fused_ops": {"list": {"s": ["Qmlhc0FkZA=="]}}, "transpose_a": {"b": false}, "transpose_b": {"b": false}, "T": {"type": "DT_FLOAT"}, "num_args": {"i": "1"}, "epsilon": {"f": 0.0}}}, {"name": "StatefulPartitionedCall/Generator/decoder_bottleneck_adaresblock_1/adain_1/FullyConnected_1/FullyConnected/BiasAdd", "op": "_FusedMatMul", "input": ["StatefulPartitionedCall/Generator/decoder_up_adaresblock_0/adain_1/FullyConnected/flatten/Reshape", "Func/StatefulPartitionedCall/input/_64", "Func/StatefulPartitionedCall/input/_65"], "device": "/device:CPU:0", "attr": {"num_args": {"i": "1"}, "epsilon": {"f": 0.0}, "fused_ops": {"list": {"s": ["Qmlhc0FkZA=="]}}, "transpose_a": {"b": false}, "transpose_b": {"b": false}, "T": {"type": "DT_FLOAT"}}}, {"name": "StatefulPartitionedCall/Generator/decoder_bottleneck_adaresblock_1/adain_1/FullyConnected/FullyConnected/BiasAdd", "op": "_FusedMatMul", "input": ["StatefulPartitionedCall/Generator/decoder_up_adaresblock_0/adain_1/FullyConnected/flatten/Reshape", "Func/StatefulPartitionedCall/input/_62", "Func/StatefulPartitionedCall/input/_63"], "device": "/device:CPU:0", "attr": {"transpose_b": {"b": false}, "T": {"type": "DT_FLOAT"}, "num_args": {"i": "1"}, "epsilon": {"f": 0.0}, "fused_ops": {"list": {"s": ["Qmlhc0FkZA=="]}}, "transpose_a": {"b": false}}}, {"name": "StatefulPartitionedCall/Generator/decoder_bottleneck_adaresblock_1/adain_0/FullyConnected_1/FullyConnected/BiasAdd", "op": "_FusedMatMul", "input": ["StatefulPartitionedCall/Generator/decoder_up_adaresblock_0/adain_1/FullyConnected/flatten/Reshape", "Func/StatefulPartitionedCall/input/_58", "Func/StatefulPartitionedCall/input/_59"], "device": "/device:CPU:0", "attr": {"T": {"type": "DT_FLOAT"}, "num_args": {"i": "1"}, "epsilon": {"f": 0.0}, "fused_ops": {"list": {"s": ["Qmlhc0FkZA=="]}}, "transpose_a": {"b": false}, "transpose_b": {"b": false}}}, {"name": "StatefulPartitionedCall/Generator/decoder_bottleneck_adaresblock_1/adain_0/FullyConnected/FullyConnected/BiasAdd", "op": "_FusedMatMul", "input": ["StatefulPartitionedCall/Generator/decoder_up_adaresblock_0/adain_1/FullyConnected/flatten/Reshape", "Func/StatefulPartitionedCall/input/_56", "Func/StatefulPartitionedCall/input/_57"], "device": "/device:CPU:0", "attr": {"epsilon": {"f": 0.0}, "fused_ops": {"list": {"s": ["Qmlhc0FkZA=="]}}, "transpose_a": {"b": false}, "transpose_b": {"b": false}, "T": {"type": "DT_FLOAT"}, "num_args": {"i": "1"}}}, {"name": "StatefulPartitionedCall/Generator/from_rgb/from_rgb/BiasAdd", "op": "_FusedConv2D", "input": ["StatefulPartitionedCall/Generator/from_rgb/Pad", "Func/StatefulPartitionedCall/input/_3", "Func/StatefulPartitionedCall/input/_4"], "device": "/device:CPU:0", "attr": {"dilations": {"list": {"i": ["1", "1", "1", "1"]}}, "T": {"type": "DT_FLOAT"}, "data_format": {"s": "TkhXQw=="}, "strides": {"list": {"i": ["1", "1", "1", "1"]}}, "explicit_paddings": {"list": {}}, "use_cudnn_on_gpu": {"b": true}, "num_args": {"i": "1"}, "epsilon": {"f": 0.0}, "padding": {"s": "VkFMSUQ="}, "fused_ops": {"list": {"s": ["Qmlhc0FkZA=="]}}}}, {"name": "StatefulPartitionedCall/Generator/decoder_up_adaresblock_0/adain_1/Reshape_1", "op": "Reshape", "input": ["StatefulPartitionedCall/Generator/decoder_up_adaresblock_0/adain_1/FullyConnected_1/FullyConnected/BiasAdd", "StatefulPartitionedCall/Generator/decoder_up_adaresblock_0/adain_1/Reshape/shape"], "attr": {"T": {"type": "DT_FLOAT"}, "Tshape": {"type": "DT_INT32"}}}, {"name": "StatefulPartitionedCall/Generator/decoder_up_adaresblock_0/adain_1/Reshape", "op": "Reshape", "input": ["StatefulPartitionedCall/Generator/decoder_up_adaresblock_0/adain_1/FullyConnected/FullyConnected/BiasAdd", "StatefulPartitionedCall/Generator/decoder_up_adaresblock_0/adain_1/Reshape/shape"], "attr": {"T": {"type": "DT_FLOAT"}, "Tshape": {"type": "DT_INT32"}}}, {"name": "StatefulPartitionedCall/Generator/decoder_up_adaresblock_0/adain_0/Reshape_1", "op": "Reshape", "input": ["StatefulPartitionedCall/Generator/decoder_up_adaresblock_0/adain_0/FullyConnected_1/FullyConnected/BiasAdd", "StatefulPartitionedCall/Generator/decoder_up_adaresblock_0/adain_0/Reshape/shape"], "attr": {"T": {"type": "DT_FLOAT"}, "Tshape": {"type": "DT_INT32"}}}, {"name": "StatefulPartitionedCall/Generator/decoder_up_adaresblock_0/adain_0/Reshape", "op": "Reshape", "input": ["StatefulPartitionedCall/Generator/decoder_up_adaresblock_0/adain_0/FullyConnected/FullyConnected/BiasAdd", "StatefulPartitionedCall/Generator/decoder_up_adaresblock_0/adain_0/Reshape/shape"], "attr": {"T": {"type": "DT_FLOAT"}, "Tshape": {"type": "DT_INT32"}}}, {"name": "StatefulPartitionedCall/Generator/decoder_up_adaresblock_1/adain_1/Reshape_1", "op": "Reshape", "input": ["StatefulPartitionedCall/Generator/decoder_up_adaresblock_1/adain_1/FullyConnected_1/FullyConnected/BiasAdd", "StatefulPartitionedCall/Generator/decoder_up_adaresblock_0/adain_0/Reshape/shape"], "attr": {"T": {"type": "DT_FLOAT"}, "Tshape": {"type": "DT_INT32"}}}, {"name": "StatefulPartitionedCall/Generator/decoder_up_adaresblock_1/adain_1/Reshape", "op": "Reshape", "input": ["StatefulPartitionedCall/Generator/decoder_up_adaresblock_1/adain_1/FullyConnected/FullyConnected/BiasAdd", "StatefulPartitionedCall/Generator/decoder_up_adaresblock_0/adain_0/Reshape/shape"], "attr": {"T": {"type": "DT_FLOAT"}, "Tshape": {"type": "DT_INT32"}}}, {"name": "StatefulPartitionedCall/Generator/decoder_up_adaresblock_1/adain_0/Reshape_1", "op": "Reshape", "input": ["StatefulPartitionedCall/Generator/decoder_up_adaresblock_1/adain_0/FullyConnected_1/FullyConnected/BiasAdd", "StatefulPartitionedCall/Generator/decoder_up_adaresblock_1/adain_0/Reshape/shape"], "attr": {"T": {"type": "DT_FLOAT"}, "Tshape": {"type": "DT_INT32"}}}, {"name": "StatefulPartitionedCall/Generator/decoder_up_adaresblock_1/adain_0/Reshape", "op": "Reshape", "input": ["StatefulPartitionedCall/Generator/decoder_up_adaresblock_1/adain_0/FullyConnected/FullyConnected/BiasAdd", "StatefulPartitionedCall/Generator/decoder_up_adaresblock_1/adain_0/Reshape/shape"], "attr": {"T": {"type": "DT_FLOAT"}, "Tshape": {"type": "DT_INT32"}}}, {"name": "StatefulPartitionedCall/Generator/decoder_up_adaresblock_2/adain_1/Reshape_1", "op": "Reshape", "input": ["StatefulPartitionedCall/Generator/decoder_up_adaresblock_2/adain_1/FullyConnected_1/FullyConnected/BiasAdd", "StatefulPartitionedCall/Generator/decoder_up_adaresblock_1/adain_0/Reshape/shape"], "attr": {"T": {"type": "DT_FLOAT"}, "Tshape": {"type": "DT_INT32"}}}, {"name": "StatefulPartitionedCall/Generator/decoder_up_adaresblock_2/adain_1/Reshape", "op": "Reshape", "input": ["StatefulPartitionedCall/Generator/decoder_up_adaresblock_2/adain_1/FullyConnected/FullyConnected/BiasAdd", "StatefulPartitionedCall/Generator/decoder_up_adaresblock_1/adain_0/Reshape/shape"], "attr": {"T": {"type": "DT_FLOAT"}, "Tshape": {"type": "DT_INT32"}}}, {"name": "StatefulPartitionedCall/Generator/decoder_up_adaresblock_2/adain_0/Reshape_1", "op": "Reshape", "input": ["StatefulPartitionedCall/Generator/decoder_up_adaresblock_2/adain_0/FullyConnected_1/FullyConnected/BiasAdd", "StatefulPartitionedCall/Generator/decoder_up_adaresblock_2/adain_0/Reshape/shape"], "attr": {"T": {"type": "DT_FLOAT"}, "Tshape": {"type": "DT_INT32"}}}, {"name": "StatefulPartitionedCall/Generator/decoder_up_adaresblock_2/adain_0/Reshape", "op": "Reshape", "input": ["StatefulPartitionedCall/Generator/decoder_up_adaresblock_2/adain_0/FullyConnected/FullyConnected/BiasAdd", "StatefulPartitionedCall/Generator/decoder_up_adaresblock_2/adain_0/Reshape/shape"], "attr": {"T": {"type": "DT_FLOAT"}, "Tshape": {"type": "DT_INT32"}}}, {"name": "StatefulPartitionedCall/Generator/decoder_up_adaresblock_3/adain_1/Reshape_1", "op": "Reshape", "input": ["StatefulPartitionedCall/Generator/decoder_up_adaresblock_3/adain_1/FullyConnected_1/FullyConnected/BiasAdd", "StatefulPartitionedCall/Generator/decoder_up_adaresblock_2/adain_0/Reshape/shape"], "attr": {"Tshape": {"type": "DT_INT32"}, "T": {"type": "DT_FLOAT"}}}, {"name": "StatefulPartitionedCall/Generator/decoder_up_adaresblock_3/adain_1/Reshape", "op": "Reshape", "input": ["StatefulPartitionedCall/Generator/decoder_up_adaresblock_3/adain_1/FullyConnected/FullyConnected/BiasAdd", "StatefulPartitionedCall/Generator/decoder_up_adaresblock_2/adain_0/Reshape/shape"], "attr": {"T": {"type": "DT_FLOAT"}, "Tshape": {"type": "DT_INT32"}}}, {"name": "StatefulPartitionedCall/Generator/decoder_up_adaresblock_3/adain_0/Reshape_1", "op": "Reshape", "input": ["StatefulPartitionedCall/Generator/decoder_up_adaresblock_3/adain_0/FullyConnected_1/FullyConnected/BiasAdd", "StatefulPartitionedCall/Generator/decoder_up_adaresblock_2/adain_0/Reshape/shape"], "attr": {"T": {"type": "DT_FLOAT"}, "Tshape": {"type": "DT_INT32"}}}, {"name": "StatefulPartitionedCall/Generator/decoder_up_adaresblock_3/adain_0/Reshape", "op": "Reshape", "input": ["StatefulPartitionedCall/Generator/decoder_up_adaresblock_3/adain_0/FullyConnected/FullyConnected/BiasAdd", "StatefulPartitionedCall/Generator/decoder_up_adaresblock_2/adain_0/Reshape/shape"], "attr": {"Tshape": {"type": "DT_INT32"}, "T": {"type": "DT_FLOAT"}}}, {"name": "StatefulPartitionedCall/Generator/decoder_bottleneck_adaresblock_0/adain_1/Reshape_1", "op": "Reshape", "input": ["StatefulPartitionedCall/Generator/decoder_bottleneck_adaresblock_0/adain_1/FullyConnected_1/FullyConnected/BiasAdd", "StatefulPartitionedCall/Generator/decoder_up_adaresblock_2/adain_0/Reshape/shape"], "attr": {"T": {"type": "DT_FLOAT"}, "Tshape": {"type": "DT_INT32"}}}, {"name": "StatefulPartitionedCall/Generator/decoder_bottleneck_adaresblock_0/adain_1/Reshape", "op": "Reshape", "input": ["StatefulPartitionedCall/Generator/decoder_bottleneck_adaresblock_0/adain_1/FullyConnected/FullyConnected/BiasAdd", "StatefulPartitionedCall/Generator/decoder_up_adaresblock_2/adain_0/Reshape/shape"], "attr": {"T": {"type": "DT_FLOAT"}, "Tshape": {"type": "DT_INT32"}}}, {"name": "StatefulPartitionedCall/Generator/decoder_bottleneck_adaresblock_0/adain_0/Reshape_1", "op": "Reshape", "input": ["StatefulPartitionedCall/Generator/decoder_bottleneck_adaresblock_0/adain_0/FullyConnected_1/FullyConnected/BiasAdd", "StatefulPartitionedCall/Generator/decoder_up_adaresblock_2/adain_0/Reshape/shape"], "attr": {"T": {"type": "DT_FLOAT"}, "Tshape": {"type": "DT_INT32"}}}, {"name": "StatefulPartitionedCall/Generator/decoder_bottleneck_adaresblock_0/adain_0/Reshape", "op": "Reshape", "input": ["StatefulPartitionedCall/Generator/decoder_bottleneck_adaresblock_0/adain_0/FullyConnected/FullyConnected/BiasAdd", "StatefulPartitionedCall/Generator/decoder_up_adaresblock_2/adain_0/Reshape/shape"], "attr": {"T": {"type": "DT_FLOAT"}, "Tshape": {"type": "DT_INT32"}}}, {"name": "StatefulPartitionedCall/Generator/decoder_bottleneck_adaresblock_1/adain_1/Reshape_1", "op": "Reshape", "input": ["StatefulPartitionedCall/Generator/decoder_bottleneck_adaresblock_1/adain_1/FullyConnected_1/FullyConnected/BiasAdd", "StatefulPartitionedCall/Generator/decoder_up_adaresblock_2/adain_0/Reshape/shape"], "attr": {"T": {"type": "DT_FLOAT"}, "Tshape": {"type": "DT_INT32"}}}, {"name": "StatefulPartitionedCall/Generator/decoder_bottleneck_adaresblock_1/adain_1/Reshape", "op": "Reshape", "input": ["StatefulPartitionedCall/Generator/decoder_bottleneck_adaresblock_1/adain_1/FullyConnected/FullyConnected/BiasAdd", "StatefulPartitionedCall/Generator/decoder_up_adaresblock_2/adain_0/Reshape/shape"], "attr": {"T": {"type": "DT_FLOAT"}, "Tshape": {"type": "DT_INT32"}}}, {"name": "StatefulPartitionedCall/Generator/decoder_bottleneck_adaresblock_1/adain_0/Reshape_1", "op": "Reshape", "input": ["StatefulPartitionedCall/Generator/decoder_bottleneck_adaresblock_1/adain_0/FullyConnected_1/FullyConnected/BiasAdd", "StatefulPartitionedCall/Generator/decoder_up_adaresblock_2/adain_0/Reshape/shape"], "attr": {"T": {"type": "DT_FLOAT"}, "Tshape": {"type": "DT_INT32"}}}, {"name": "StatefulPartitionedCall/Generator/decoder_bottleneck_adaresblock_1/adain_0/Reshape", "op": "Reshape", "input": ["StatefulPartitionedCall/Generator/decoder_bottleneck_adaresblock_1/adain_0/FullyConnected/FullyConnected/BiasAdd", "StatefulPartitionedCall/Generator/decoder_up_adaresblock_2/adain_0/Reshape/shape"], "attr": {"T": {"type": "DT_FLOAT"}, "Tshape": {"type": "DT_INT32"}}}, {"name": "StatefulPartitionedCall/Generator/encoder_down_resblock_0/skip_conv/skip_conv/Conv2D", "op": "Conv2D", "input": ["StatefulPartitionedCall/Generator/from_rgb/from_rgb/BiasAdd", "Func/StatefulPartitionedCall/input/_13"], "device": "/device:CPU:0", "attr": {"padding": {"s": "VkFMSUQ="}, "dilations": {"list": {"i": ["1", "1", "1", "1"]}}, "T": {"type": "DT_FLOAT"}, "data_format": {"s": "TkhXQw=="}, "strides": {"list": {"i": ["1", "1", "1", "1"]}}, "explicit_paddings": {"list": {}}, "use_cudnn_on_gpu": {"b": true}}}, {"name": "StatefulPartitionedCall/Generator/encoder_down_resblock_0/instance_norm_0/Shape", "op": "Shape", "input": ["StatefulPartitionedCall/Generator/from_rgb/from_rgb/BiasAdd"], "attr": {"T": {"type": "DT_FLOAT"}, "out_type": {"type": "DT_INT32"}}}, {"name": "StatefulPartitionedCall/Generator/decoder_up_adaresblock_0/adain_1/add_1", "op": "AddV2", "input": ["StatefulPartitionedCall/Generator/decoder_up_adaresblock_0/adain_1/Reshape", "StatefulPartitionedCall/Generator/decoder_up_adaresblock_0/adain_1/add_1/x"], "attr": {"T": {"type": "DT_FLOAT"}}}, {"name": "StatefulPartitionedCall/Generator/decoder_up_adaresblock_0/adain_0/add_1", "op": "AddV2", "input": ["StatefulPartitionedCall/Generator/decoder_up_adaresblock_0/adain_0/Reshape", "StatefulPartitionedCall/Generator/decoder_up_adaresblock_0/adain_1/add_1/x"], "attr": {"T": {"type": "DT_FLOAT"}}}, {"name": "StatefulPartitionedCall/Generator/decoder_up_adaresblock_1/adain_1/add_1", "op": "AddV2", "input": ["StatefulPartitionedCall/Generator/decoder_up_adaresblock_0/adain_1/add_1/x", "StatefulPartitionedCall/Generator/decoder_up_adaresblock_1/adain_1/Reshape"], "attr": {"T": {"type": "DT_FLOAT"}}}, {"name": "StatefulPartitionedCall/Generator/decoder_up_adaresblock_1/adain_0/add_1", "op": "AddV2", "input": ["StatefulPartitionedCall/Generator/decoder_up_adaresblock_0/adain_1/add_1/x", "StatefulPartitionedCall/Generator/decoder_up_adaresblock_1/adain_0/Reshape"], "attr": {"T": {"type": "DT_FLOAT"}}}, {"name": "StatefulPartitionedCall/Generator/decoder_up_adaresblock_2/adain_1/add_1", "op": "AddV2", "input": ["StatefulPartitionedCall/Generator/decoder_up_adaresblock_0/adain_1/add_1/x", "StatefulPartitionedCall/Generator/decoder_up_adaresblock_2/adain_1/Reshape"], "attr": {"T": {"type": "DT_FLOAT"}}}, {"name": "StatefulPartitionedCall/Generator/decoder_up_adaresblock_2/adain_0/add_1", "op": "AddV2", "input": ["StatefulPartitionedCall/Generator/decoder_up_adaresblock_0/adain_1/add_1/x", "StatefulPartitionedCall/Generator/decoder_up_adaresblock_2/adain_0/Reshape"], "attr": {"T": {"type": "DT_FLOAT"}}}, {"name": "StatefulPartitionedCall/Generator/decoder_up_adaresblock_3/adain_1/add_1", "op": "AddV2", "input": ["StatefulPartitionedCall/Generator/decoder_up_adaresblock_0/adain_1/add_1/x", "StatefulPartitionedCall/Generator/decoder_up_adaresblock_3/adain_1/Reshape"], "attr": {"T": {"type": "DT_FLOAT"}}}, {"name": "StatefulPartitionedCall/Generator/decoder_up_adaresblock_3/adain_0/add_1", "op": "AddV2", "input": ["StatefulPartitionedCall/Generator/decoder_up_adaresblock_0/adain_1/add_1/x", "StatefulPartitionedCall/Generator/decoder_up_adaresblock_3/adain_0/Reshape"], "attr": {"T": {"type": "DT_FLOAT"}}}, {"name": "StatefulPartitionedCall/Generator/decoder_bottleneck_adaresblock_0/adain_1/add_1", "op": "AddV2", "input": ["StatefulPartitionedCall/Generator/decoder_bottleneck_adaresblock_0/adain_1/Reshape", "StatefulPartitionedCall/Generator/decoder_up_adaresblock_0/adain_1/add_1/x"], "attr": {"T": {"type": "DT_FLOAT"}}}, {"name": "StatefulPartitionedCall/Generator/decoder_bottleneck_adaresblock_0/adain_0/add_1", "op": "AddV2", "input": ["StatefulPartitionedCall/Generator/decoder_bottleneck_adaresblock_0/adain_0/Reshape", "StatefulPartitionedCall/Generator/decoder_up_adaresblock_0/adain_1/add_1/x"], "attr": {"T": {"type": "DT_FLOAT"}}}, {"name": "StatefulPartitionedCall/Generator/decoder_bottleneck_adaresblock_1/adain_1/add_1", "op": "AddV2", "input": ["StatefulPartitionedCall/Generator/decoder_bottleneck_adaresblock_1/adain_1/Reshape", "StatefulPartitionedCall/Generator/decoder_up_adaresblock_0/adain_1/add_1/x"], "attr": {"T": {"type": "DT_FLOAT"}}}, {"name": "StatefulPartitionedCall/Generator/decoder_bottleneck_adaresblock_1/adain_0/add_1", "op": "AddV2", "input": ["StatefulPartitionedCall/Generator/decoder_bottleneck_adaresblock_1/adain_0/Reshape", "StatefulPartitionedCall/Generator/decoder_up_adaresblock_0/adain_1/add_1/x"], "attr": {"T": {"type": "DT_FLOAT"}}}, {"name": "StatefulPartitionedCall/Generator/encoder_down_resblock_0/avg_pool_1/AvgPool", "op": "AvgPool", "input": ["StatefulPartitionedCall/Generator/encoder_down_resblock_0/skip_conv/skip_conv/Conv2D"], "attr": {"T": {"type": "DT_FLOAT"}, "data_format": {"s": "TkhXQw=="}, "strides": {"list": {"i": ["1", "2", "2", "1"]}}, "ksize": {"list": {"i": ["1", "2", "2", "1"]}}, "padding": {"s": "VkFMSUQ="}}}, {"name": "StatefulPartitionedCall/Generator/encoder_down_resblock_0/instance_norm_0/strided_slice", "op": "StridedSlice", "input": ["StatefulPartitionedCall/Generator/encoder_down_resblock_0/instance_norm_0/Shape", "StatefulPartitionedCall/Generator/sequential/ins_norm/strided_slice/stack", "StatefulPartitionedCall/Generator/sequential/ins_norm/strided_slice/stack_1", "StatefulPartitionedCall/Generator/sequential/ins_norm/strided_slice/stack_1"], "attr": {"T": {"type": "DT_INT32"}, "Index": {"type": "DT_INT32"}, "shrink_axis_mask": {"i": "1"}, "ellipsis_mask": {"i": "0"}, "begin_mask": {"i": "0"}, "new_axis_mask": {"i": "0"}, "end_mask": {"i": "0"}}}, {"name": "StatefulPartitionedCall/Generator/encoder_down_resblock_0/instance_norm_0/strided_slice_1", "op": "StridedSlice", "input": ["StatefulPartitionedCall/Generator/encoder_down_resblock_0/instance_norm_0/Shape", "StatefulPartitionedCall/Generator/sequential/ins_norm/strided_slice/stack_1", "StatefulPartitionedCall/Generator/sequential/ins_norm/strided_slice_1/stack_1", "StatefulPartitionedCall/Generator/sequential/ins_norm/strided_slice/stack_1"], "attr": {"Index": {"type": "DT_INT32"}, "T": {"type": "DT_INT32"}, "shrink_axis_mask": {"i": "1"}, "begin_mask": {"i": "0"}, "ellipsis_mask": {"i": "0"}, "new_axis_mask": {"i": "0"}, "end_mask": {"i": "0"}}}, {"name": "StatefulPartitionedCall/Generator/encoder_down_resblock_0/instance_norm_0/strided_slice_2", "op": "StridedSlice", "input": ["StatefulPartitionedCall/Generator/encoder_down_resblock_0/instance_norm_0/Shape", "StatefulPartitionedCall/Generator/sequential/ins_norm/strided_slice_1/stack_1", "StatefulPartitionedCall/Generator/sequential/ins_norm/strided_slice_2/stack_1", "StatefulPartitionedCall/Generator/sequential/ins_norm/strided_slice/stack_1"], "attr": {"T": {"type": "DT_INT32"}, "Index": {"type": "DT_INT32"}, "shrink_axis_mask": {"i": "1"}, "ellipsis_mask": {"i": "0"}, "begin_mask": {"i": "0"}, "new_axis_mask": {"i": "0"}, "end_mask": {"i": "0"}}}, {"name": "StatefulPartitionedCall/Generator/encoder_down_resblock_0/instance_norm_0/stack", "op": "Pack", "input": ["StatefulPartitionedCall/Generator/encoder_down_resblock_0/instance_norm_0/strided_slice", "StatefulPartitionedCall/Generator/encoder_down_resblock_0/instance_norm_0/strided_slice_1", "StatefulPartitionedCall/Generator/encoder_down_resblock_0/instance_norm_0/strided_slice_2", "StatefulPartitionedCall/Generator/sequential/ins_norm/stack/3", "StatefulPartitionedCall/Generator/sequential/ins_norm/stack/4"], "attr": {"T": {"type": "DT_INT32"}, "axis": {"i": "0"}, "N": {"i": "5"}}}, {"name": "StatefulPartitionedCall/Generator/encoder_down_resblock_0/instance_norm_0/Reshape", "op": "Reshape", "input": ["StatefulPartitionedCall/Generator/from_rgb/from_rgb/BiasAdd", "StatefulPartitionedCall/Generator/encoder_down_resblock_0/instance_norm_0/stack"], "attr": {"T": {"type": "DT_FLOAT"}, "Tshape": {"type": "DT_INT32"}}}, {"name": "StatefulPartitionedCall/Generator/encoder_down_resblock_0/instance_norm_0/moments/mean", "op": "Mean", "input": ["StatefulPartitionedCall/Generator/encoder_down_resblock_0/instance_norm_0/Reshape", "StatefulPartitionedCall/Generator/sequential/ins_norm/moments/mean/reduction_indices"], "attr": {"Tidx": {"type": "DT_INT32"}, "keep_dims": {"b": true}, "T": {"type": "DT_FLOAT"}}}, {"name": "StatefulPartitionedCall/Generator/encoder_down_resblock_0/instance_norm_0/moments/SquaredDifference", "op": "SquaredDifference", "input": ["StatefulPartitionedCall/Generator/encoder_down_resblock_0/instance_norm_0/Reshape", "StatefulPartitionedCall/Generator/encoder_down_resblock_0/instance_norm_0/moments/mean"], "attr": {"T": {"type": "DT_FLOAT"}}}, {"name": "StatefulPartitionedCall/Generator/encoder_down_resblock_0/instance_norm_0/moments/variance", "op": "Mean", "input": ["StatefulPartitionedCall/Generator/encoder_down_resblock_0/instance_norm_0/moments/SquaredDifference", "StatefulPartitionedCall/Generator/sequential/ins_norm/moments/mean/reduction_indices"], "attr": {"T": {"type": "DT_FLOAT"}, "Tidx": {"type": "DT_INT32"}, "keep_dims": {"b": true}}}, {"name": "StatefulPartitionedCall/Generator/encoder_down_resblock_0/instance_norm_0/batchnorm/add", "op": "AddV2", "input": ["StatefulPartitionedCall/Generator/encoder_down_resblock_0/instance_norm_0/moments/variance", "StatefulPartitionedCall/Generator/sequential/ins_norm/batchnorm/add/y"], "attr": {"T": {"type": "DT_FLOAT"}}}, {"name": "StatefulPartitionedCall/Generator/encoder_down_resblock_0/instance_norm_0/batchnorm/Rsqrt", "op": "Rsqrt", "input": ["StatefulPartitionedCall/Generator/encoder_down_resblock_0/instance_norm_0/batchnorm/add"], "attr": {"T": {"type": "DT_FLOAT"}}}, {"name": "StatefulPartitionedCall/Generator/encoder_down_resblock_0/instance_norm_0/batchnorm/mul", "op": "Mul", "input": ["StatefulPartitionedCall/Generator/encoder_down_resblock_0/instance_norm_0/Reshape_1", "StatefulPartitionedCall/Generator/encoder_down_resblock_0/instance_norm_0/batchnorm/Rsqrt"], "attr": {"T": {"type": "DT_FLOAT"}}}, {"name": "StatefulPartitionedCall/Generator/encoder_down_resblock_0/instance_norm_0/batchnorm/mul_2", "op": "Mul", "input": ["StatefulPartitionedCall/Generator/encoder_down_resblock_0/instance_norm_0/batchnorm/mul", "StatefulPartitionedCall/Generator/encoder_down_resblock_0/instance_norm_0/moments/mean"], "attr": {"T": {"type": "DT_FLOAT"}}}, {"name": "StatefulPartitionedCall/Generator/encoder_down_resblock_0/instance_norm_0/batchnorm/mul_1", "op": "Mul", "input": ["StatefulPartitionedCall/Generator/encoder_down_resblock_0/instance_norm_0/Reshape", "StatefulPartitionedCall/Generator/encoder_down_resblock_0/instance_norm_0/batchnorm/mul"], "attr": {"T": {"type": "DT_FLOAT"}}}, {"name": "StatefulPartitionedCall/Generator/encoder_down_resblock_0/instance_norm_0/batchnorm/sub", "op": "Sub", "input": ["StatefulPartitionedCall/Generator/encoder_down_resblock_0/instance_norm_0/Reshape_2", "StatefulPartitionedCall/Generator/encoder_down_resblock_0/instance_norm_0/batchnorm/mul_2"], "attr": {"T": {"type": "DT_FLOAT"}}}, {"name": "StatefulPartitionedCall/Generator/encoder_down_resblock_0/instance_norm_0/batchnorm/add_1", "op": "AddV2", "input": ["StatefulPartitionedCall/Generator/encoder_down_resblock_0/instance_norm_0/batchnorm/mul_1", "StatefulPartitionedCall/Generator/encoder_down_resblock_0/instance_norm_0/batchnorm/sub"], "attr": {"T": {"type": "DT_FLOAT"}}}, {"name": "StatefulPartitionedCall/Generator/encoder_down_resblock_0/instance_norm_0/Reshape_3", "op": "Reshape", "input": ["StatefulPartitionedCall/Generator/encoder_down_resblock_0/instance_norm_0/batchnorm/add_1", "StatefulPartitionedCall/Generator/encoder_down_resblock_0/instance_norm_0/Shape"], "attr": {"T": {"type": "DT_FLOAT"}, "Tshape": {"type": "DT_INT32"}}}, {"name": "StatefulPartitionedCall/Generator/encoder_down_resblock_0/leaky_relu/LeakyRelu", "op": "LeakyRelu", "input": ["StatefulPartitionedCall/Generator/encoder_down_resblock_0/instance_norm_0/Reshape_3"], "attr": {"T": {"type": "DT_FLOAT"}, "alpha": {"f": 0.2}}}, {"name": "StatefulPartitionedCall/Generator/encoder_down_resblock_0/conv_0/Pad", "op": "Pad", "input": ["StatefulPartitionedCall/Generator/encoder_down_resblock_0/leaky_relu/LeakyRelu", "StatefulPartitionedCall/Generator/decoder_up_adaresblock_0/conv_0/Pad/paddings"], "attr": {"T": {"type": "DT_FLOAT"}, "Tpaddings": {"type": "DT_INT32"}}}, {"name": "StatefulPartitionedCall/Generator/encoder_down_resblock_0/conv_0/conv_0/BiasAdd", "op": "_FusedConv2D", "input": ["StatefulPartitionedCall/Generator/encoder_down_resblock_0/conv_0/Pad", "Func/StatefulPartitionedCall/input/_7", "Func/StatefulPartitionedCall/input/_8"], "device": "/device:CPU:0", "attr": {"epsilon": {"f": 0.0}, "padding": {"s": "VkFMSUQ="}, "fused_ops": {"list": {"s": ["Qmlhc0FkZA=="]}}, "dilations": {"list": {"i": ["1", "1", "1", "1"]}}, "T": {"type": "DT_FLOAT"}, "data_format": {"s": "TkhXQw=="}, "strides": {"list": {"i": ["1", "1", "1", "1"]}}, "use_cudnn_on_gpu": {"b": true}, "explicit_paddings": {"list": {}}, "num_args": {"i": "1"}}}, {"name": "StatefulPartitionedCall/Generator/encoder_down_resblock_0/avg_pool/AvgPool", "op": "AvgPool", "input": ["StatefulPartitionedCall/Generator/encoder_down_resblock_0/conv_0/conv_0/BiasAdd"], "attr": {"padding": {"s": "VkFMSUQ="}, "T": {"type": "DT_FLOAT"}, "data_format": {"s": "TkhXQw=="}, "strides": {"list": {"i": ["1", "2", "2", "1"]}}, "ksize": {"list": {"i": ["1", "2", "2", "1"]}}}}, {"name": "StatefulPartitionedCall/Generator/encoder_down_resblock_0/instance_norm_1/Shape", "op": "Shape", "input": ["StatefulPartitionedCall/Generator/encoder_down_resblock_0/avg_pool/AvgPool"], "attr": {"T": {"type": "DT_FLOAT"}, "out_type": {"type": "DT_INT32"}}}, {"name": "StatefulPartitionedCall/Generator/encoder_down_resblock_0/instance_norm_1/strided_slice", "op": "StridedSlice", "input": ["StatefulPartitionedCall/Generator/encoder_down_resblock_0/instance_norm_1/Shape", "StatefulPartitionedCall/Generator/sequential/ins_norm/strided_slice/stack", "StatefulPartitionedCall/Generator/sequential/ins_norm/strided_slice/stack_1", "StatefulPartitionedCall/Generator/sequential/ins_norm/strided_slice/stack_1"], "attr": {"shrink_axis_mask": {"i": "1"}, "begin_mask": {"i": "0"}, "ellipsis_mask": {"i": "0"}, "new_axis_mask": {"i": "0"}, "end_mask": {"i": "0"}, "T": {"type": "DT_INT32"}, "Index": {"type": "DT_INT32"}}}, {"name": "StatefulPartitionedCall/Generator/encoder_down_resblock_0/instance_norm_1/strided_slice_1", "op": "StridedSlice", "input": ["StatefulPartitionedCall/Generator/encoder_down_resblock_0/instance_norm_1/Shape", "StatefulPartitionedCall/Generator/sequential/ins_norm/strided_slice/stack_1", "StatefulPartitionedCall/Generator/sequential/ins_norm/strided_slice_1/stack_1", "StatefulPartitionedCall/Generator/sequential/ins_norm/strided_slice/stack_1"], "attr": {"shrink_axis_mask": {"i": "1"}, "ellipsis_mask": {"i": "0"}, "begin_mask": {"i": "0"}, "new_axis_mask": {"i": "0"}, "end_mask": {"i": "0"}, "Index": {"type": "DT_INT32"}, "T": {"type": "DT_INT32"}}}, {"name": "StatefulPartitionedCall/Generator/encoder_down_resblock_0/instance_norm_1/strided_slice_2", "op": "StridedSlice", "input": ["StatefulPartitionedCall/Generator/encoder_down_resblock_0/instance_norm_1/Shape", "StatefulPartitionedCall/Generator/sequential/ins_norm/strided_slice_1/stack_1", "StatefulPartitionedCall/Generator/sequential/ins_norm/strided_slice_2/stack_1", "StatefulPartitionedCall/Generator/sequential/ins_norm/strided_slice/stack_1"], "attr": {"begin_mask": {"i": "0"}, "ellipsis_mask": {"i": "0"}, "new_axis_mask": {"i": "0"}, "end_mask": {"i": "0"}, "T": {"type": "DT_INT32"}, "Index": {"type": "DT_INT32"}, "shrink_axis_mask": {"i": "1"}}}, {"name": "StatefulPartitionedCall/Generator/encoder_down_resblock_0/instance_norm_1/stack", "op": "Pack", "input": ["StatefulPartitionedCall/Generator/encoder_down_resblock_0/instance_norm_1/strided_slice", "StatefulPartitionedCall/Generator/encoder_down_resblock_0/instance_norm_1/strided_slice_1", "StatefulPartitionedCall/Generator/encoder_down_resblock_0/instance_norm_1/strided_slice_2", "StatefulPartitionedCall/Generator/sequential/ins_norm/stack/3", "StatefulPartitionedCall/Generator/sequential/ins_norm/stack/4"], "attr": {"T": {"type": "DT_INT32"}, "axis": {"i": "0"}, "N": {"i": "5"}}}, {"name": "StatefulPartitionedCall/Generator/encoder_down_resblock_0/instance_norm_1/Reshape", "op": "Reshape", "input": ["StatefulPartitionedCall/Generator/encoder_down_resblock_0/avg_pool/AvgPool", "StatefulPartitionedCall/Generator/encoder_down_resblock_0/instance_norm_1/stack"], "attr": {"Tshape": {"type": "DT_INT32"}, "T": {"type": "DT_FLOAT"}}}, {"name": "StatefulPartitionedCall/Generator/encoder_down_resblock_0/instance_norm_1/moments/mean", "op": "Mean", "input": ["StatefulPartitionedCall/Generator/encoder_down_resblock_0/instance_norm_1/Reshape", "StatefulPartitionedCall/Generator/sequential/ins_norm/moments/mean/reduction_indices"], "attr": {"Tidx": {"type": "DT_INT32"}, "keep_dims": {"b": true}, "T": {"type": "DT_FLOAT"}}}, {"name": "StatefulPartitionedCall/Generator/encoder_down_resblock_0/instance_norm_1/moments/SquaredDifference", "op": "SquaredDifference", "input": ["StatefulPartitionedCall/Generator/encoder_down_resblock_0/instance_norm_1/Reshape", "StatefulPartitionedCall/Generator/encoder_down_resblock_0/instance_norm_1/moments/mean"], "attr": {"T": {"type": "DT_FLOAT"}}}, {"name": "StatefulPartitionedCall/Generator/encoder_down_resblock_0/instance_norm_1/moments/variance", "op": "Mean", "input": ["StatefulPartitionedCall/Generator/encoder_down_resblock_0/instance_norm_1/moments/SquaredDifference", "StatefulPartitionedCall/Generator/sequential/ins_norm/moments/mean/reduction_indices"], "attr": {"Tidx": {"type": "DT_INT32"}, "keep_dims": {"b": true}, "T": {"type": "DT_FLOAT"}}}, {"name": "StatefulPartitionedCall/Generator/encoder_down_resblock_0/instance_norm_1/batchnorm/add", "op": "AddV2", "input": ["StatefulPartitionedCall/Generator/encoder_down_resblock_0/instance_norm_1/moments/variance", "StatefulPartitionedCall/Generator/sequential/ins_norm/batchnorm/add/y"], "attr": {"T": {"type": "DT_FLOAT"}}}, {"name": "StatefulPartitionedCall/Generator/encoder_down_resblock_0/instance_norm_1/batchnorm/Rsqrt", "op": "Rsqrt", "input": ["StatefulPartitionedCall/Generator/encoder_down_resblock_0/instance_norm_1/batchnorm/add"], "attr": {"T": {"type": "DT_FLOAT"}}}, {"name": "StatefulPartitionedCall/Generator/encoder_down_resblock_0/instance_norm_1/batchnorm/mul", "op": "Mul", "input": ["StatefulPartitionedCall/Generator/encoder_down_resblock_0/instance_norm_1/Reshape_1", "StatefulPartitionedCall/Generator/encoder_down_resblock_0/instance_norm_1/batchnorm/Rsqrt"], "attr": {"T": {"type": "DT_FLOAT"}}}, {"name": "StatefulPartitionedCall/Generator/encoder_down_resblock_0/instance_norm_1/batchnorm/mul_2", "op": "Mul", "input": ["StatefulPartitionedCall/Generator/encoder_down_resblock_0/instance_norm_1/batchnorm/mul", "StatefulPartitionedCall/Generator/encoder_down_resblock_0/instance_norm_1/moments/mean"], "attr": {"T": {"type": "DT_FLOAT"}}}, {"name": "StatefulPartitionedCall/Generator/encoder_down_resblock_0/instance_norm_1/batchnorm/mul_1", "op": "Mul", "input": ["StatefulPartitionedCall/Generator/encoder_down_resblock_0/instance_norm_1/Reshape", "StatefulPartitionedCall/Generator/encoder_down_resblock_0/instance_norm_1/batchnorm/mul"], "attr": {"T": {"type": "DT_FLOAT"}}}, {"name": "StatefulPartitionedCall/Generator/encoder_down_resblock_0/instance_norm_1/batchnorm/sub", "op": "Sub", "input": ["StatefulPartitionedCall/Generator/encoder_down_resblock_0/instance_norm_1/Reshape_2", "StatefulPartitionedCall/Generator/encoder_down_resblock_0/instance_norm_1/batchnorm/mul_2"], "attr": {"T": {"type": "DT_FLOAT"}}}, {"name": "StatefulPartitionedCall/Generator/encoder_down_resblock_0/instance_norm_1/batchnorm/add_1", "op": "AddV2", "input": ["StatefulPartitionedCall/Generator/encoder_down_resblock_0/instance_norm_1/batchnorm/mul_1", "StatefulPartitionedCall/Generator/encoder_down_resblock_0/instance_norm_1/batchnorm/sub"], "attr": {"T": {"type": "DT_FLOAT"}}}, {"name": "StatefulPartitionedCall/Generator/encoder_down_resblock_0/instance_norm_1/Reshape_3", "op": "Reshape", "input": ["StatefulPartitionedCall/Generator/encoder_down_resblock_0/instance_norm_1/batchnorm/add_1", "StatefulPartitionedCall/Generator/encoder_down_resblock_0/instance_norm_1/Shape"], "attr": {"T": {"type": "DT_FLOAT"}, "Tshape": {"type": "DT_INT32"}}}, {"name": "StatefulPartitionedCall/Generator/encoder_down_resblock_0/leaky_relu_1/LeakyRelu", "op": "LeakyRelu", "input": ["StatefulPartitionedCall/Generator/encoder_down_resblock_0/instance_norm_1/Reshape_3"], "attr": {"T": {"type": "DT_FLOAT"}, "alpha": {"f": 0.2}}}, {"name": "StatefulPartitionedCall/Generator/encoder_down_resblock_0/conv_1/Pad", "op": "Pad", "input": ["StatefulPartitionedCall/Generator/encoder_down_resblock_0/leaky_relu_1/LeakyRelu", "StatefulPartitionedCall/Generator/decoder_up_adaresblock_0/conv_0/Pad/paddings"], "attr": {"T": {"type": "DT_FLOAT"}, "Tpaddings": {"type": "DT_INT32"}}}, {"name": "StatefulPartitionedCall/Generator/encoder_down_resblock_0/conv_1/conv_1/BiasAdd", "op": "_FusedConv2D", "input": ["StatefulPartitionedCall/Generator/encoder_down_resblock_0/conv_1/Pad", "Func/StatefulPartitionedCall/input/_11", "Func/StatefulPartitionedCall/input/_12"], "device": "/device:CPU:0", "attr": {"data_format": {"s": "TkhXQw=="}, "strides": {"list": {"i": ["1", "1", "1", "1"]}}, "explicit_paddings": {"list": {}}, "use_cudnn_on_gpu": {"b": true}, "num_args": {"i": "1"}, "epsilon": {"f": 0.0}, "padding": {"s": "VkFMSUQ="}, "fused_ops": {"list": {"s": ["Qmlhc0FkZA=="]}}, "dilations": {"list": {"i": ["1", "1", "1", "1"]}}, "T": {"type": "DT_FLOAT"}}}, {"name": "StatefulPartitionedCall/Generator/encoder_down_resblock_0/add", "op": "AddV2", "input": ["StatefulPartitionedCall/Generator/encoder_down_resblock_0/avg_pool_1/AvgPool", "StatefulPartitionedCall/Generator/encoder_down_resblock_0/conv_1/conv_1/BiasAdd"], "attr": {"T": {"type": "DT_FLOAT"}}}, {"name": "StatefulPartitionedCall/Generator/encoder_down_resblock_0/truediv", "op": "Mul", "input": ["ConstantFolding/StatefulPartitionedCall/Generator/encoder_down_resblock_0/truediv_recip", "StatefulPartitionedCall/Generator/encoder_down_resblock_0/add"], "attr": {"T": {"type": "DT_FLOAT"}}}, {"name": "StatefulPartitionedCall/Generator/encoder_down_resblock_1/skip_conv/skip_conv/Conv2D", "op": "Conv2D", "input": ["StatefulPartitionedCall/Generator/encoder_down_resblock_0/truediv", "Func/StatefulPartitionedCall/input/_22"], "device": "/device:CPU:0", "attr": {"dilations": {"list": {"i": ["1", "1", "1", "1"]}}, "T": {"type": "DT_FLOAT"}, "strides": {"list": {"i": ["1", "1", "1", "1"]}}, "data_format": {"s": "TkhXQw=="}, "use_cudnn_on_gpu": {"b": true}, "explicit_paddings": {"list": {}}, "padding": {"s": "VkFMSUQ="}}}, {"name": "StatefulPartitionedCall/Generator/encoder_down_resblock_1/instance_norm_0/Shape", "op": "Shape", "input": ["StatefulPartitionedCall/Generator/encoder_down_resblock_0/truediv"], "attr": {"T": {"type": "DT_FLOAT"}, "out_type": {"type": "DT_INT32"}}}, {"name": "StatefulPartitionedCall/Generator/encoder_down_resblock_1/avg_pool_1/AvgPool", "op": "AvgPool", "input": ["StatefulPartitionedCall/Generator/encoder_down_resblock_1/skip_conv/skip_conv/Conv2D"], "attr": {"data_format": {"s": "TkhXQw=="}, "strides": {"list": {"i": ["1", "2", "2", "1"]}}, "ksize": {"list": {"i": ["1", "2", "2", "1"]}}, "padding": {"s": "VkFMSUQ="}, "T": {"type": "DT_FLOAT"}}}, {"name": "StatefulPartitionedCall/Generator/encoder_down_resblock_1/instance_norm_0/strided_slice", "op": "StridedSlice", "input": ["StatefulPartitionedCall/Generator/encoder_down_resblock_1/instance_norm_0/Shape", "StatefulPartitionedCall/Generator/sequential/ins_norm/strided_slice/stack", "StatefulPartitionedCall/Generator/sequential/ins_norm/strided_slice/stack_1", "StatefulPartitionedCall/Generator/sequential/ins_norm/strided_slice/stack_1"], "attr": {"Index": {"type": "DT_INT32"}, "T": {"type": "DT_INT32"}, "shrink_axis_mask": {"i": "1"}, "ellipsis_mask": {"i": "0"}, "begin_mask": {"i": "0"}, "new_axis_mask": {"i": "0"}, "end_mask": {"i": "0"}}}, {"name": "StatefulPartitionedCall/Generator/encoder_down_resblock_1/instance_norm_0/strided_slice_1", "op": "StridedSlice", "input": ["StatefulPartitionedCall/Generator/encoder_down_resblock_1/instance_norm_0/Shape", "StatefulPartitionedCall/Generator/sequential/ins_norm/strided_slice/stack_1", "StatefulPartitionedCall/Generator/sequential/ins_norm/strided_slice_1/stack_1", "StatefulPartitionedCall/Generator/sequential/ins_norm/strided_slice/stack_1"], "attr": {"T": {"type": "DT_INT32"}, "Index": {"type": "DT_INT32"}, "shrink_axis_mask": {"i": "1"}, "ellipsis_mask": {"i": "0"}, "begin_mask": {"i": "0"}, "new_axis_mask": {"i": "0"}, "end_mask": {"i": "0"}}}, {"name": "StatefulPartitionedCall/Generator/encoder_down_resblock_1/instance_norm_0/strided_slice_2", "op": "StridedSlice", "input": ["StatefulPartitionedCall/Generator/encoder_down_resblock_1/instance_norm_0/Shape", "StatefulPartitionedCall/Generator/sequential/ins_norm/strided_slice_1/stack_1", "StatefulPartitionedCall/Generator/sequential/ins_norm/strided_slice_2/stack_1", "StatefulPartitionedCall/Generator/sequential/ins_norm/strided_slice/stack_1"], "attr": {"shrink_axis_mask": {"i": "1"}, "ellipsis_mask": {"i": "0"}, "begin_mask": {"i": "0"}, "new_axis_mask": {"i": "0"}, "end_mask": {"i": "0"}, "T": {"type": "DT_INT32"}, "Index": {"type": "DT_INT32"}}}, {"name": "StatefulPartitionedCall/Generator/encoder_down_resblock_1/instance_norm_0/stack", "op": "Pack", "input": ["StatefulPartitionedCall/Generator/encoder_down_resblock_1/instance_norm_0/strided_slice", "StatefulPartitionedCall/Generator/encoder_down_resblock_1/instance_norm_0/strided_slice_1", "StatefulPartitionedCall/Generator/encoder_down_resblock_1/instance_norm_0/strided_slice_2", "StatefulPartitionedCall/Generator/encoder_down_resblock_1/instance_norm_1/stack/3", "StatefulPartitionedCall/Generator/sequential/ins_norm/stack/4"], "attr": {"axis": {"i": "0"}, "N": {"i": "5"}, "T": {"type": "DT_INT32"}}}, {"name": "StatefulPartitionedCall/Generator/encoder_down_resblock_1/instance_norm_0/Reshape", "op": "Reshape", "input": ["StatefulPartitionedCall/Generator/encoder_down_resblock_0/truediv", "StatefulPartitionedCall/Generator/encoder_down_resblock_1/instance_norm_0/stack"], "attr": {"T": {"type": "DT_FLOAT"}, "Tshape": {"type": "DT_INT32"}}}, {"name": "StatefulPartitionedCall/Generator/encoder_down_resblock_1/instance_norm_0/moments/mean", "op": "Mean", "input": ["StatefulPartitionedCall/Generator/encoder_down_resblock_1/instance_norm_0/Reshape", "StatefulPartitionedCall/Generator/sequential/ins_norm/moments/mean/reduction_indices"], "attr": {"Tidx": {"type": "DT_INT32"}, "keep_dims": {"b": true}, "T": {"type": "DT_FLOAT"}}}, {"name": "StatefulPartitionedCall/Generator/encoder_down_resblock_1/instance_norm_0/moments/SquaredDifference", "op": "SquaredDifference", "input": ["StatefulPartitionedCall/Generator/encoder_down_resblock_1/instance_norm_0/Reshape", "StatefulPartitionedCall/Generator/encoder_down_resblock_1/instance_norm_0/moments/mean"], "attr": {"T": {"type": "DT_FLOAT"}}}, {"name": "StatefulPartitionedCall/Generator/encoder_down_resblock_1/instance_norm_0/moments/variance", "op": "Mean", "input": ["StatefulPartitionedCall/Generator/encoder_down_resblock_1/instance_norm_0/moments/SquaredDifference", "StatefulPartitionedCall/Generator/sequential/ins_norm/moments/mean/reduction_indices"], "attr": {"Tidx": {"type": "DT_INT32"}, "keep_dims": {"b": true}, "T": {"type": "DT_FLOAT"}}}, {"name": "StatefulPartitionedCall/Generator/encoder_down_resblock_1/instance_norm_0/batchnorm/add", "op": "AddV2", "input": ["StatefulPartitionedCall/Generator/encoder_down_resblock_1/instance_norm_0/moments/variance", "StatefulPartitionedCall/Generator/sequential/ins_norm/batchnorm/add/y"], "attr": {"T": {"type": "DT_FLOAT"}}}, {"name": "StatefulPartitionedCall/Generator/encoder_down_resblock_1/instance_norm_0/batchnorm/Rsqrt", "op": "Rsqrt", "input": ["StatefulPartitionedCall/Generator/encoder_down_resblock_1/instance_norm_0/batchnorm/add"], "attr": {"T": {"type": "DT_FLOAT"}}}, {"name": "StatefulPartitionedCall/Generator/encoder_down_resblock_1/instance_norm_0/batchnorm/mul", "op": "Mul", "input": ["StatefulPartitionedCall/Generator/encoder_down_resblock_1/instance_norm_0/Reshape_1", "StatefulPartitionedCall/Generator/encoder_down_resblock_1/instance_norm_0/batchnorm/Rsqrt"], "attr": {"T": {"type": "DT_FLOAT"}}}, {"name": "StatefulPartitionedCall/Generator/encoder_down_resblock_1/instance_norm_0/batchnorm/mul_2", "op": "Mul", "input": ["StatefulPartitionedCall/Generator/encoder_down_resblock_1/instance_norm_0/batchnorm/mul", "StatefulPartitionedCall/Generator/encoder_down_resblock_1/instance_norm_0/moments/mean"], "attr": {"T": {"type": "DT_FLOAT"}}}, {"name": "StatefulPartitionedCall/Generator/encoder_down_resblock_1/instance_norm_0/batchnorm/mul_1", "op": "Mul", "input": ["StatefulPartitionedCall/Generator/encoder_down_resblock_1/instance_norm_0/Reshape", "StatefulPartitionedCall/Generator/encoder_down_resblock_1/instance_norm_0/batchnorm/mul"], "attr": {"T": {"type": "DT_FLOAT"}}}, {"name": "StatefulPartitionedCall/Generator/encoder_down_resblock_1/instance_norm_0/batchnorm/sub", "op": "Sub", "input": ["StatefulPartitionedCall/Generator/encoder_down_resblock_1/instance_norm_0/Reshape_2", "StatefulPartitionedCall/Generator/encoder_down_resblock_1/instance_norm_0/batchnorm/mul_2"], "attr": {"T": {"type": "DT_FLOAT"}}}, {"name": "StatefulPartitionedCall/Generator/encoder_down_resblock_1/instance_norm_0/batchnorm/add_1", "op": "AddV2", "input": ["StatefulPartitionedCall/Generator/encoder_down_resblock_1/instance_norm_0/batchnorm/mul_1", "StatefulPartitionedCall/Generator/encoder_down_resblock_1/instance_norm_0/batchnorm/sub"], "attr": {"T": {"type": "DT_FLOAT"}}}, {"name": "StatefulPartitionedCall/Generator/encoder_down_resblock_1/instance_norm_0/Reshape_3", "op": "Reshape", "input": ["StatefulPartitionedCall/Generator/encoder_down_resblock_1/instance_norm_0/batchnorm/add_1", "StatefulPartitionedCall/Generator/encoder_down_resblock_1/instance_norm_0/Shape"], "attr": {"T": {"type": "DT_FLOAT"}, "Tshape": {"type": "DT_INT32"}}}, {"name": "StatefulPartitionedCall/Generator/encoder_down_resblock_1/leaky_relu/LeakyRelu", "op": "LeakyRelu", "input": ["StatefulPartitionedCall/Generator/encoder_down_resblock_1/instance_norm_0/Reshape_3"], "attr": {"T": {"type": "DT_FLOAT"}, "alpha": {"f": 0.2}}}, {"name": "StatefulPartitionedCall/Generator/encoder_down_resblock_1/conv_0/Pad", "op": "Pad", "input": ["StatefulPartitionedCall/Generator/encoder_down_resblock_1/leaky_relu/LeakyRelu", "StatefulPartitionedCall/Generator/decoder_up_adaresblock_0/conv_0/Pad/paddings"], "attr": {"T": {"type": "DT_FLOAT"}, "Tpaddings": {"type": "DT_INT32"}}}, {"name": "StatefulPartitionedCall/Generator/encoder_down_resblock_1/conv_0/conv_0/BiasAdd", "op": "_FusedConv2D", "input": ["StatefulPartitionedCall/Generator/encoder_down_resblock_1/conv_0/Pad", "Func/StatefulPartitionedCall/input/_16", "Func/StatefulPartitionedCall/input/_17"], "device": "/device:CPU:0", "attr": {"dilations": {"list": {"i": ["1", "1", "1", "1"]}}, "T": {"type": "DT_FLOAT"}, "data_format": {"s": "TkhXQw=="}, "strides": {"list": {"i": ["1", "1", "1", "1"]}}, "use_cudnn_on_gpu": {"b": true}, "explicit_paddings": {"list": {}}, "num_args": {"i": "1"}, "epsilon": {"f": 0.0}, "padding": {"s": "VkFMSUQ="}, "fused_ops": {"list": {"s": ["Qmlhc0FkZA=="]}}}}, {"name": "StatefulPartitionedCall/Generator/encoder_down_resblock_1/avg_pool/AvgPool", "op": "AvgPool", "input": ["StatefulPartitionedCall/Generator/encoder_down_resblock_1/conv_0/conv_0/BiasAdd"], "attr": {"strides": {"list": {"i": ["1", "2", "2", "1"]}}, "data_format": {"s": "TkhXQw=="}, "ksize": {"list": {"i": ["1", "2", "2", "1"]}}, "padding": {"s": "VkFMSUQ="}, "T": {"type": "DT_FLOAT"}}}, {"name": "StatefulPartitionedCall/Generator/encoder_down_resblock_1/instance_norm_1/Shape", "op": "Shape", "input": ["StatefulPartitionedCall/Generator/encoder_down_resblock_1/avg_pool/AvgPool"], "attr": {"out_type": {"type": "DT_INT32"}, "T": {"type": "DT_FLOAT"}}}, {"name": "StatefulPartitionedCall/Generator/encoder_down_resblock_1/instance_norm_1/strided_slice", "op": "StridedSlice", "input": ["StatefulPartitionedCall/Generator/encoder_down_resblock_1/instance_norm_1/Shape", "StatefulPartitionedCall/Generator/sequential/ins_norm/strided_slice/stack", "StatefulPartitionedCall/Generator/sequential/ins_norm/strided_slice/stack_1", "StatefulPartitionedCall/Generator/sequential/ins_norm/strided_slice/stack_1"], "attr": {"T": {"type": "DT_INT32"}, "Index": {"type": "DT_INT32"}, "shrink_axis_mask": {"i": "1"}, "ellipsis_mask": {"i": "0"}, "begin_mask": {"i": "0"}, "new_axis_mask": {"i": "0"}, "end_mask": {"i": "0"}}}, {"name": "StatefulPartitionedCall/Generator/encoder_down_resblock_1/instance_norm_1/strided_slice_1", "op": "StridedSlice", "input": ["StatefulPartitionedCall/Generator/encoder_down_resblock_1/instance_norm_1/Shape", "StatefulPartitionedCall/Generator/sequential/ins_norm/strided_slice/stack_1", "StatefulPartitionedCall/Generator/sequential/ins_norm/strided_slice_1/stack_1", "StatefulPartitionedCall/Generator/sequential/ins_norm/strided_slice/stack_1"], "attr": {"end_mask": {"i": "0"}, "T": {"type": "DT_INT32"}, "Index": {"type": "DT_INT32"}, "shrink_axis_mask": {"i": "1"}, "ellipsis_mask": {"i": "0"}, "begin_mask": {"i": "0"}, "new_axis_mask": {"i": "0"}}}, {"name": "StatefulPartitionedCall/Generator/encoder_down_resblock_1/instance_norm_1/strided_slice_2", "op": "StridedSlice", "input": ["StatefulPartitionedCall/Generator/encoder_down_resblock_1/instance_norm_1/Shape", "StatefulPartitionedCall/Generator/sequential/ins_norm/strided_slice_1/stack_1", "StatefulPartitionedCall/Generator/sequential/ins_norm/strided_slice_2/stack_1", "StatefulPartitionedCall/Generator/sequential/ins_norm/strided_slice/stack_1"], "attr": {"new_axis_mask": {"i": "0"}, "end_mask": {"i": "0"}, "T": {"type": "DT_INT32"}, "Index": {"type": "DT_INT32"}, "shrink_axis_mask": {"i": "1"}, "begin_mask": {"i": "0"}, "ellipsis_mask": {"i": "0"}}}, {"name": "StatefulPartitionedCall/Generator/encoder_down_resblock_1/instance_norm_1/stack", "op": "Pack", "input": ["StatefulPartitionedCall/Generator/encoder_down_resblock_1/instance_norm_1/strided_slice", "StatefulPartitionedCall/Generator/encoder_down_resblock_1/instance_norm_1/strided_slice_1", "StatefulPartitionedCall/Generator/encoder_down_resblock_1/instance_norm_1/strided_slice_2", "StatefulPartitionedCall/Generator/encoder_down_resblock_1/instance_norm_1/stack/3", "StatefulPartitionedCall/Generator/sequential/ins_norm/stack/4"], "attr": {"T": {"type": "DT_INT32"}, "axis": {"i": "0"}, "N": {"i": "5"}}}, {"name": "StatefulPartitionedCall/Generator/encoder_down_resblock_1/instance_norm_1/Reshape", "op": "Reshape", "input": ["StatefulPartitionedCall/Generator/encoder_down_resblock_1/avg_pool/AvgPool", "StatefulPartitionedCall/Generator/encoder_down_resblock_1/instance_norm_1/stack"], "attr": {"T": {"type": "DT_FLOAT"}, "Tshape": {"type": "DT_INT32"}}}, {"name": "StatefulPartitionedCall/Generator/encoder_down_resblock_1/instance_norm_1/moments/mean", "op": "Mean", "input": ["StatefulPartitionedCall/Generator/encoder_down_resblock_1/instance_norm_1/Reshape", "StatefulPartitionedCall/Generator/sequential/ins_norm/moments/mean/reduction_indices"], "attr": {"Tidx": {"type": "DT_INT32"}, "keep_dims": {"b": true}, "T": {"type": "DT_FLOAT"}}}, {"name": "StatefulPartitionedCall/Generator/encoder_down_resblock_1/instance_norm_1/moments/SquaredDifference", "op": "SquaredDifference", "input": ["StatefulPartitionedCall/Generator/encoder_down_resblock_1/instance_norm_1/Reshape", "StatefulPartitionedCall/Generator/encoder_down_resblock_1/instance_norm_1/moments/mean"], "attr": {"T": {"type": "DT_FLOAT"}}}, {"name": "StatefulPartitionedCall/Generator/encoder_down_resblock_1/instance_norm_1/moments/variance", "op": "Mean", "input": ["StatefulPartitionedCall/Generator/encoder_down_resblock_1/instance_norm_1/moments/SquaredDifference", "StatefulPartitionedCall/Generator/sequential/ins_norm/moments/mean/reduction_indices"], "attr": {"T": {"type": "DT_FLOAT"}, "Tidx": {"type": "DT_INT32"}, "keep_dims": {"b": true}}}, {"name": "StatefulPartitionedCall/Generator/encoder_down_resblock_1/instance_norm_1/batchnorm/add", "op": "AddV2", "input": ["StatefulPartitionedCall/Generator/encoder_down_resblock_1/instance_norm_1/moments/variance", "StatefulPartitionedCall/Generator/sequential/ins_norm/batchnorm/add/y"], "attr": {"T": {"type": "DT_FLOAT"}}}, {"name": "StatefulPartitionedCall/Generator/encoder_down_resblock_1/instance_norm_1/batchnorm/Rsqrt", "op": "Rsqrt", "input": ["StatefulPartitionedCall/Generator/encoder_down_resblock_1/instance_norm_1/batchnorm/add"], "attr": {"T": {"type": "DT_FLOAT"}}}, {"name": "StatefulPartitionedCall/Generator/encoder_down_resblock_1/instance_norm_1/batchnorm/mul", "op": "Mul", "input": ["StatefulPartitionedCall/Generator/encoder_down_resblock_1/instance_norm_1/Reshape_1", "StatefulPartitionedCall/Generator/encoder_down_resblock_1/instance_norm_1/batchnorm/Rsqrt"], "attr": {"T": {"type": "DT_FLOAT"}}}, {"name": "StatefulPartitionedCall/Generator/encoder_down_resblock_1/instance_norm_1/batchnorm/mul_2", "op": "Mul", "input": ["StatefulPartitionedCall/Generator/encoder_down_resblock_1/instance_norm_1/batchnorm/mul", "StatefulPartitionedCall/Generator/encoder_down_resblock_1/instance_norm_1/moments/mean"], "attr": {"T": {"type": "DT_FLOAT"}}}, {"name": "StatefulPartitionedCall/Generator/encoder_down_resblock_1/instance_norm_1/batchnorm/mul_1", "op": "Mul", "input": ["StatefulPartitionedCall/Generator/encoder_down_resblock_1/instance_norm_1/Reshape", "StatefulPartitionedCall/Generator/encoder_down_resblock_1/instance_norm_1/batchnorm/mul"], "attr": {"T": {"type": "DT_FLOAT"}}}, {"name": "StatefulPartitionedCall/Generator/encoder_down_resblock_1/instance_norm_1/batchnorm/sub", "op": "Sub", "input": ["StatefulPartitionedCall/Generator/encoder_down_resblock_1/instance_norm_1/Reshape_2", "StatefulPartitionedCall/Generator/encoder_down_resblock_1/instance_norm_1/batchnorm/mul_2"], "attr": {"T": {"type": "DT_FLOAT"}}}, {"name": "StatefulPartitionedCall/Generator/encoder_down_resblock_1/instance_norm_1/batchnorm/add_1", "op": "AddV2", "input": ["StatefulPartitionedCall/Generator/encoder_down_resblock_1/instance_norm_1/batchnorm/mul_1", "StatefulPartitionedCall/Generator/encoder_down_resblock_1/instance_norm_1/batchnorm/sub"], "attr": {"T": {"type": "DT_FLOAT"}}}, {"name": "StatefulPartitionedCall/Generator/encoder_down_resblock_1/instance_norm_1/Reshape_3", "op": "Reshape", "input": ["StatefulPartitionedCall/Generator/encoder_down_resblock_1/instance_norm_1/batchnorm/add_1", "StatefulPartitionedCall/Generator/encoder_down_resblock_1/instance_norm_1/Shape"], "attr": {"T": {"type": "DT_FLOAT"}, "Tshape": {"type": "DT_INT32"}}}, {"name": "StatefulPartitionedCall/Generator/encoder_down_resblock_1/leaky_relu_1/LeakyRelu", "op": "LeakyRelu", "input": ["StatefulPartitionedCall/Generator/encoder_down_resblock_1/instance_norm_1/Reshape_3"], "attr": {"T": {"type": "DT_FLOAT"}, "alpha": {"f": 0.2}}}, {"name": "StatefulPartitionedCall/Generator/encoder_down_resblock_1/conv_1/Pad", "op": "Pad", "input": ["StatefulPartitionedCall/Generator/encoder_down_resblock_1/leaky_relu_1/LeakyRelu", "StatefulPartitionedCall/Generator/decoder_up_adaresblock_0/conv_0/Pad/paddings"], "attr": {"T": {"type": "DT_FLOAT"}, "Tpaddings": {"type": "DT_INT32"}}}, {"name": "StatefulPartitionedCall/Generator/encoder_down_resblock_1/conv_1/conv_1/BiasAdd", "op": "_FusedConv2D", "input": ["StatefulPartitionedCall/Generator/encoder_down_resblock_1/conv_1/Pad", "Func/StatefulPartitionedCall/input/_20", "Func/StatefulPartitionedCall/input/_21"], "device": "/device:CPU:0", "attr": {"dilations": {"list": {"i": ["1", "1", "1", "1"]}}, "T": {"type": "DT_FLOAT"}, "data_format": {"s": "TkhXQw=="}, "strides": {"list": {"i": ["1", "1", "1", "1"]}}, "explicit_paddings": {"list": {}}, "use_cudnn_on_gpu": {"b": true}, "num_args": {"i": "1"}, "epsilon": {"f": 0.0}, "padding": {"s": "VkFMSUQ="}, "fused_ops": {"list": {"s": ["Qmlhc0FkZA=="]}}}}, {"name": "StatefulPartitionedCall/Generator/encoder_down_resblock_1/add", "op": "AddV2", "input": ["StatefulPartitionedCall/Generator/encoder_down_resblock_1/avg_pool_1/AvgPool", "StatefulPartitionedCall/Generator/encoder_down_resblock_1/conv_1/conv_1/BiasAdd"], "attr": {"T": {"type": "DT_FLOAT"}}}, {"name": "StatefulPartitionedCall/Generator/encoder_down_resblock_1/truediv", "op": "Mul", "input": ["ConstantFolding/StatefulPartitionedCall/Generator/encoder_down_resblock_0/truediv_recip", "StatefulPartitionedCall/Generator/encoder_down_resblock_1/add"], "attr": {"T": {"type": "DT_FLOAT"}}}, {"name": "StatefulPartitionedCall/Generator/encoder_down_resblock_2/skip_conv/skip_conv/Conv2D", "op": "Conv2D", "input": ["StatefulPartitionedCall/Generator/encoder_down_resblock_1/truediv", "Func/StatefulPartitionedCall/input/_31"], "device": "/device:CPU:0", "attr": {"padding": {"s": "VkFMSUQ="}, "dilations": {"list": {"i": ["1", "1", "1", "1"]}}, "T": {"type": "DT_FLOAT"}, "data_format": {"s": "TkhXQw=="}, "strides": {"list": {"i": ["1", "1", "1", "1"]}}, "explicit_paddings": {"list": {}}, "use_cudnn_on_gpu": {"b": true}}}, {"name": "StatefulPartitionedCall/Generator/encoder_down_resblock_2/instance_norm_0/Shape", "op": "Shape", "input": ["StatefulPartitionedCall/Generator/encoder_down_resblock_1/truediv"], "attr": {"T": {"type": "DT_FLOAT"}, "out_type": {"type": "DT_INT32"}}}, {"name": "StatefulPartitionedCall/Generator/encoder_down_resblock_2/avg_pool_1/AvgPool", "op": "AvgPool", "input": ["StatefulPartitionedCall/Generator/encoder_down_resblock_2/skip_conv/skip_conv/Conv2D"], "attr": {"ksize": {"list": {"i": ["1", "2", "2", "1"]}}, "padding": {"s": "VkFMSUQ="}, "T": {"type": "DT_FLOAT"}, "data_format": {"s": "TkhXQw=="}, "strides": {"list": {"i": ["1", "2", "2", "1"]}}}}, {"name": "StatefulPartitionedCall/Generator/encoder_down_resblock_2/instance_norm_0/strided_slice", "op": "StridedSlice", "input": ["StatefulPartitionedCall/Generator/encoder_down_resblock_2/instance_norm_0/Shape", "StatefulPartitionedCall/Generator/sequential/ins_norm/strided_slice/stack", "StatefulPartitionedCall/Generator/sequential/ins_norm/strided_slice/stack_1", "StatefulPartitionedCall/Generator/sequential/ins_norm/strided_slice/stack_1"], "attr": {"end_mask": {"i": "0"}, "T": {"type": "DT_INT32"}, "Index": {"type": "DT_INT32"}, "shrink_axis_mask": {"i": "1"}, "begin_mask": {"i": "0"}, "ellipsis_mask": {"i": "0"}, "new_axis_mask": {"i": "0"}}}, {"name": "StatefulPartitionedCall/Generator/encoder_down_resblock_2/instance_norm_0/strided_slice_1", "op": "StridedSlice", "input": ["StatefulPartitionedCall/Generator/encoder_down_resblock_2/instance_norm_0/Shape", "StatefulPartitionedCall/Generator/sequential/ins_norm/strided_slice/stack_1", "StatefulPartitionedCall/Generator/sequential/ins_norm/strided_slice_1/stack_1", "StatefulPartitionedCall/Generator/sequential/ins_norm/strided_slice/stack_1"], "attr": {"T": {"type": "DT_INT32"}, "Index": {"type": "DT_INT32"}, "shrink_axis_mask": {"i": "1"}, "begin_mask": {"i": "0"}, "ellipsis_mask": {"i": "0"}, "new_axis_mask": {"i": "0"}, "end_mask": {"i": "0"}}}, {"name": "StatefulPartitionedCall/Generator/encoder_down_resblock_2/instance_norm_0/strided_slice_2", "op": "StridedSlice", "input": ["StatefulPartitionedCall/Generator/encoder_down_resblock_2/instance_norm_0/Shape", "StatefulPartitionedCall/Generator/sequential/ins_norm/strided_slice_1/stack_1", "StatefulPartitionedCall/Generator/sequential/ins_norm/strided_slice_2/stack_1", "StatefulPartitionedCall/Generator/sequential/ins_norm/strided_slice/stack_1"], "attr": {"T": {"type": "DT_INT32"}, "Index": {"type": "DT_INT32"}, "shrink_axis_mask": {"i": "1"}, "ellipsis_mask": {"i": "0"}, "begin_mask": {"i": "0"}, "new_axis_mask": {"i": "0"}, "end_mask": {"i": "0"}}}, {"name": "StatefulPartitionedCall/Generator/encoder_down_resblock_2/instance_norm_0/stack", "op": "Pack", "input": ["StatefulPartitionedCall/Generator/encoder_down_resblock_2/instance_norm_0/strided_slice", "StatefulPartitionedCall/Generator/encoder_down_resblock_2/instance_norm_0/strided_slice_1", "StatefulPartitionedCall/Generator/encoder_down_resblock_2/instance_norm_0/strided_slice_2", "StatefulPartitionedCall/Generator/encoder_down_resblock_2/instance_norm_1/stack/3", "StatefulPartitionedCall/Generator/sequential/ins_norm/stack/4"], "attr": {"T": {"type": "DT_INT32"}, "axis": {"i": "0"}, "N": {"i": "5"}}}, {"name": "StatefulPartitionedCall/Generator/encoder_down_resblock_2/instance_norm_0/Reshape", "op": "Reshape", "input": ["StatefulPartitionedCall/Generator/encoder_down_resblock_1/truediv", "StatefulPartitionedCall/Generator/encoder_down_resblock_2/instance_norm_0/stack"], "attr": {"T": {"type": "DT_FLOAT"}, "Tshape": {"type": "DT_INT32"}}}, {"name": "StatefulPartitionedCall/Generator/encoder_down_resblock_2/instance_norm_0/moments/mean", "op": "Mean", "input": ["StatefulPartitionedCall/Generator/encoder_down_resblock_2/instance_norm_0/Reshape", "StatefulPartitionedCall/Generator/sequential/ins_norm/moments/mean/reduction_indices"], "attr": {"Tidx": {"type": "DT_INT32"}, "keep_dims": {"b": true}, "T": {"type": "DT_FLOAT"}}}, {"name": "StatefulPartitionedCall/Generator/encoder_down_resblock_2/instance_norm_0/moments/SquaredDifference", "op": "SquaredDifference", "input": ["StatefulPartitionedCall/Generator/encoder_down_resblock_2/instance_norm_0/Reshape", "StatefulPartitionedCall/Generator/encoder_down_resblock_2/instance_norm_0/moments/mean"], "attr": {"T": {"type": "DT_FLOAT"}}}, {"name": "StatefulPartitionedCall/Generator/encoder_down_resblock_2/instance_norm_0/moments/variance", "op": "Mean", "input": ["StatefulPartitionedCall/Generator/encoder_down_resblock_2/instance_norm_0/moments/SquaredDifference", "StatefulPartitionedCall/Generator/sequential/ins_norm/moments/mean/reduction_indices"], "attr": {"T": {"type": "DT_FLOAT"}, "Tidx": {"type": "DT_INT32"}, "keep_dims": {"b": true}}}, {"name": "StatefulPartitionedCall/Generator/encoder_down_resblock_2/instance_norm_0/batchnorm/add", "op": "AddV2", "input": ["StatefulPartitionedCall/Generator/encoder_down_resblock_2/instance_norm_0/moments/variance", "StatefulPartitionedCall/Generator/sequential/ins_norm/batchnorm/add/y"], "attr": {"T": {"type": "DT_FLOAT"}}}, {"name": "StatefulPartitionedCall/Generator/encoder_down_resblock_2/instance_norm_0/batchnorm/Rsqrt", "op": "Rsqrt", "input": ["StatefulPartitionedCall/Generator/encoder_down_resblock_2/instance_norm_0/batchnorm/add"], "attr": {"T": {"type": "DT_FLOAT"}}}, {"name": "StatefulPartitionedCall/Generator/encoder_down_resblock_2/instance_norm_0/batchnorm/mul", "op": "Mul", "input": ["StatefulPartitionedCall/Generator/encoder_down_resblock_2/instance_norm_0/Reshape_1", "StatefulPartitionedCall/Generator/encoder_down_resblock_2/instance_norm_0/batchnorm/Rsqrt"], "attr": {"T": {"type": "DT_FLOAT"}}}, {"name": "StatefulPartitionedCall/Generator/encoder_down_resblock_2/instance_norm_0/batchnorm/mul_2", "op": "Mul", "input": ["StatefulPartitionedCall/Generator/encoder_down_resblock_2/instance_norm_0/batchnorm/mul", "StatefulPartitionedCall/Generator/encoder_down_resblock_2/instance_norm_0/moments/mean"], "attr": {"T": {"type": "DT_FLOAT"}}}, {"name": "StatefulPartitionedCall/Generator/encoder_down_resblock_2/instance_norm_0/batchnorm/mul_1", "op": "Mul", "input": ["StatefulPartitionedCall/Generator/encoder_down_resblock_2/instance_norm_0/Reshape", "StatefulPartitionedCall/Generator/encoder_down_resblock_2/instance_norm_0/batchnorm/mul"], "attr": {"T": {"type": "DT_FLOAT"}}}, {"name": "StatefulPartitionedCall/Generator/encoder_down_resblock_2/instance_norm_0/batchnorm/sub", "op": "Sub", "input": ["StatefulPartitionedCall/Generator/encoder_down_resblock_2/instance_norm_0/Reshape_2", "StatefulPartitionedCall/Generator/encoder_down_resblock_2/instance_norm_0/batchnorm/mul_2"], "attr": {"T": {"type": "DT_FLOAT"}}}, {"name": "StatefulPartitionedCall/Generator/encoder_down_resblock_2/instance_norm_0/batchnorm/add_1", "op": "AddV2", "input": ["StatefulPartitionedCall/Generator/encoder_down_resblock_2/instance_norm_0/batchnorm/mul_1", "StatefulPartitionedCall/Generator/encoder_down_resblock_2/instance_norm_0/batchnorm/sub"], "attr": {"T": {"type": "DT_FLOAT"}}}, {"name": "StatefulPartitionedCall/Generator/encoder_down_resblock_2/instance_norm_0/Reshape_3", "op": "Reshape", "input": ["StatefulPartitionedCall/Generator/encoder_down_resblock_2/instance_norm_0/batchnorm/add_1", "StatefulPartitionedCall/Generator/encoder_down_resblock_2/instance_norm_0/Shape"], "attr": {"T": {"type": "DT_FLOAT"}, "Tshape": {"type": "DT_INT32"}}}, {"name": "StatefulPartitionedCall/Generator/encoder_down_resblock_2/leaky_relu/LeakyRelu", "op": "LeakyRelu", "input": ["StatefulPartitionedCall/Generator/encoder_down_resblock_2/instance_norm_0/Reshape_3"], "attr": {"T": {"type": "DT_FLOAT"}, "alpha": {"f": 0.2}}}, {"name": "StatefulPartitionedCall/Generator/encoder_down_resblock_2/conv_0/Pad", "op": "Pad", "input": ["StatefulPartitionedCall/Generator/encoder_down_resblock_2/leaky_relu/LeakyRelu", "StatefulPartitionedCall/Generator/decoder_up_adaresblock_0/conv_0/Pad/paddings"], "attr": {"Tpaddings": {"type": "DT_INT32"}, "T": {"type": "DT_FLOAT"}}}, {"name": "StatefulPartitionedCall/Generator/encoder_down_resblock_2/conv_0/conv_0/BiasAdd", "op": "_FusedConv2D", "input": ["StatefulPartitionedCall/Generator/encoder_down_resblock_2/conv_0/Pad", "Func/StatefulPartitionedCall/input/_25", "Func/StatefulPartitionedCall/input/_26"], "device": "/device:CPU:0", "attr": {"padding": {"s": "VkFMSUQ="}, "fused_ops": {"list": {"s": ["Qmlhc0FkZA=="]}}, "dilations": {"list": {"i": ["1", "1", "1", "1"]}}, "T": {"type": "DT_FLOAT"}, "strides": {"list": {"i": ["1", "1", "1", "1"]}}, "data_format": {"s": "TkhXQw=="}, "explicit_paddings": {"list": {}}, "use_cudnn_on_gpu": {"b": true}, "num_args": {"i": "1"}, "epsilon": {"f": 0.0}}}, {"name": "StatefulPartitionedCall/Generator/encoder_down_resblock_2/avg_pool/AvgPool", "op": "AvgPool", "input": ["StatefulPartitionedCall/Generator/encoder_down_resblock_2/conv_0/conv_0/BiasAdd"], "attr": {"padding": {"s": "VkFMSUQ="}, "T": {"type": "DT_FLOAT"}, "strides": {"list": {"i": ["1", "2", "2", "1"]}}, "data_format": {"s": "TkhXQw=="}, "ksize": {"list": {"i": ["1", "2", "2", "1"]}}}}, {"name": "StatefulPartitionedCall/Generator/encoder_down_resblock_2/instance_norm_1/Shape", "op": "Shape", "input": ["StatefulPartitionedCall/Generator/encoder_down_resblock_2/avg_pool/AvgPool"], "attr": {"T": {"type": "DT_FLOAT"}, "out_type": {"type": "DT_INT32"}}}, {"name": "StatefulPartitionedCall/Generator/encoder_down_resblock_2/instance_norm_1/strided_slice", "op": "StridedSlice", "input": ["StatefulPartitionedCall/Generator/encoder_down_resblock_2/instance_norm_1/Shape", "StatefulPartitionedCall/Generator/sequential/ins_norm/strided_slice/stack", "StatefulPartitionedCall/Generator/sequential/ins_norm/strided_slice/stack_1", "StatefulPartitionedCall/Generator/sequential/ins_norm/strided_slice/stack_1"], "attr": {"shrink_axis_mask": {"i": "1"}, "ellipsis_mask": {"i": "0"}, "begin_mask": {"i": "0"}, "new_axis_mask": {"i": "0"}, "end_mask": {"i": "0"}, "Index": {"type": "DT_INT32"}, "T": {"type": "DT_INT32"}}}, {"name": "StatefulPartitionedCall/Generator/encoder_down_resblock_2/instance_norm_1/strided_slice_1", "op": "StridedSlice", "input": ["StatefulPartitionedCall/Generator/encoder_down_resblock_2/instance_norm_1/Shape", "StatefulPartitionedCall/Generator/sequential/ins_norm/strided_slice/stack_1", "StatefulPartitionedCall/Generator/sequential/ins_norm/strided_slice_1/stack_1", "StatefulPartitionedCall/Generator/sequential/ins_norm/strided_slice/stack_1"], "attr": {"shrink_axis_mask": {"i": "1"}, "begin_mask": {"i": "0"}, "ellipsis_mask": {"i": "0"}, "new_axis_mask": {"i": "0"}, "end_mask": {"i": "0"}, "Index": {"type": "DT_INT32"}, "T": {"type": "DT_INT32"}}}, {"name": "StatefulPartitionedCall/Generator/encoder_down_resblock_2/instance_norm_1/strided_slice_2", "op": "StridedSlice", "input": ["StatefulPartitionedCall/Generator/encoder_down_resblock_2/instance_norm_1/Shape", "StatefulPartitionedCall/Generator/sequential/ins_norm/strided_slice_1/stack_1", "StatefulPartitionedCall/Generator/sequential/ins_norm/strided_slice_2/stack_1", "StatefulPartitionedCall/Generator/sequential/ins_norm/strided_slice/stack_1"], "attr": {"T": {"type": "DT_INT32"}, "Index": {"type": "DT_INT32"}, "shrink_axis_mask": {"i": "1"}, "begin_mask": {"i": "0"}, "ellipsis_mask": {"i": "0"}, "new_axis_mask": {"i": "0"}, "end_mask": {"i": "0"}}}, {"name": "StatefulPartitionedCall/Generator/encoder_down_resblock_2/instance_norm_1/stack", "op": "Pack", "input": ["StatefulPartitionedCall/Generator/encoder_down_resblock_2/instance_norm_1/strided_slice", "StatefulPartitionedCall/Generator/encoder_down_resblock_2/instance_norm_1/strided_slice_1", "StatefulPartitionedCall/Generator/encoder_down_resblock_2/instance_norm_1/strided_slice_2", "StatefulPartitionedCall/Generator/encoder_down_resblock_2/instance_norm_1/stack/3", "StatefulPartitionedCall/Generator/sequential/ins_norm/stack/4"], "attr": {"N": {"i": "5"}, "T": {"type": "DT_INT32"}, "axis": {"i": "0"}}}, {"name": "StatefulPartitionedCall/Generator/encoder_down_resblock_2/instance_norm_1/Reshape", "op": "Reshape", "input": ["StatefulPartitionedCall/Generator/encoder_down_resblock_2/avg_pool/AvgPool", "StatefulPartitionedCall/Generator/encoder_down_resblock_2/instance_norm_1/stack"], "attr": {"T": {"type": "DT_FLOAT"}, "Tshape": {"type": "DT_INT32"}}}, {"name": "StatefulPartitionedCall/Generator/encoder_down_resblock_2/instance_norm_1/moments/mean", "op": "Mean", "input": ["StatefulPartitionedCall/Generator/encoder_down_resblock_2/instance_norm_1/Reshape", "StatefulPartitionedCall/Generator/sequential/ins_norm/moments/mean/reduction_indices"], "attr": {"Tidx": {"type": "DT_INT32"}, "keep_dims": {"b": true}, "T": {"type": "DT_FLOAT"}}}, {"name": "StatefulPartitionedCall/Generator/encoder_down_resblock_2/instance_norm_1/moments/SquaredDifference", "op": "SquaredDifference", "input": ["StatefulPartitionedCall/Generator/encoder_down_resblock_2/instance_norm_1/Reshape", "StatefulPartitionedCall/Generator/encoder_down_resblock_2/instance_norm_1/moments/mean"], "attr": {"T": {"type": "DT_FLOAT"}}}, {"name": "StatefulPartitionedCall/Generator/encoder_down_resblock_2/instance_norm_1/moments/variance", "op": "Mean", "input": ["StatefulPartitionedCall/Generator/encoder_down_resblock_2/instance_norm_1/moments/SquaredDifference", "StatefulPartitionedCall/Generator/sequential/ins_norm/moments/mean/reduction_indices"], "attr": {"T": {"type": "DT_FLOAT"}, "Tidx": {"type": "DT_INT32"}, "keep_dims": {"b": true}}}, {"name": "StatefulPartitionedCall/Generator/encoder_down_resblock_2/instance_norm_1/batchnorm/add", "op": "AddV2", "input": ["StatefulPartitionedCall/Generator/encoder_down_resblock_2/instance_norm_1/moments/variance", "StatefulPartitionedCall/Generator/sequential/ins_norm/batchnorm/add/y"], "attr": {"T": {"type": "DT_FLOAT"}}}, {"name": "StatefulPartitionedCall/Generator/encoder_down_resblock_2/instance_norm_1/batchnorm/Rsqrt", "op": "Rsqrt", "input": ["StatefulPartitionedCall/Generator/encoder_down_resblock_2/instance_norm_1/batchnorm/add"], "attr": {"T": {"type": "DT_FLOAT"}}}, {"name": "StatefulPartitionedCall/Generator/encoder_down_resblock_2/instance_norm_1/batchnorm/mul", "op": "Mul", "input": ["StatefulPartitionedCall/Generator/encoder_down_resblock_2/instance_norm_1/Reshape_1", "StatefulPartitionedCall/Generator/encoder_down_resblock_2/instance_norm_1/batchnorm/Rsqrt"], "attr": {"T": {"type": "DT_FLOAT"}}}, {"name": "StatefulPartitionedCall/Generator/encoder_down_resblock_2/instance_norm_1/batchnorm/mul_2", "op": "Mul", "input": ["StatefulPartitionedCall/Generator/encoder_down_resblock_2/instance_norm_1/batchnorm/mul", "StatefulPartitionedCall/Generator/encoder_down_resblock_2/instance_norm_1/moments/mean"], "attr": {"T": {"type": "DT_FLOAT"}}}, {"name": "StatefulPartitionedCall/Generator/encoder_down_resblock_2/instance_norm_1/batchnorm/mul_1", "op": "Mul", "input": ["StatefulPartitionedCall/Generator/encoder_down_resblock_2/instance_norm_1/Reshape", "StatefulPartitionedCall/Generator/encoder_down_resblock_2/instance_norm_1/batchnorm/mul"], "attr": {"T": {"type": "DT_FLOAT"}}}, {"name": "StatefulPartitionedCall/Generator/encoder_down_resblock_2/instance_norm_1/batchnorm/sub", "op": "Sub", "input": ["StatefulPartitionedCall/Generator/encoder_down_resblock_2/instance_norm_1/Reshape_2", "StatefulPartitionedCall/Generator/encoder_down_resblock_2/instance_norm_1/batchnorm/mul_2"], "attr": {"T": {"type": "DT_FLOAT"}}}, {"name": "StatefulPartitionedCall/Generator/encoder_down_resblock_2/instance_norm_1/batchnorm/add_1", "op": "AddV2", "input": ["StatefulPartitionedCall/Generator/encoder_down_resblock_2/instance_norm_1/batchnorm/mul_1", "StatefulPartitionedCall/Generator/encoder_down_resblock_2/instance_norm_1/batchnorm/sub"], "attr": {"T": {"type": "DT_FLOAT"}}}, {"name": "StatefulPartitionedCall/Generator/encoder_down_resblock_2/instance_norm_1/Reshape_3", "op": "Reshape", "input": ["StatefulPartitionedCall/Generator/encoder_down_resblock_2/instance_norm_1/batchnorm/add_1", "StatefulPartitionedCall/Generator/encoder_down_resblock_2/instance_norm_1/Shape"], "attr": {"T": {"type": "DT_FLOAT"}, "Tshape": {"type": "DT_INT32"}}}, {"name": "StatefulPartitionedCall/Generator/encoder_down_resblock_2/leaky_relu_1/LeakyRelu", "op": "LeakyRelu", "input": ["StatefulPartitionedCall/Generator/encoder_down_resblock_2/instance_norm_1/Reshape_3"], "attr": {"T": {"type": "DT_FLOAT"}, "alpha": {"f": 0.2}}}, {"name": "StatefulPartitionedCall/Generator/encoder_down_resblock_2/conv_1/Pad", "op": "Pad", "input": ["StatefulPartitionedCall/Generator/encoder_down_resblock_2/leaky_relu_1/LeakyRelu", "StatefulPartitionedCall/Generator/decoder_up_adaresblock_0/conv_0/Pad/paddings"], "attr": {"Tpaddings": {"type": "DT_INT32"}, "T": {"type": "DT_FLOAT"}}}, {"name": "StatefulPartitionedCall/Generator/encoder_down_resblock_2/conv_1/conv_1/BiasAdd", "op": "_FusedConv2D", "input": ["StatefulPartitionedCall/Generator/encoder_down_resblock_2/conv_1/Pad", "Func/StatefulPartitionedCall/input/_29", "Func/StatefulPartitionedCall/input/_30"], "device": "/device:CPU:0", "attr": {"dilations": {"list": {"i": ["1", "1", "1", "1"]}}, "T": {"type": "DT_FLOAT"}, "data_format": {"s": "TkhXQw=="}, "strides": {"list": {"i": ["1", "1", "1", "1"]}}, "explicit_paddings": {"list": {}}, "use_cudnn_on_gpu": {"b": true}, "num_args": {"i": "1"}, "epsilon": {"f": 0.0}, "padding": {"s": "VkFMSUQ="}, "fused_ops": {"list": {"s": ["Qmlhc0FkZA=="]}}}}, {"name": "StatefulPartitionedCall/Generator/encoder_down_resblock_2/add", "op": "AddV2", "input": ["StatefulPartitionedCall/Generator/encoder_down_resblock_2/avg_pool_1/AvgPool", "StatefulPartitionedCall/Generator/encoder_down_resblock_2/conv_1/conv_1/BiasAdd"], "attr": {"T": {"type": "DT_FLOAT"}}}, {"name": "StatefulPartitionedCall/Generator/encoder_down_resblock_2/truediv", "op": "Mul", "input": ["ConstantFolding/StatefulPartitionedCall/Generator/encoder_down_resblock_0/truediv_recip", "StatefulPartitionedCall/Generator/encoder_down_resblock_2/add"], "attr": {"T": {"type": "DT_FLOAT"}}}, {"name": "StatefulPartitionedCall/Generator/encoder_down_resblock_3/avg_pool_1/AvgPool", "op": "AvgPool", "input": ["StatefulPartitionedCall/Generator/encoder_down_resblock_2/truediv"], "attr": {"data_format": {"s": "TkhXQw=="}, "strides": {"list": {"i": ["1", "2", "2", "1"]}}, "ksize": {"list": {"i": ["1", "2", "2", "1"]}}, "padding": {"s": "VkFMSUQ="}, "T": {"type": "DT_FLOAT"}}}, {"name": "StatefulPartitionedCall/Generator/encoder_down_resblock_3/instance_norm_0/Shape", "op": "Shape", "input": ["StatefulPartitionedCall/Generator/encoder_down_resblock_2/truediv"], "attr": {"T": {"type": "DT_FLOAT"}, "out_type": {"type": "DT_INT32"}}}, {"name": "StatefulPartitionedCall/Generator/encoder_down_resblock_3/instance_norm_0/strided_slice", "op": "StridedSlice", "input": ["StatefulPartitionedCall/Generator/encoder_down_resblock_3/instance_norm_0/Shape", "StatefulPartitionedCall/Generator/sequential/ins_norm/strided_slice/stack", "StatefulPartitionedCall/Generator/sequential/ins_norm/strided_slice/stack_1", "StatefulPartitionedCall/Generator/sequential/ins_norm/strided_slice/stack_1"], "attr": {"T": {"type": "DT_INT32"}, "Index": {"type": "DT_INT32"}, "shrink_axis_mask": {"i": "1"}, "ellipsis_mask": {"i": "0"}, "begin_mask": {"i": "0"}, "new_axis_mask": {"i": "0"}, "end_mask": {"i": "0"}}}, {"name": "StatefulPartitionedCall/Generator/encoder_down_resblock_3/instance_norm_0/strided_slice_1", "op": "StridedSlice", "input": ["StatefulPartitionedCall/Generator/encoder_down_resblock_3/instance_norm_0/Shape", "StatefulPartitionedCall/Generator/sequential/ins_norm/strided_slice/stack_1", "StatefulPartitionedCall/Generator/sequential/ins_norm/strided_slice_1/stack_1", "StatefulPartitionedCall/Generator/sequential/ins_norm/strided_slice/stack_1"], "attr": {"T": {"type": "DT_INT32"}, "Index": {"type": "DT_INT32"}, "shrink_axis_mask": {"i": "1"}, "begin_mask": {"i": "0"}, "ellipsis_mask": {"i": "0"}, "new_axis_mask": {"i": "0"}, "end_mask": {"i": "0"}}}, {"name": "StatefulPartitionedCall/Generator/encoder_down_resblock_3/instance_norm_0/strided_slice_2", "op": "StridedSlice", "input": ["StatefulPartitionedCall/Generator/encoder_down_resblock_3/instance_norm_0/Shape", "StatefulPartitionedCall/Generator/sequential/ins_norm/strided_slice_1/stack_1", "StatefulPartitionedCall/Generator/sequential/ins_norm/strided_slice_2/stack_1", "StatefulPartitionedCall/Generator/sequential/ins_norm/strided_slice/stack_1"], "attr": {"T": {"type": "DT_INT32"}, "Index": {"type": "DT_INT32"}, "shrink_axis_mask": {"i": "1"}, "begin_mask": {"i": "0"}, "ellipsis_mask": {"i": "0"}, "new_axis_mask": {"i": "0"}, "end_mask": {"i": "0"}}}, {"name": "StatefulPartitionedCall/Generator/encoder_down_resblock_3/instance_norm_0/stack", "op": "Pack", "input": ["StatefulPartitionedCall/Generator/encoder_down_resblock_3/instance_norm_0/strided_slice", "StatefulPartitionedCall/Generator/encoder_down_resblock_3/instance_norm_0/strided_slice_1", "StatefulPartitionedCall/Generator/encoder_down_resblock_3/instance_norm_0/strided_slice_2", "StatefulPartitionedCall/Generator/encoder_bottleneck_resblock_1/instance_norm_1/stack/3", "StatefulPartitionedCall/Generator/sequential/ins_norm/stack/4"], "attr": {"T": {"type": "DT_INT32"}, "axis": {"i": "0"}, "N": {"i": "5"}}}, {"name": "StatefulPartitionedCall/Generator/encoder_down_resblock_3/instance_norm_0/Reshape", "op": "Reshape", "input": ["StatefulPartitionedCall/Generator/encoder_down_resblock_2/truediv", "StatefulPartitionedCall/Generator/encoder_down_resblock_3/instance_norm_0/stack"], "attr": {"Tshape": {"type": "DT_INT32"}, "T": {"type": "DT_FLOAT"}}}, {"name": "StatefulPartitionedCall/Generator/encoder_down_resblock_3/instance_norm_0/moments/mean", "op": "Mean", "input": ["StatefulPartitionedCall/Generator/encoder_down_resblock_3/instance_norm_0/Reshape", "StatefulPartitionedCall/Generator/sequential/ins_norm/moments/mean/reduction_indices"], "attr": {"T": {"type": "DT_FLOAT"}, "Tidx": {"type": "DT_INT32"}, "keep_dims": {"b": true}}}, {"name": "StatefulPartitionedCall/Generator/encoder_down_resblock_3/instance_norm_0/moments/SquaredDifference", "op": "SquaredDifference", "input": ["StatefulPartitionedCall/Generator/encoder_down_resblock_3/instance_norm_0/Reshape", "StatefulPartitionedCall/Generator/encoder_down_resblock_3/instance_norm_0/moments/mean"], "attr": {"T": {"type": "DT_FLOAT"}}}, {"name": "StatefulPartitionedCall/Generator/encoder_down_resblock_3/instance_norm_0/moments/variance", "op": "Mean", "input": ["StatefulPartitionedCall/Generator/encoder_down_resblock_3/instance_norm_0/moments/SquaredDifference", "StatefulPartitionedCall/Generator/sequential/ins_norm/moments/mean/reduction_indices"], "attr": {"T": {"type": "DT_FLOAT"}, "Tidx": {"type": "DT_INT32"}, "keep_dims": {"b": true}}}, {"name": "StatefulPartitionedCall/Generator/encoder_down_resblock_3/instance_norm_0/batchnorm/add", "op": "AddV2", "input": ["StatefulPartitionedCall/Generator/encoder_down_resblock_3/instance_norm_0/moments/variance", "StatefulPartitionedCall/Generator/sequential/ins_norm/batchnorm/add/y"], "attr": {"T": {"type": "DT_FLOAT"}}}, {"name": "StatefulPartitionedCall/Generator/encoder_down_resblock_3/instance_norm_0/batchnorm/Rsqrt", "op": "Rsqrt", "input": ["StatefulPartitionedCall/Generator/encoder_down_resblock_3/instance_norm_0/batchnorm/add"], "attr": {"T": {"type": "DT_FLOAT"}}}, {"name": "StatefulPartitionedCall/Generator/encoder_down_resblock_3/instance_norm_0/batchnorm/mul", "op": "Mul", "input": ["StatefulPartitionedCall/Generator/encoder_down_resblock_3/instance_norm_0/Reshape_1", "StatefulPartitionedCall/Generator/encoder_down_resblock_3/instance_norm_0/batchnorm/Rsqrt"], "attr": {"T": {"type": "DT_FLOAT"}}}, {"name": "StatefulPartitionedCall/Generator/encoder_down_resblock_3/instance_norm_0/batchnorm/mul_2", "op": "Mul", "input": ["StatefulPartitionedCall/Generator/encoder_down_resblock_3/instance_norm_0/batchnorm/mul", "StatefulPartitionedCall/Generator/encoder_down_resblock_3/instance_norm_0/moments/mean"], "attr": {"T": {"type": "DT_FLOAT"}}}, {"name": "StatefulPartitionedCall/Generator/encoder_down_resblock_3/instance_norm_0/batchnorm/mul_1", "op": "Mul", "input": ["StatefulPartitionedCall/Generator/encoder_down_resblock_3/instance_norm_0/Reshape", "StatefulPartitionedCall/Generator/encoder_down_resblock_3/instance_norm_0/batchnorm/mul"], "attr": {"T": {"type": "DT_FLOAT"}}}, {"name": "StatefulPartitionedCall/Generator/encoder_down_resblock_3/instance_norm_0/batchnorm/sub", "op": "Sub", "input": ["StatefulPartitionedCall/Generator/encoder_down_resblock_3/instance_norm_0/Reshape_2", "StatefulPartitionedCall/Generator/encoder_down_resblock_3/instance_norm_0/batchnorm/mul_2"], "attr": {"T": {"type": "DT_FLOAT"}}}, {"name": "StatefulPartitionedCall/Generator/encoder_down_resblock_3/instance_norm_0/batchnorm/add_1", "op": "AddV2", "input": ["StatefulPartitionedCall/Generator/encoder_down_resblock_3/instance_norm_0/batchnorm/mul_1", "StatefulPartitionedCall/Generator/encoder_down_resblock_3/instance_norm_0/batchnorm/sub"], "attr": {"T": {"type": "DT_FLOAT"}}}, {"name": "StatefulPartitionedCall/Generator/encoder_down_resblock_3/instance_norm_0/Reshape_3", "op": "Reshape", "input": ["StatefulPartitionedCall/Generator/encoder_down_resblock_3/instance_norm_0/batchnorm/add_1", "StatefulPartitionedCall/Generator/encoder_down_resblock_3/instance_norm_0/Shape"], "attr": {"T": {"type": "DT_FLOAT"}, "Tshape": {"type": "DT_INT32"}}}, {"name": "StatefulPartitionedCall/Generator/encoder_down_resblock_3/leaky_relu/LeakyRelu", "op": "LeakyRelu", "input": ["StatefulPartitionedCall/Generator/encoder_down_resblock_3/instance_norm_0/Reshape_3"], "attr": {"alpha": {"f": 0.2}, "T": {"type": "DT_FLOAT"}}}, {"name": "StatefulPartitionedCall/Generator/encoder_down_resblock_3/conv_0/Pad", "op": "Pad", "input": ["StatefulPartitionedCall/Generator/encoder_down_resblock_3/leaky_relu/LeakyRelu", "StatefulPartitionedCall/Generator/decoder_up_adaresblock_0/conv_0/Pad/paddings"], "attr": {"Tpaddings": {"type": "DT_INT32"}, "T": {"type": "DT_FLOAT"}}}, {"name": "StatefulPartitionedCall/Generator/encoder_down_resblock_3/conv_0/conv_0/BiasAdd", "op": "_FusedConv2D", "input": ["StatefulPartitionedCall/Generator/encoder_down_resblock_3/conv_0/Pad", "Func/StatefulPartitionedCall/input/_34", "Func/StatefulPartitionedCall/input/_35"], "device": "/device:CPU:0", "attr": {"dilations": {"list": {"i": ["1", "1", "1", "1"]}}, "T": {"type": "DT_FLOAT"}, "strides": {"list": {"i": ["1", "1", "1", "1"]}}, "data_format": {"s": "TkhXQw=="}, "use_cudnn_on_gpu": {"b": true}, "explicit_paddings": {"list": {}}, "num_args": {"i": "1"}, "epsilon": {"f": 0.0}, "padding": {"s": "VkFMSUQ="}, "fused_ops": {"list": {"s": ["Qmlhc0FkZA=="]}}}}, {"name": "StatefulPartitionedCall/Generator/encoder_down_resblock_3/avg_pool/AvgPool", "op": "AvgPool", "input": ["StatefulPartitionedCall/Generator/encoder_down_resblock_3/conv_0/conv_0/BiasAdd"], "attr": {"ksize": {"list": {"i": ["1", "2", "2", "1"]}}, "padding": {"s": "VkFMSUQ="}, "T": {"type": "DT_FLOAT"}, "data_format": {"s": "TkhXQw=="}, "strides": {"list": {"i": ["1", "2", "2", "1"]}}}}, {"name": "StatefulPartitionedCall/Generator/encoder_down_resblock_3/instance_norm_1/Shape", "op": "Shape", "input": ["StatefulPartitionedCall/Generator/encoder_down_resblock_3/avg_pool/AvgPool"], "attr": {"T": {"type": "DT_FLOAT"}, "out_type": {"type": "DT_INT32"}}}, {"name": "StatefulPartitionedCall/Generator/encoder_down_resblock_3/instance_norm_1/strided_slice", "op": "StridedSlice", "input": ["StatefulPartitionedCall/Generator/encoder_down_resblock_3/instance_norm_1/Shape", "StatefulPartitionedCall/Generator/sequential/ins_norm/strided_slice/stack", "StatefulPartitionedCall/Generator/sequential/ins_norm/strided_slice/stack_1", "StatefulPartitionedCall/Generator/sequential/ins_norm/strided_slice/stack_1"], "attr": {"shrink_axis_mask": {"i": "1"}, "begin_mask": {"i": "0"}, "ellipsis_mask": {"i": "0"}, "new_axis_mask": {"i": "0"}, "end_mask": {"i": "0"}, "Index": {"type": "DT_INT32"}, "T": {"type": "DT_INT32"}}}, {"name": "StatefulPartitionedCall/Generator/encoder_down_resblock_3/instance_norm_1/strided_slice_1", "op": "StridedSlice", "input": ["StatefulPartitionedCall/Generator/encoder_down_resblock_3/instance_norm_1/Shape", "StatefulPartitionedCall/Generator/sequential/ins_norm/strided_slice/stack_1", "StatefulPartitionedCall/Generator/sequential/ins_norm/strided_slice_1/stack_1", "StatefulPartitionedCall/Generator/sequential/ins_norm/strided_slice/stack_1"], "attr": {"shrink_axis_mask": {"i": "1"}, "ellipsis_mask": {"i": "0"}, "begin_mask": {"i": "0"}, "new_axis_mask": {"i": "0"}, "end_mask": {"i": "0"}, "Index": {"type": "DT_INT32"}, "T": {"type": "DT_INT32"}}}, {"name": "StatefulPartitionedCall/Generator/encoder_down_resblock_3/instance_norm_1/strided_slice_2", "op": "StridedSlice", "input": ["StatefulPartitionedCall/Generator/encoder_down_resblock_3/instance_norm_1/Shape", "StatefulPartitionedCall/Generator/sequential/ins_norm/strided_slice_1/stack_1", "StatefulPartitionedCall/Generator/sequential/ins_norm/strided_slice_2/stack_1", "StatefulPartitionedCall/Generator/sequential/ins_norm/strided_slice/stack_1"], "attr": {"Index": {"type": "DT_INT32"}, "T": {"type": "DT_INT32"}, "shrink_axis_mask": {"i": "1"}, "begin_mask": {"i": "0"}, "ellipsis_mask": {"i": "0"}, "new_axis_mask": {"i": "0"}, "end_mask": {"i": "0"}}}, {"name": "StatefulPartitionedCall/Generator/encoder_down_resblock_3/instance_norm_1/stack", "op": "Pack", "input": ["StatefulPartitionedCall/Generator/encoder_down_resblock_3/instance_norm_1/strided_slice", "StatefulPartitionedCall/Generator/encoder_down_resblock_3/instance_norm_1/strided_slice_1", "StatefulPartitionedCall/Generator/encoder_down_resblock_3/instance_norm_1/strided_slice_2", "StatefulPartitionedCall/Generator/encoder_bottleneck_resblock_1/instance_norm_1/stack/3", "StatefulPartitionedCall/Generator/sequential/ins_norm/stack/4"], "attr": {"T": {"type": "DT_INT32"}, "axis": {"i": "0"}, "N": {"i": "5"}}}, {"name": "StatefulPartitionedCall/Generator/encoder_down_resblock_3/instance_norm_1/Reshape", "op": "Reshape", "input": ["StatefulPartitionedCall/Generator/encoder_down_resblock_3/avg_pool/AvgPool", "StatefulPartitionedCall/Generator/encoder_down_resblock_3/instance_norm_1/stack"], "attr": {"Tshape": {"type": "DT_INT32"}, "T": {"type": "DT_FLOAT"}}}, {"name": "StatefulPartitionedCall/Generator/encoder_down_resblock_3/instance_norm_1/moments/mean", "op": "Mean", "input": ["StatefulPartitionedCall/Generator/encoder_down_resblock_3/instance_norm_1/Reshape", "StatefulPartitionedCall/Generator/sequential/ins_norm/moments/mean/reduction_indices"], "attr": {"Tidx": {"type": "DT_INT32"}, "keep_dims": {"b": true}, "T": {"type": "DT_FLOAT"}}}, {"name": "StatefulPartitionedCall/Generator/encoder_down_resblock_3/instance_norm_1/moments/SquaredDifference", "op": "SquaredDifference", "input": ["StatefulPartitionedCall/Generator/encoder_down_resblock_3/instance_norm_1/Reshape", "StatefulPartitionedCall/Generator/encoder_down_resblock_3/instance_norm_1/moments/mean"], "attr": {"T": {"type": "DT_FLOAT"}}}, {"name": "StatefulPartitionedCall/Generator/encoder_down_resblock_3/instance_norm_1/moments/variance", "op": "Mean", "input": ["StatefulPartitionedCall/Generator/encoder_down_resblock_3/instance_norm_1/moments/SquaredDifference", "StatefulPartitionedCall/Generator/sequential/ins_norm/moments/mean/reduction_indices"], "attr": {"Tidx": {"type": "DT_INT32"}, "keep_dims": {"b": true}, "T": {"type": "DT_FLOAT"}}}, {"name": "StatefulPartitionedCall/Generator/encoder_down_resblock_3/instance_norm_1/batchnorm/add", "op": "AddV2", "input": ["StatefulPartitionedCall/Generator/encoder_down_resblock_3/instance_norm_1/moments/variance", "StatefulPartitionedCall/Generator/sequential/ins_norm/batchnorm/add/y"], "attr": {"T": {"type": "DT_FLOAT"}}}, {"name": "StatefulPartitionedCall/Generator/encoder_down_resblock_3/instance_norm_1/batchnorm/Rsqrt", "op": "Rsqrt", "input": ["StatefulPartitionedCall/Generator/encoder_down_resblock_3/instance_norm_1/batchnorm/add"], "attr": {"T": {"type": "DT_FLOAT"}}}, {"name": "StatefulPartitionedCall/Generator/encoder_down_resblock_3/instance_norm_1/batchnorm/mul", "op": "Mul", "input": ["StatefulPartitionedCall/Generator/encoder_down_resblock_3/instance_norm_1/Reshape_1", "StatefulPartitionedCall/Generator/encoder_down_resblock_3/instance_norm_1/batchnorm/Rsqrt"], "attr": {"T": {"type": "DT_FLOAT"}}}, {"name": "StatefulPartitionedCall/Generator/encoder_down_resblock_3/instance_norm_1/batchnorm/mul_2", "op": "Mul", "input": ["StatefulPartitionedCall/Generator/encoder_down_resblock_3/instance_norm_1/batchnorm/mul", "StatefulPartitionedCall/Generator/encoder_down_resblock_3/instance_norm_1/moments/mean"], "attr": {"T": {"type": "DT_FLOAT"}}}, {"name": "StatefulPartitionedCall/Generator/encoder_down_resblock_3/instance_norm_1/batchnorm/mul_1", "op": "Mul", "input": ["StatefulPartitionedCall/Generator/encoder_down_resblock_3/instance_norm_1/Reshape", "StatefulPartitionedCall/Generator/encoder_down_resblock_3/instance_norm_1/batchnorm/mul"], "attr": {"T": {"type": "DT_FLOAT"}}}, {"name": "StatefulPartitionedCall/Generator/encoder_down_resblock_3/instance_norm_1/batchnorm/sub", "op": "Sub", "input": ["StatefulPartitionedCall/Generator/encoder_down_resblock_3/instance_norm_1/Reshape_2", "StatefulPartitionedCall/Generator/encoder_down_resblock_3/instance_norm_1/batchnorm/mul_2"], "attr": {"T": {"type": "DT_FLOAT"}}}, {"name": "StatefulPartitionedCall/Generator/encoder_down_resblock_3/instance_norm_1/batchnorm/add_1", "op": "AddV2", "input": ["StatefulPartitionedCall/Generator/encoder_down_resblock_3/instance_norm_1/batchnorm/mul_1", "StatefulPartitionedCall/Generator/encoder_down_resblock_3/instance_norm_1/batchnorm/sub"], "attr": {"T": {"type": "DT_FLOAT"}}}, {"name": "StatefulPartitionedCall/Generator/encoder_down_resblock_3/instance_norm_1/Reshape_3", "op": "Reshape", "input": ["StatefulPartitionedCall/Generator/encoder_down_resblock_3/instance_norm_1/batchnorm/add_1", "StatefulPartitionedCall/Generator/encoder_down_resblock_3/instance_norm_1/Shape"], "attr": {"T": {"type": "DT_FLOAT"}, "Tshape": {"type": "DT_INT32"}}}, {"name": "StatefulPartitionedCall/Generator/encoder_down_resblock_3/leaky_relu_1/LeakyRelu", "op": "LeakyRelu", "input": ["StatefulPartitionedCall/Generator/encoder_down_resblock_3/instance_norm_1/Reshape_3"], "attr": {"T": {"type": "DT_FLOAT"}, "alpha": {"f": 0.2}}}, {"name": "StatefulPartitionedCall/Generator/encoder_down_resblock_3/conv_1/Pad", "op": "Pad", "input": ["StatefulPartitionedCall/Generator/encoder_down_resblock_3/leaky_relu_1/LeakyRelu", "StatefulPartitionedCall/Generator/decoder_up_adaresblock_0/conv_0/Pad/paddings"], "attr": {"Tpaddings": {"type": "DT_INT32"}, "T": {"type": "DT_FLOAT"}}}, {"name": "StatefulPartitionedCall/Generator/encoder_down_resblock_3/conv_1/conv_1/BiasAdd", "op": "_FusedConv2D", "input": ["StatefulPartitionedCall/Generator/encoder_down_resblock_3/conv_1/Pad", "Func/StatefulPartitionedCall/input/_38", "Func/StatefulPartitionedCall/input/_39"], "device": "/device:CPU:0", "attr": {"data_format": {"s": "TkhXQw=="}, "strides": {"list": {"i": ["1", "1", "1", "1"]}}, "explicit_paddings": {"list": {}}, "use_cudnn_on_gpu": {"b": true}, "num_args": {"i": "1"}, "epsilon": {"f": 0.0}, "padding": {"s": "VkFMSUQ="}, "fused_ops": {"list": {"s": ["Qmlhc0FkZA=="]}}, "dilations": {"list": {"i": ["1", "1", "1", "1"]}}, "T": {"type": "DT_FLOAT"}}}, {"name": "StatefulPartitionedCall/Generator/encoder_down_resblock_3/add", "op": "AddV2", "input": ["StatefulPartitionedCall/Generator/encoder_down_resblock_3/avg_pool_1/AvgPool", "StatefulPartitionedCall/Generator/encoder_down_resblock_3/conv_1/conv_1/BiasAdd"], "attr": {"T": {"type": "DT_FLOAT"}}}, {"name": "StatefulPartitionedCall/Generator/encoder_down_resblock_3/truediv", "op": "Mul", "input": ["ConstantFolding/StatefulPartitionedCall/Generator/encoder_down_resblock_0/truediv_recip", "StatefulPartitionedCall/Generator/encoder_down_resblock_3/add"], "attr": {"T": {"type": "DT_FLOAT"}}}, {"name": "StatefulPartitionedCall/Generator/encoder_bottleneck_resblock_0/instance_norm_0/Shape", "op": "Shape", "input": ["StatefulPartitionedCall/Generator/encoder_down_resblock_3/truediv"], "attr": {"T": {"type": "DT_FLOAT"}, "out_type": {"type": "DT_INT32"}}}, {"name": "StatefulPartitionedCall/Generator/encoder_bottleneck_resblock_0/instance_norm_0/strided_slice", "op": "StridedSlice", "input": ["StatefulPartitionedCall/Generator/encoder_bottleneck_resblock_0/instance_norm_0/Shape", "StatefulPartitionedCall/Generator/sequential/ins_norm/strided_slice/stack", "StatefulPartitionedCall/Generator/sequential/ins_norm/strided_slice/stack_1", "StatefulPartitionedCall/Generator/sequential/ins_norm/strided_slice/stack_1"], "attr": {"shrink_axis_mask": {"i": "1"}, "ellipsis_mask": {"i": "0"}, "begin_mask": {"i": "0"}, "new_axis_mask": {"i": "0"}, "end_mask": {"i": "0"}, "Index": {"type": "DT_INT32"}, "T": {"type": "DT_INT32"}}}, {"name": "StatefulPartitionedCall/Generator/encoder_bottleneck_resblock_0/instance_norm_0/strided_slice_1", "op": "StridedSlice", "input": ["StatefulPartitionedCall/Generator/encoder_bottleneck_resblock_0/instance_norm_0/Shape", "StatefulPartitionedCall/Generator/sequential/ins_norm/strided_slice/stack_1", "StatefulPartitionedCall/Generator/sequential/ins_norm/strided_slice_1/stack_1", "StatefulPartitionedCall/Generator/sequential/ins_norm/s…
ts/mean", "op": "Mean", "input": ["StatefulPartitionedCall/Generator/decoder_up_adaresblock_2/conv_0/conv_0/BiasAdd", "StatefulPartitionedCall/Generator/decoder_up_adaresblock_0/adain_0/moments/mean/reduction_indices"], "attr": {"Tidx": {"type": "DT_INT32"}, "keep_dims": {"b": true}, "T": {"type": "DT_FLOAT"}}}, {"name": "StatefulPartitionedCall/Generator/decoder_up_adaresblock_2/adain_1/moments/SquaredDifference", "op": "SquaredDifference", "input": ["StatefulPartitionedCall/Generator/decoder_up_adaresblock_2/adain_1/moments/mean", "StatefulPartitionedCall/Generator/decoder_up_adaresblock_2/conv_0/conv_0/BiasAdd"], "attr": {"T": {"type": "DT_FLOAT"}}}, {"name": "StatefulPartitionedCall/Generator/decoder_up_adaresblock_2/adain_1/sub", "op": "Sub", "input": ["StatefulPartitionedCall/Generator/decoder_up_adaresblock_2/conv_0/conv_0/BiasAdd", "StatefulPartitionedCall/Generator/decoder_up_adaresblock_2/adain_1/moments/mean"], "attr": {"T": {"type": "DT_FLOAT"}}}, {"name": "StatefulPartitionedCall/Generator/decoder_up_adaresblock_2/adain_1/moments/variance", "op": "Mean", "input": ["StatefulPartitionedCall/Generator/decoder_up_adaresblock_2/adain_1/moments/SquaredDifference", "StatefulPartitionedCall/Generator/decoder_up_adaresblock_0/adain_0/moments/mean/reduction_indices"], "attr": {"Tidx": {"type": "DT_INT32"}, "keep_dims": {"b": true}, "T": {"type": "DT_FLOAT"}}}, {"name": "StatefulPartitionedCall/Generator/decoder_up_adaresblock_2/adain_1/add", "op": "AddV2", "input": ["StatefulPartitionedCall/Generator/decoder_up_adaresblock_2/adain_1/moments/variance", "StatefulPartitionedCall/Generator/sequential/ins_norm/batchnorm/add/y"], "attr": {"T": {"type": "DT_FLOAT"}}}, {"name": "StatefulPartitionedCall/Generator/decoder_up_adaresblock_2/adain_1/Sqrt", "op": "Rsqrt", "input": ["StatefulPartitionedCall/Generator/decoder_up_adaresblock_2/adain_1/add"], "attr": {"T": {"type": "DT_FLOAT"}}}, {"name": "StatefulPartitionedCall/Generator/decoder_up_adaresblock_2/adain_1/truediv", "op": "Mul", "input": ["StatefulPartitionedCall/Generator/decoder_up_adaresblock_2/adain_1/Sqrt", "StatefulPartitionedCall/Generator/decoder_up_adaresblock_2/adain_1/sub"], "attr": {"T": {"type": "DT_FLOAT"}}}, {"name": "StatefulPartitionedCall/Generator/decoder_up_adaresblock_2/adain_1/mul", "op": "Mul", "input": ["StatefulPartitionedCall/Generator/decoder_up_adaresblock_2/adain_1/add_1", "StatefulPartitionedCall/Generator/decoder_up_adaresblock_2/adain_1/truediv"], "attr": {"T": {"type": "DT_FLOAT"}}}, {"name": "StatefulPartitionedCall/Generator/decoder_up_adaresblock_2/adain_1/add_2", "op": "AddV2", "input": ["StatefulPartitionedCall/Generator/decoder_up_adaresblock_2/adain_1/Reshape_1", "StatefulPartitionedCall/Generator/decoder_up_adaresblock_2/adain_1/mul"], "attr": {"T": {"type": "DT_FLOAT"}}}, {"name": "StatefulPartitionedCall/Generator/decoder_up_adaresblock_2/leaky_relu_1/LeakyRelu", "op": "LeakyRelu", "input": ["StatefulPartitionedCall/Generator/decoder_up_adaresblock_2/adain_1/add_2"], "attr": {"T": {"type": "DT_FLOAT"}, "alpha": {"f": 0.2}}}, {"name": "StatefulPartitionedCall/Generator/decoder_up_adaresblock_2/conv_1/Pad", "op": "Pad", "input": ["StatefulPartitionedCall/Generator/decoder_up_adaresblock_2/leaky_relu_1/LeakyRelu", "StatefulPartitionedCall/Generator/decoder_up_adaresblock_0/conv_0/Pad/paddings"], "attr": {"T": {"type": "DT_FLOAT"}, "Tpaddings": {"type": "DT_INT32"}}}, {"name": "StatefulPartitionedCall/Generator/decoder_up_adaresblock_2/conv_1/conv_1/BiasAdd", "op": "_FusedConv2D", "input": ["StatefulPartitionedCall/Generator/decoder_up_adaresblock_2/conv_1/Pad", "Func/StatefulPartitionedCall/input/_102", "Func/StatefulPartitionedCall/input/_103"], "device": "/device:CPU:0", "attr": {"dilations": {"list": {"i": ["1", "1", "1", "1"]}}, "T": {"type": "DT_FLOAT"}, "strides": {"list": {"i": ["1", "1", "1", "1"]}}, "data_format": {"s": "TkhXQw=="}, "use_cudnn_on_gpu": {"b": true}, "explicit_paddings": {"list": {}}, "num_args": {"i": "1"}, "epsilon": {"f": 0.0}, "padding": {"s": "VkFMSUQ="}, "fused_ops": {"list": {"s": ["Qmlhc0FkZA=="]}}}}, {"name": "StatefulPartitionedCall/Generator/decoder_up_adaresblock_2/add", "op": "AddV2", "input": ["StatefulPartitionedCall/Generator/decoder_up_adaresblock_2/conv_1/conv_1/BiasAdd", "StatefulPartitionedCall/Generator/decoder_up_adaresblock_2/skip_conv/skip_conv/Conv2D"], "attr": {"T": {"type": "DT_FLOAT"}}}, {"name": "StatefulPartitionedCall/Generator/decoder_up_adaresblock_2/truediv", "op": "Mul", "input": ["ConstantFolding/StatefulPartitionedCall/Generator/encoder_down_resblock_0/truediv_recip", "StatefulPartitionedCall/Generator/decoder_up_adaresblock_2/add"], "attr": {"T": {"type": "DT_FLOAT"}}}, {"name": "StatefulPartitionedCall/Generator/decoder_up_adaresblock_1/adain_0/moments/mean", "op": "Mean", "input": ["StatefulPartitionedCall/Generator/decoder_up_adaresblock_2/truediv", "StatefulPartitionedCall/Generator/decoder_up_adaresblock_0/adain_0/moments/mean/reduction_indices"], "attr": {"Tidx": {"type": "DT_INT32"}, "keep_dims": {"b": true}, "T": {"type": "DT_FLOAT"}}}, {"name": "StatefulPartitionedCall/Generator/decoder_up_adaresblock_1/resize_1/ResizeNearestNeighbor", "op": "ResizeNearestNeighbor", "input": ["StatefulPartitionedCall/Generator/decoder_up_adaresblock_2/truediv", "StatefulPartitionedCall/Generator/decoder_up_adaresblock_1/resize/size"], "attr": {"align_corners": {"b": false}, "half_pixel_centers": {"b": true}, "T": {"type": "DT_FLOAT"}}}, {"name": "StatefulPartitionedCall/Generator/decoder_up_adaresblock_1/adain_0/moments/SquaredDifference", "op": "SquaredDifference", "input": ["StatefulPartitionedCall/Generator/decoder_up_adaresblock_1/adain_0/moments/mean", "StatefulPartitionedCall/Generator/decoder_up_adaresblock_2/truediv"], "attr": {"T": {"type": "DT_FLOAT"}}}, {"name": "StatefulPartitionedCall/Generator/decoder_up_adaresblock_1/adain_0/sub", "op": "Sub", "input": ["StatefulPartitionedCall/Generator/decoder_up_adaresblock_2/truediv", "StatefulPartitionedCall/Generator/decoder_up_adaresblock_1/adain_0/moments/mean"], "attr": {"T": {"type": "DT_FLOAT"}}}, {"name": "StatefulPartitionedCall/Generator/decoder_up_adaresblock_1/skip_conv/skip_conv/Conv2D", "op": "Conv2D", "input": ["StatefulPartitionedCall/Generator/decoder_up_adaresblock_1/resize_1/ResizeNearestNeighbor", "Func/StatefulPartitionedCall/input/_117"], "device": "/device:CPU:0", "attr": {"dilations": {"list": {"i": ["1", "1", "1", "1"]}}, "T": {"type": "DT_FLOAT"}, "data_format": {"s": "TkhXQw=="}, "strides": {"list": {"i": ["1", "1", "1", "1"]}}, "explicit_paddings": {"list": {}}, "use_cudnn_on_gpu": {"b": true}, "padding": {"s": "VkFMSUQ="}}}, {"name": "StatefulPartitionedCall/Generator/decoder_up_adaresblock_1/adain_0/moments/variance", "op": "Mean", "input": ["StatefulPartitionedCall/Generator/decoder_up_adaresblock_1/adain_0/moments/SquaredDifference", "StatefulPartitionedCall/Generator/decoder_up_adaresblock_0/adain_0/moments/mean/reduction_indices"], "attr": {"T": {"type": "DT_FLOAT"}, "Tidx": {"type": "DT_INT32"}, "keep_dims": {"b": true}}}, {"name": "StatefulPartitionedCall/Generator/decoder_up_adaresblock_1/adain_0/add", "op": "AddV2", "input": ["StatefulPartitionedCall/Generator/decoder_up_adaresblock_1/adain_0/moments/variance", "StatefulPartitionedCall/Generator/sequential/ins_norm/batchnorm/add/y"], "attr": {"T": {"type": "DT_FLOAT"}}}, {"name": "StatefulPartitionedCall/Generator/decoder_up_adaresblock_1/adain_0/Sqrt", "op": "Rsqrt", "input": ["StatefulPartitionedCall/Generator/decoder_up_adaresblock_1/adain_0/add"], "attr": {"T": {"type": "DT_FLOAT"}}}, {"name": "StatefulPartitionedCall/Generator/decoder_up_adaresblock_1/adain_0/truediv", "op": "Mul", "input": ["StatefulPartitionedCall/Generator/decoder_up_adaresblock_1/adain_0/Sqrt", "StatefulPartitionedCall/Generator/decoder_up_adaresblock_1/adain_0/sub"], "attr": {"T": {"type": "DT_FLOAT"}}}, {"name": "StatefulPartitionedCall/Generator/decoder_up_adaresblock_1/adain_0/mul", "op": "Mul", "input": ["StatefulPartitionedCall/Generator/decoder_up_adaresblock_1/adain_0/add_1", "StatefulPartitionedCall/Generator/decoder_up_adaresblock_1/adain_0/truediv"], "attr": {"T": {"type": "DT_FLOAT"}}}, {"name": "StatefulPartitionedCall/Generator/decoder_up_adaresblock_1/adain_0/add_2", "op": "AddV2", "input": ["StatefulPartitionedCall/Generator/decoder_up_adaresblock_1/adain_0/Reshape_1", "StatefulPartitionedCall/Generator/decoder_up_adaresblock_1/adain_0/mul"], "attr": {"T": {"type": "DT_FLOAT"}}}, {"name": "StatefulPartitionedCall/Generator/decoder_up_adaresblock_1/leaky_relu/LeakyRelu", "op": "LeakyRelu", "input": ["StatefulPartitionedCall/Generator/decoder_up_adaresblock_1/adain_0/add_2"], "attr": {"alpha": {"f": 0.2}, "T": {"type": "DT_FLOAT"}}}, {"name": "StatefulPartitionedCall/Generator/decoder_up_adaresblock_1/resize/ResizeNearestNeighbor", "op": "ResizeNearestNeighbor", "input": ["StatefulPartitionedCall/Generator/decoder_up_adaresblock_1/leaky_relu/LeakyRelu", "StatefulPartitionedCall/Generator/decoder_up_adaresblock_1/resize/size"], "attr": {"align_corners": {"b": false}, "half_pixel_centers": {"b": true}, "T": {"type": "DT_FLOAT"}}}, {"name": "StatefulPartitionedCall/Generator/decoder_up_adaresblock_1/conv_0/Pad", "op": "Pad", "input": ["StatefulPartitionedCall/Generator/decoder_up_adaresblock_1/resize/ResizeNearestNeighbor", "StatefulPartitionedCall/Generator/decoder_up_adaresblock_0/conv_0/Pad/paddings"], "attr": {"T": {"type": "DT_FLOAT"}, "Tpaddings": {"type": "DT_INT32"}}}, {"name": "StatefulPartitionedCall/Generator/decoder_up_adaresblock_1/conv_0/conv_0/BiasAdd", "op": "_FusedConv2D", "input": ["StatefulPartitionedCall/Generator/decoder_up_adaresblock_1/conv_0/Pad", "Func/StatefulPartitionedCall/input/_109", "Func/StatefulPartitionedCall/input/_110"], "device": "/device:CPU:0", "attr": {"dilations": {"list": {"i": ["1", "1", "1", "1"]}}, "T": {"type": "DT_FLOAT"}, "data_format": {"s": "TkhXQw=="}, "strides": {"list": {"i": ["1", "1", "1", "1"]}}, "use_cudnn_on_gpu": {"b": true}, "explicit_paddings": {"list": {}}, "num_args": {"i": "1"}, "epsilon": {"f": 0.0}, "padding": {"s": "VkFMSUQ="}, "fused_ops": {"list": {"s": ["Qmlhc0FkZA=="]}}}}, {"name": "StatefulPartitionedCall/Generator/decoder_up_adaresblock_1/adain_1/moments/mean", "op": "Mean", "input": ["StatefulPartitionedCall/Generator/decoder_up_adaresblock_1/conv_0/conv_0/BiasAdd", "StatefulPartitionedCall/Generator/decoder_up_adaresblock_0/adain_0/moments/mean/reduction_indices"], "attr": {"T": {"type": "DT_FLOAT"}, "Tidx": {"type": "DT_INT32"}, "keep_dims": {"b": true}}}, {"name": "StatefulPartitionedCall/Generator/decoder_up_adaresblock_1/adain_1/moments/SquaredDifference", "op": "SquaredDifference", "input": ["StatefulPartitionedCall/Generator/decoder_up_adaresblock_1/adain_1/moments/mean", "StatefulPartitionedCall/Generator/decoder_up_adaresblock_1/conv_0/conv_0/BiasAdd"], "attr": {"T": {"type": "DT_FLOAT"}}}, {"name": "StatefulPartitionedCall/Generator/decoder_up_adaresblock_1/adain_1/sub", "op": "Sub", "input": ["StatefulPartitionedCall/Generator/decoder_up_adaresblock_1/conv_0/conv_0/BiasAdd", "StatefulPartitionedCall/Generator/decoder_up_adaresblock_1/adain_1/moments/mean"], "attr": {"T": {"type": "DT_FLOAT"}}}, {"name": "StatefulPartitionedCall/Generator/decoder_up_adaresblock_1/adain_1/moments/variance", "op": "Mean", "input": ["StatefulPartitionedCall/Generator/decoder_up_adaresblock_1/adain_1/moments/SquaredDifference", "StatefulPartitionedCall/Generator/decoder_up_adaresblock_0/adain_0/moments/mean/reduction_indices"], "attr": {"Tidx": {"type": "DT_INT32"}, "keep_dims": {"b": true}, "T": {"type": "DT_FLOAT"}}}, {"name": "StatefulPartitionedCall/Generator/decoder_up_adaresblock_1/adain_1/add", "op": "AddV2", "input": ["StatefulPartitionedCall/Generator/decoder_up_adaresblock_1/adain_1/moments/variance", "StatefulPartitionedCall/Generator/sequential/ins_norm/batchnorm/add/y"], "attr": {"T": {"type": "DT_FLOAT"}}}, {"name": "StatefulPartitionedCall/Generator/decoder_up_adaresblock_1/adain_1/Sqrt", "op": "Rsqrt", "input": ["StatefulPartitionedCall/Generator/decoder_up_adaresblock_1/adain_1/add"], "attr": {"T": {"type": "DT_FLOAT"}}}, {"name": "StatefulPartitionedCall/Generator/decoder_up_adaresblock_1/adain_1/truediv", "op": "Mul", "input": ["StatefulPartitionedCall/Generator/decoder_up_adaresblock_1/adain_1/Sqrt", "StatefulPartitionedCall/Generator/decoder_up_adaresblock_1/adain_1/sub"], "attr": {"T": {"type": "DT_FLOAT"}}}, {"name": "StatefulPartitionedCall/Generator/decoder_up_adaresblock_1/adain_1/mul", "op": "Mul", "input": ["StatefulPartitionedCall/Generator/decoder_up_adaresblock_1/adain_1/add_1", "StatefulPartitionedCall/Generator/decoder_up_adaresblock_1/adain_1/truediv"], "attr": {"T": {"type": "DT_FLOAT"}}}, {"name": "StatefulPartitionedCall/Generator/decoder_up_adaresblock_1/adain_1/add_2", "op": "AddV2", "input": ["StatefulPartitionedCall/Generator/decoder_up_adaresblock_1/adain_1/Reshape_1", "StatefulPartitionedCall/Generator/decoder_up_adaresblock_1/adain_1/mul"], "attr": {"T": {"type": "DT_FLOAT"}}}, {"name": "StatefulPartitionedCall/Generator/decoder_up_adaresblock_1/leaky_relu_1/LeakyRelu", "op": "LeakyRelu", "input": ["StatefulPartitionedCall/Generator/decoder_up_adaresblock_1/adain_1/add_2"], "attr": {"T": {"type": "DT_FLOAT"}, "alpha": {"f": 0.2}}}, {"name": "StatefulPartitionedCall/Generator/decoder_up_adaresblock_1/conv_1/Pad", "op": "Pad", "input": ["StatefulPartitionedCall/Generator/decoder_up_adaresblock_1/leaky_relu_1/LeakyRelu", "StatefulPartitionedCall/Generator/decoder_up_adaresblock_0/conv_0/Pad/paddings"], "attr": {"T": {"type": "DT_FLOAT"}, "Tpaddings": {"type": "DT_INT32"}}}, {"name": "StatefulPartitionedCall/Generator/decoder_up_adaresblock_1/conv_1/conv_1/BiasAdd", "op": "_FusedConv2D", "input": ["StatefulPartitionedCall/Generator/decoder_up_adaresblock_1/conv_1/Pad", "Func/StatefulPartitionedCall/input/_115", "Func/StatefulPartitionedCall/input/_116"], "device": "/device:CPU:0", "attr": {"epsilon": {"f": 0.0}, "padding": {"s": "VkFMSUQ="}, "fused_ops": {"list": {"s": ["Qmlhc0FkZA=="]}}, "dilations": {"list": {"i": ["1", "1", "1", "1"]}}, "T": {"type": "DT_FLOAT"}, "strides": {"list": {"i": ["1", "1", "1", "1"]}}, "data_format": {"s": "TkhXQw=="}, "explicit_paddings": {"list": {}}, "use_cudnn_on_gpu": {"b": true}, "num_args": {"i": "1"}}}, {"name": "StatefulPartitionedCall/Generator/decoder_up_adaresblock_1/add", "op": "AddV2", "input": ["StatefulPartitionedCall/Generator/decoder_up_adaresblock_1/conv_1/conv_1/BiasAdd", "StatefulPartitionedCall/Generator/decoder_up_adaresblock_1/skip_conv/skip_conv/Conv2D"], "attr": {"T": {"type": "DT_FLOAT"}}}, {"name": "StatefulPartitionedCall/Generator/decoder_up_adaresblock_1/truediv", "op": "Mul", "input": ["ConstantFolding/StatefulPartitionedCall/Generator/encoder_down_resblock_0/truediv_recip", "StatefulPartitionedCall/Generator/decoder_up_adaresblock_1/add"], "attr": {"T": {"type": "DT_FLOAT"}}}, {"name": "StatefulPartitionedCall/Generator/decoder_up_adaresblock_0/resize_1/ResizeNearestNeighbor", "op": "ResizeNearestNeighbor", "input": ["StatefulPartitionedCall/Generator/decoder_up_adaresblock_1/truediv", "StatefulPartitionedCall/Generator/decoder_up_adaresblock_0/resize/size"], "attr": {"align_corners": {"b": false}, "half_pixel_centers": {"b": true}, "T": {"type": "DT_FLOAT"}}}, {"name": "StatefulPartitionedCall/Generator/decoder_up_adaresblock_0/adain_0/moments/mean", "op": "Mean", "input": ["StatefulPartitionedCall/Generator/decoder_up_adaresblock_1/truediv", "StatefulPartitionedCall/Generator/decoder_up_adaresblock_0/adain_0/moments/mean/reduction_indices"], "attr": {"Tidx": {"type": "DT_INT32"}, "keep_dims": {"b": true}, "T": {"type": "DT_FLOAT"}}}, {"name": "StatefulPartitionedCall/Generator/decoder_up_adaresblock_0/skip_conv/skip_conv/Conv2D", "op": "Conv2D", "input": ["StatefulPartitionedCall/Generator/decoder_up_adaresblock_0/resize_1/ResizeNearestNeighbor", "Func/StatefulPartitionedCall/input/_130"], "device": "/device:CPU:0", "attr": {"padding": {"s": "VkFMSUQ="}, "dilations": {"list": {"i": ["1", "1", "1", "1"]}}, "T": {"type": "DT_FLOAT"}, "data_format": {"s": "TkhXQw=="}, "strides": {"list": {"i": ["1", "1", "1", "1"]}}, "explicit_paddings": {"list": {}}, "use_cudnn_on_gpu": {"b": true}}}, {"name": "StatefulPartitionedCall/Generator/decoder_up_adaresblock_0/adain_0/moments/SquaredDifference", "op": "SquaredDifference", "input": ["StatefulPartitionedCall/Generator/decoder_up_adaresblock_0/adain_0/moments/mean", "StatefulPartitionedCall/Generator/decoder_up_adaresblock_1/truediv"], "attr": {"T": {"type": "DT_FLOAT"}}}, {"name": "StatefulPartitionedCall/Generator/decoder_up_adaresblock_0/adain_0/sub", "op": "Sub", "input": ["StatefulPartitionedCall/Generator/decoder_up_adaresblock_1/truediv", "StatefulPartitionedCall/Generator/decoder_up_adaresblock_0/adain_0/moments/mean"], "attr": {"T": {"type": "DT_FLOAT"}}}, {"name": "StatefulPartitionedCall/Generator/decoder_up_adaresblock_0/adain_0/moments/variance", "op": "Mean", "input": ["StatefulPartitionedCall/Generator/decoder_up_adaresblock_0/adain_0/moments/SquaredDifference", "StatefulPartitionedCall/Generator/decoder_up_adaresblock_0/adain_0/moments/mean/reduction_indices"], "attr": {"T": {"type": "DT_FLOAT"}, "Tidx": {"type": "DT_INT32"}, "keep_dims": {"b": true}}}, {"name": "StatefulPartitionedCall/Generator/decoder_up_adaresblock_0/adain_0/add", "op": "AddV2", "input": ["StatefulPartitionedCall/Generator/decoder_up_adaresblock_0/adain_0/moments/variance", "StatefulPartitionedCall/Generator/sequential/ins_norm/batchnorm/add/y"], "attr": {"T": {"type": "DT_FLOAT"}}}, {"name": "StatefulPartitionedCall/Generator/decoder_up_adaresblock_0/adain_0/Sqrt", "op": "Rsqrt", "input": ["StatefulPartitionedCall/Generator/decoder_up_adaresblock_0/adain_0/add"], "attr": {"T": {"type": "DT_FLOAT"}}}, {"name": "StatefulPartitionedCall/Generator/decoder_up_adaresblock_0/adain_0/truediv", "op": "Mul", "input": ["StatefulPartitionedCall/Generator/decoder_up_adaresblock_0/adain_0/Sqrt", "StatefulPartitionedCall/Generator/decoder_up_adaresblock_0/adain_0/sub"], "attr": {"T": {"type": "DT_FLOAT"}}}, {"name": "StatefulPartitionedCall/Generator/decoder_up_adaresblock_0/adain_0/mul", "op": "Mul", "input": ["StatefulPartitionedCall/Generator/decoder_up_adaresblock_0/adain_0/add_1", "StatefulPartitionedCall/Generator/decoder_up_adaresblock_0/adain_0/truediv"], "attr": {"T": {"type": "DT_FLOAT"}}}, {"name": "StatefulPartitionedCall/Generator/decoder_up_adaresblock_0/adain_0/add_2", "op": "AddV2", "input": ["StatefulPartitionedCall/Generator/decoder_up_adaresblock_0/adain_0/Reshape_1", "StatefulPartitionedCall/Generator/decoder_up_adaresblock_0/adain_0/mul"], "attr": {"T": {"type": "DT_FLOAT"}}}, {"name": "StatefulPartitionedCall/Generator/decoder_up_adaresblock_0/leaky_relu/LeakyRelu", "op": "LeakyRelu", "input": ["StatefulPartitionedCall/Generator/decoder_up_adaresblock_0/adain_0/add_2"], "attr": {"alpha": {"f": 0.2}, "T": {"type": "DT_FLOAT"}}}, {"name": "StatefulPartitionedCall/Generator/decoder_up_adaresblock_0/resize/ResizeNearestNeighbor", "op": "ResizeNearestNeighbor", "input": ["StatefulPartitionedCall/Generator/decoder_up_adaresblock_0/leaky_relu/LeakyRelu", "StatefulPartitionedCall/Generator/decoder_up_adaresblock_0/resize/size"], "attr": {"T": {"type": "DT_FLOAT"}, "align_corners": {"b": false}, "half_pixel_centers": {"b": true}}}, {"name": "StatefulPartitionedCall/Generator/decoder_up_adaresblock_0/conv_0/Pad", "op": "Pad", "input": ["StatefulPartitionedCall/Generator/decoder_up_adaresblock_0/resize/ResizeNearestNeighbor", "StatefulPartitionedCall/Generator/decoder_up_adaresblock_0/conv_0/Pad/paddings"], "attr": {"T": {"type": "DT_FLOAT"}, "Tpaddings": {"type": "DT_INT32"}}}, {"name": "StatefulPartitionedCall/Generator/decoder_up_adaresblock_0/conv_0/conv_0/BiasAdd", "op": "_FusedConv2D", "input": ["StatefulPartitionedCall/Generator/decoder_up_adaresblock_0/conv_0/Pad", "Func/StatefulPartitionedCall/input/_122", "Func/StatefulPartitionedCall/input/_123"], "device": "/device:CPU:0", "attr": {"dilations": {"list": {"i": ["1", "1", "1", "1"]}}, "T": {"type": "DT_FLOAT"}, "strides": {"list": {"i": ["1", "1", "1", "1"]}}, "data_format": {"s": "TkhXQw=="}, "use_cudnn_on_gpu": {"b": true}, "explicit_paddings": {"list": {}}, "num_args": {"i": "1"}, "epsilon": {"f": 0.0}, "padding": {"s": "VkFMSUQ="}, "fused_ops": {"list": {"s": ["Qmlhc0FkZA=="]}}}}, {"name": "StatefulPartitionedCall/Generator/decoder_up_adaresblock_0/adain_1/moments/mean", "op": "Mean", "input": ["StatefulPartitionedCall/Generator/decoder_up_adaresblock_0/conv_0/conv_0/BiasAdd", "StatefulPartitionedCall/Generator/decoder_up_adaresblock_0/adain_0/moments/mean/reduction_indices"], "attr": {"Tidx": {"type": "DT_INT32"}, "keep_dims": {"b": true}, "T": {"type": "DT_FLOAT"}}}, {"name": "StatefulPartitionedCall/Generator/decoder_up_adaresblock_0/adain_1/moments/SquaredDifference", "op": "SquaredDifference", "input": ["StatefulPartitionedCall/Generator/decoder_up_adaresblock_0/adain_1/moments/mean", "StatefulPartitionedCall/Generator/decoder_up_adaresblock_0/conv_0/conv_0/BiasAdd"], "attr": {"T": {"type": "DT_FLOAT"}}}, {"name": "StatefulPartitionedCall/Generator/decoder_up_adaresblock_0/adain_1/sub", "op": "Sub", "input": ["StatefulPartitionedCall/Generator/decoder_up_adaresblock_0/conv_0/conv_0/BiasAdd", "StatefulPartitionedCall/Generator/decoder_up_adaresblock_0/adain_1/moments/mean"], "attr": {"T": {"type": "DT_FLOAT"}}}, {"name": "StatefulPartitionedCall/Generator/decoder_up_adaresblock_0/adain_1/moments/variance", "op": "Mean", "input": ["StatefulPartitionedCall/Generator/decoder_up_adaresblock_0/adain_1/moments/SquaredDifference", "StatefulPartitionedCall/Generator/decoder_up_adaresblock_0/adain_0/moments/mean/reduction_indices"], "attr": {"Tidx": {"type": "DT_INT32"}, "keep_dims": {"b": true}, "T": {"type": "DT_FLOAT"}}}, {"name": "StatefulPartitionedCall/Generator/decoder_up_adaresblock_0/adain_1/add", "op": "AddV2", "input": ["StatefulPartitionedCall/Generator/decoder_up_adaresblock_0/adain_1/moments/variance", "StatefulPartitionedCall/Generator/sequential/ins_norm/batchnorm/add/y"], "attr": {"T": {"type": "DT_FLOAT"}}}, {"name": "StatefulPartitionedCall/Generator/decoder_up_adaresblock_0/adain_1/Sqrt", "op": "Rsqrt", "input": ["StatefulPartitionedCall/Generator/decoder_up_adaresblock_0/adain_1/add"], "attr": {"T": {"type": "DT_FLOAT"}}}, {"name": "StatefulPartitionedCall/Generator/decoder_up_adaresblock_0/adain_1/truediv", "op": "Mul", "input": ["StatefulPartitionedCall/Generator/decoder_up_adaresblock_0/adain_1/Sqrt", "StatefulPartitionedCall/Generator/decoder_up_adaresblock_0/adain_1/sub"], "attr": {"T": {"type": "DT_FLOAT"}}}, {"name": "StatefulPartitionedCall/Generator/decoder_up_adaresblock_0/adain_1/mul", "op": "Mul", "input": ["StatefulPartitionedCall/Generator/decoder_up_adaresblock_0/adain_1/add_1", "StatefulPartitionedCall/Generator/decoder_up_adaresblock_0/adain_1/truediv"], "attr": {"T": {"type": "DT_FLOAT"}}}, {"name": "StatefulPartitionedCall/Generator/decoder_up_adaresblock_0/adain_1/add_2", "op": "AddV2", "input": ["StatefulPartitionedCall/Generator/decoder_up_adaresblock_0/adain_1/Reshape_1", "StatefulPartitionedCall/Generator/decoder_up_adaresblock_0/adain_1/mul"], "attr": {"T": {"type": "DT_FLOAT"}}}, {"name": "StatefulPartitionedCall/Generator/decoder_up_adaresblock_0/leaky_relu_1/LeakyRelu", "op": "LeakyRelu", "input": ["StatefulPartitionedCall/Generator/decoder_up_adaresblock_0/adain_1/add_2"], "attr": {"T": {"type": "DT_FLOAT"}, "alpha": {"f": 0.2}}}, {"name": "StatefulPartitionedCall/Generator/decoder_up_adaresblock_0/conv_1/Pad", "op": "Pad", "input": ["StatefulPartitionedCall/Generator/decoder_up_adaresblock_0/leaky_relu_1/LeakyRelu", "StatefulPartitionedCall/Generator/decoder_up_adaresblock_0/conv_0/Pad/paddings"], "attr": {"T": {"type": "DT_FLOAT"}, "Tpaddings": {"type": "DT_INT32"}}}, {"name": "StatefulPartitionedCall/Generator/decoder_up_adaresblock_0/conv_1/conv_1/BiasAdd", "op": "_FusedConv2D", "input": ["StatefulPartitionedCall/Generator/decoder_up_adaresblock_0/conv_1/Pad", "Func/StatefulPartitionedCall/input/_128", "Func/StatefulPartitionedCall/input/_129"], "device": "/device:CPU:0", "attr": {"strides": {"list": {"i": ["1", "1", "1", "1"]}}, "data_format": {"s": "TkhXQw=="}, "explicit_paddings": {"list": {}}, "use_cudnn_on_gpu": {"b": true}, "num_args": {"i": "1"}, "epsilon": {"f": 0.0}, "padding": {"s": "VkFMSUQ="}, "fused_ops": {"list": {"s": ["Qmlhc0FkZA=="]}}, "dilations": {"list": {"i": ["1", "1", "1", "1"]}}, "T": {"type": "DT_FLOAT"}}}, {"name": "StatefulPartitionedCall/Generator/decoder_up_adaresblock_0/add", "op": "AddV2", "input": ["StatefulPartitionedCall/Generator/decoder_up_adaresblock_0/conv_1/conv_1/BiasAdd", "StatefulPartitionedCall/Generator/decoder_up_adaresblock_0/skip_conv/skip_conv/Conv2D"], "attr": {"T": {"type": "DT_FLOAT"}}}, {"name": "StatefulPartitionedCall/Generator/decoder_up_adaresblock_0/truediv", "op": "Mul", "input": ["ConstantFolding/StatefulPartitionedCall/Generator/encoder_down_resblock_0/truediv_recip", "StatefulPartitionedCall/Generator/decoder_up_adaresblock_0/add"], "attr": {"T": {"type": "DT_FLOAT"}}}, {"name": "StatefulPartitionedCall/Generator/sequential/ins_norm/Shape", "op": "Shape", "input": ["StatefulPartitionedCall/Generator/decoder_up_adaresblock_0/truediv"], "attr": {"T": {"type": "DT_FLOAT"}, "out_type": {"type": "DT_INT32"}}}, {"name": "StatefulPartitionedCall/Generator/sequential/ins_norm/strided_slice", "op": "StridedSlice", "input": ["StatefulPartitionedCall/Generator/sequential/ins_norm/Shape", "StatefulPartitionedCall/Generator/sequential/ins_norm/strided_slice/stack", "StatefulPartitionedCall/Generator/sequential/ins_norm/strided_slice/stack_1", "StatefulPartitionedCall/Generator/sequential/ins_norm/strided_slice/stack_1"], "attr": {"ellipsis_mask": {"i": "0"}, "begin_mask": {"i": "0"}, "new_axis_mask": {"i": "0"}, "end_mask": {"i": "0"}, "Index": {"type": "DT_INT32"}, "T": {"type": "DT_INT32"}, "shrink_axis_mask": {"i": "1"}}}, {"name": "StatefulPartitionedCall/Generator/sequential/ins_norm/strided_slice_1", "op": "StridedSlice", "input": ["StatefulPartitionedCall/Generator/sequential/ins_norm/Shape", "StatefulPartitionedCall/Generator/sequential/ins_norm/strided_slice/stack_1", "StatefulPartitionedCall/Generator/sequential/ins_norm/strided_slice_1/stack_1", "StatefulPartitionedCall/Generator/sequential/ins_norm/strided_slice/stack_1"], "attr": {"T": {"type": "DT_INT32"}, "Index": {"type": "DT_INT32"}, "shrink_axis_mask": {"i": "1"}, "ellipsis_mask": {"i": "0"}, "begin_mask": {"i": "0"}, "new_axis_mask": {"i": "0"}, "end_mask": {"i": "0"}}}, {"name": "StatefulPartitionedCall/Generator/sequential/ins_norm/strided_slice_2", "op": "StridedSlice", "input": ["StatefulPartitionedCall/Generator/sequential/ins_norm/Shape", "StatefulPartitionedCall/Generator/sequential/ins_norm/strided_slice_1/stack_1", "StatefulPartitionedCall/Generator/sequential/ins_norm/strided_slice_2/stack_1", "StatefulPartitionedCall/Generator/sequential/ins_norm/strided_slice/stack_1"], "attr": {"shrink_axis_mask": {"i": "1"}, "begin_mask": {"i": "0"}, "ellipsis_mask": {"i": "0"}, "new_axis_mask": {"i": "0"}, "end_mask": {"i": "0"}, "Index": {"type": "DT_INT32"}, "T": {"type": "DT_INT32"}}}, {"name": "StatefulPartitionedCall/Generator/sequential/ins_norm/stack", "op": "Pack", "input": ["StatefulPartitionedCall/Generator/sequential/ins_norm/strided_slice", "StatefulPartitionedCall/Generator/sequential/ins_norm/strided_slice_1", "StatefulPartitionedCall/Generator/sequential/ins_norm/strided_slice_2", "StatefulPartitionedCall/Generator/sequential/ins_norm/stack/3", "StatefulPartitionedCall/Generator/sequential/ins_norm/stack/4"], "attr": {"T": {"type": "DT_INT32"}, "axis": {"i": "0"}, "N": {"i": "5"}}}, {"name": "StatefulPartitionedCall/Generator/sequential/ins_norm/Reshape", "op": "Reshape", "input": ["StatefulPartitionedCall/Generator/decoder_up_adaresblock_0/truediv", "StatefulPartitionedCall/Generator/sequential/ins_norm/stack"], "attr": {"T": {"type": "DT_FLOAT"}, "Tshape": {"type": "DT_INT32"}}}, {"name": "StatefulPartitionedCall/Generator/sequential/ins_norm/moments/mean", "op": "Mean", "input": ["StatefulPartitionedCall/Generator/sequential/ins_norm/Reshape", "StatefulPartitionedCall/Generator/sequential/ins_norm/moments/mean/reduction_indices"], "attr": {"T": {"type": "DT_FLOAT"}, "Tidx": {"type": "DT_INT32"}, "keep_dims": {"b": true}}}, {"name": "StatefulPartitionedCall/Generator/sequential/ins_norm/moments/SquaredDifference", "op": "SquaredDifference", "input": ["StatefulPartitionedCall/Generator/sequential/ins_norm/Reshape", "StatefulPartitionedCall/Generator/sequential/ins_norm/moments/mean"], "attr": {"T": {"type": "DT_FLOAT"}}}, {"name": "StatefulPartitionedCall/Generator/sequential/ins_norm/moments/variance", "op": "Mean", "input": ["StatefulPartitionedCall/Generator/sequential/ins_norm/moments/SquaredDifference", "StatefulPartitionedCall/Generator/sequential/ins_norm/moments/mean/reduction_indices"], "attr": {"Tidx": {"type": "DT_INT32"}, "keep_dims": {"b": true}, "T": {"type": "DT_FLOAT"}}}, {"name": "StatefulPartitionedCall/Generator/sequential/ins_norm/batchnorm/add", "op": "AddV2", "input": ["StatefulPartitionedCall/Generator/sequential/ins_norm/batchnorm/add/y", "StatefulPartitionedCall/Generator/sequential/ins_norm/moments/variance"], "attr": {"T": {"type": "DT_FLOAT"}}}, {"name": "StatefulPartitionedCall/Generator/sequential/ins_norm/batchnorm/Rsqrt", "op": "Rsqrt", "input": ["StatefulPartitionedCall/Generator/sequential/ins_norm/batchnorm/add"], "attr": {"T": {"type": "DT_FLOAT"}}}, {"name": "StatefulPartitionedCall/Generator/sequential/ins_norm/batchnorm/mul", "op": "Mul", "input": ["StatefulPartitionedCall/Generator/sequential/ins_norm/Reshape_1", "StatefulPartitionedCall/Generator/sequential/ins_norm/batchnorm/Rsqrt"], "attr": {"T": {"type": "DT_FLOAT"}}}, {"name": "StatefulPartitionedCall/Generator/sequential/ins_norm/batchnorm/mul_2", "op": "Mul", "input": ["StatefulPartitionedCall/Generator/sequential/ins_norm/batchnorm/mul", "StatefulPartitionedCall/Generator/sequential/ins_norm/moments/mean"], "attr": {"T": {"type": "DT_FLOAT"}}}, {"name": "StatefulPartitionedCall/Generator/sequential/ins_norm/batchnorm/mul_1", "op": "Mul", "input": ["StatefulPartitionedCall/Generator/sequential/ins_norm/Reshape", "StatefulPartitionedCall/Generator/sequential/ins_norm/batchnorm/mul"], "attr": {"T": {"type": "DT_FLOAT"}}}, {"name": "StatefulPartitionedCall/Generator/sequential/ins_norm/batchnorm/sub", "op": "Sub", "input": ["StatefulPartitionedCall/Generator/sequential/ins_norm/Reshape_2", "StatefulPartitionedCall/Generator/sequential/ins_norm/batchnorm/mul_2"], "attr": {"T": {"type": "DT_FLOAT"}}}, {"name": "StatefulPartitionedCall/Generator/sequential/ins_norm/batchnorm/add_1", "op": "AddV2", "input": ["StatefulPartitionedCall/Generator/sequential/ins_norm/batchnorm/mul_1", "StatefulPartitionedCall/Generator/sequential/ins_norm/batchnorm/sub"], "attr": {"T": {"type": "DT_FLOAT"}}}, {"name": "StatefulPartitionedCall/Generator/sequential/ins_norm/Reshape_3", "op": "Reshape", "input": ["StatefulPartitionedCall/Generator/sequential/ins_norm/batchnorm/add_1", "StatefulPartitionedCall/Generator/sequential/ins_norm/Shape"], "attr": {"T": {"type": "DT_FLOAT"}, "Tshape": {"type": "DT_INT32"}}}, {"name": "StatefulPartitionedCall/Generator/sequential/leaky_relu/LeakyRelu", "op": "LeakyRelu", "input": ["StatefulPartitionedCall/Generator/sequential/ins_norm/Reshape_3"], "attr": {"T": {"type": "DT_FLOAT"}, "alpha": {"f": 0.2}}}, {"name": "StatefulPartitionedCall/Generator/sequential/to_rgb/to_rgb/BiasAdd", "op": "_FusedConv2D", "input": ["StatefulPartitionedCall/Generator/sequential/leaky_relu/LeakyRelu", "Func/StatefulPartitionedCall/input/_133", "Func/StatefulPartitionedCall/input/_134"], "device": "/device:CPU:0", "attr": {"dilations": {"list": {"i": ["1", "1", "1", "1"]}}, "T": {"type": "DT_FLOAT"}, "strides": {"list": {"i": ["1", "1", "1", "1"]}}, "data_format": {"s": "TkhXQw=="}, "use_cudnn_on_gpu": {"b": true}, "explicit_paddings": {"list": {}}, "num_args": {"i": "1"}, "epsilon": {"f": 0.0}, "padding": {"s": "VkFMSUQ="}, "fused_ops": {"list": {"s": ["Qmlhc0FkZA=="]}}}}, {"name": "Identity", "op": "Identity", "input": ["StatefulPartitionedCall/Generator/sequential/to_rgb/to_rgb/BiasAdd"], "attr": {"T": {"type": "DT_FLOAT"}}}], "library": {}, "versions": {"producer": 175}}, "weightsManifest": [{"paths": ["group1-shard1of33.bin", "group1-shard2of33.bin", "group1-shard3of33.bin", "group1-shard4of33.bin", "group1-shard5of33.bin", "group1-shard6of33.bin", "group1-shard7of33.bin", "group1-shard8of33.bin", "group1-shard9of33.bin", "group1-shard10of33.bin", "group1-shard11of33.bin", "group1-shard12of33.bin", "group1-shard13of33.bin", "group1-shard14of33.bin", "group1-shard15of33.bin", "group1-shard16of33.bin", "group1-shard17of33.bin", "group1-shard18of33.bin", "group1-shard19of33.bin", "group1-shard20of33.bin", "group1-shard21of33.bin", "group1-shard22of33.bin", "group1-shard23of33.bin", "group1-shard24of33.bin", "group1-shard25of33.bin", "group1-shard26of33.bin", "group1-shard27of33.bin", "group1-shard28of33.bin", "group1-shard29of33.bin", "group1-shard30of33.bin", "group1-shard31of33.bin", "group1-shard32of33.bin", "group1-shard33of33.bin"], "weights": [{"name": "StatefulPartitionedCall/Generator/sequential/ins_norm/Reshape_2", "shape": [1, 1, 1, 64, 1], "dtype": "float32"}, {"name": "StatefulPartitionedCall/Generator/sequential/ins_norm/Reshape_1", "shape": [1, 1, 1, 64, 1], "dtype": "float32"}, {"name": "Func/StatefulPartitionedCall/input/_126", "shape": [64, 64], "dtype": "float32"}, {"name": "Func/StatefulPartitionedCall/input/_127", "shape": [64], "dtype": "float32"}, {"name": "Func/StatefulPartitionedCall/input/_124", "shape": [64, 64], "dtype": "float32"}, {"name": "Func/StatefulPartitionedCall/input/_125", "shape": [64], "dtype": "float32"}, {"name": "StatefulPartitionedCall/Generator/decoder_up_adaresblock_0/adain_1/Reshape/shape", "shape": [4], "dtype": "int32"}, {"name": "Func/StatefulPartitionedCall/input/_120", "shape": [64, 128], "dtype": "float32"}, {"name": "Func/StatefulPartitionedCall/input/_121", "shape": [128], "dtype": "float32"}, {"name": "Func/StatefulPartitionedCall/input/_118", "shape": [64, 128], "dtype": "float32"}, {"name": "Func/StatefulPartitionedCall/input/_119", "shape": [128], "dtype": "float32"}, {"name": "Func/StatefulPartitionedCall/input/_122", "shape": [3, 3, 128, 64], "dtype": "float32"}, {"name": "Func/StatefulPartitionedCall/input/_123", "shape": [64], "dtype": "float32"}, {"name": "Func/StatefulPartitionedCall/input/_128", "shape": [3, 3, 64, 64], "dtype": "float32"}, {"name": "Func/StatefulPartitionedCall/input/_129", "shape": [64], "dtype": "float32"}, {"name": "Func/StatefulPartitionedCall/input/_113", "shape": [64, 128], "dtype": "float32"}, {"name": "Func/StatefulPartitionedCall/input/_114", "shape": [128], "dtype": "float32"}, {"name": "Func/StatefulPartitionedCall/input/_111", "shape": [64, 128], "dtype": "float32"}, {"name": "Func/StatefulPartitionedCall/input/_112", "shape": [128], "dtype": "float32"}, {"name": "StatefulPartitionedCall/Generator/decoder_up_adaresblock_0/adain_0/Reshape/shape", "shape": [4], "dtype": "int32"}, {"name": "Func/StatefulPartitionedCall/input/_107", "shape": [64, 256], "dtype": "float32"}, {"name": "Func/StatefulPartitionedCall/input/_108", "shape": [256], "dtype": "float32"}, {"name": "Func/StatefulPartitionedCall/input/_105", "shape": [64, 256], "dtype": "float32"}, {"name": "Func/StatefulPartitionedCall/input/_106", "shape": [256], "dtype": "float32"}, {"name": "Func/StatefulPartitionedCall/input/_109", "shape": [3, 3, 256, 128], "dtype": "float32"}, {"name": "Func/StatefulPartitionedCall/input/_110", "shape": [128], "dtype": "float32"}, {"name": "Func/StatefulPartitionedCall/input/_115", "shape": [3, 3, 128, 128], "dtype": "float32"}, {"name": "Func/StatefulPartitionedCall/input/_116", "shape": [128], "dtype": "float32"}, {"name": "Func/StatefulPartitionedCall/input/_100", "shape": [64, 256], "dtype": "float32"}, {"name": "Func/StatefulPartitionedCall/input/_101", "shape": [256], "dtype": "float32"}, {"name": "Func/StatefulPartitionedCall/input/_98", "shape": [64, 256], "dtype": "float32"}, {"name": "Func/StatefulPartitionedCall/input/_99", "shape": [256], "dtype": "float32"}, {"name": "StatefulPartitionedCall/Generator/decoder_up_adaresblock_1/adain_0/Reshape/shape", "shape": [4], "dtype": "int32"}, {"name": "Func/StatefulPartitionedCall/input/_94", "shape": [64, 512], "dtype": "float32"}, {"name": "Func/StatefulPartitionedCall/input/_95", "shape": [512], "dtype": "float32"}, {"name": "Func/StatefulPartitionedCall/input/_92", "shape": [64, 512], "dtype": "float32"}, {"name": "Func/StatefulPartitionedCall/input/_93", "shape": [512], "dtype": "float32"}, {"name": "Func/StatefulPartitionedCall/input/_96", "shape": [3, 3, 512, 256], "dtype": "float32"}, {"name": "Func/StatefulPartitionedCall/input/_97", "shape": [256], "dtype": "float32"}, {"name": "Func/StatefulPartitionedCall/input/_102", "shape": [3, 3, 256, 256], "dtype": "float32"}, {"name": "Func/StatefulPartitionedCall/input/_103", "shape": [256], "dtype": "float32"}, {"name": "Func/StatefulPartitionedCall/input/_88", "shape": [64, 512], "dtype": "float32"}, {"name": "Func/StatefulPartitionedCall/input/_89", "shape": [512], "dtype": "float32"}, {"name": "Func/StatefulPartitionedCall/input/_86", "shape": [64, 512], "dtype": "float32"}, {"name": "Func/StatefulPartitionedCall/input/_87", "shape": [512], "dtype": "float32"}, {"name": "Func/StatefulPartitionedCall/input/_82", "shape": [64, 512], "dtype": "float32"}, {"name": "Func/StatefulPartitionedCall/input/_83", "shape": [512], "dtype": "float32"}, {"name": "Func/StatefulPartitionedCall/input/_80", "shape": [64, 512], "dtype": "float32"}, {"name": "Func/StatefulPartitionedCall/input/_81", "shape": [512], "dtype": "float32"}, {"name": "Func/StatefulPartitionedCall/input/_84", "shape": [3, 3, 512, 512], "dtype": "float32"}, {"name": "Func/StatefulPartitionedCall/input/_85", "shape": [512], "dtype": "float32"}, {"name": "Func/StatefulPartitionedCall/input/_90", "shape": [3, 3, 512, 512], "dtype": "float32"}, {"name": "Func/StatefulPartitionedCall/input/_91", "shape": [512], "dtype": "float32"}, {"name": "Func/StatefulPartitionedCall/input/_76", "shape": [64, 512], "dtype": "float32"}, {"name": "Func/StatefulPartitionedCall/input/_77", "shape": [512], "dtype": "float32"}, {"name": "Func/StatefulPartitionedCall/input/_74", "shape": [64, 512], "dtype": "float32"}, {"name": "Func/StatefulPartitionedCall/input/_75", "shape": [512], "dtype": "float32"}, {"name": "Func/StatefulPartitionedCall/input/_70", "shape": [64, 512], "dtype": "float32"}, {"name": "Func/StatefulPartitionedCall/input/_71", "shape": [512], "dtype": "float32"}, {"name": "Func/StatefulPartitionedCall/input/_68", "shape": [64, 512], "dtype": "float32"}, {"name": "Func/StatefulPartitionedCall/input/_69", "shape": [512], "dtype": "float32"}, {"name": "Func/StatefulPartitionedCall/input/_72", "shape": [3, 3, 512, 512], "dtype": "float32"}, {"name": "Func/StatefulPartitionedCall/input/_73", "shape": [512], "dtype": "float32"}, {"name": "Func/StatefulPartitionedCall/input/_78", "shape": [3, 3, 512, 512], "dtype": "float32"}, {"name": "Func/StatefulPartitionedCall/input/_79", "shape": [512], "dtype": "float32"}, {"name": "Func/StatefulPartitionedCall/input/_64", "shape": [64, 512], "dtype": "float32"}, {"name": "Func/StatefulPartitionedCall/input/_65", "shape": [512], "dtype": "float32"}, {"name": "Func/StatefulPartitionedCall/input/_62", "shape": [64, 512], "dtype": "float32"}, {"name": "Func/StatefulPartitionedCall/input/_63", "shape": [512], "dtype": "float32"}, {"name": "Func/StatefulPartitionedCall/input/_58", "shape": [64, 512], "dtype": "float32"}, {"name": "Func/StatefulPartitionedCall/input/_59", "shape": [512], "dtype": "float32"}, {"name": "StatefulPartitionedCall/Generator/decoder_up_adaresblock_0/adain_1/FullyConnected/flatten/Const", "shape": [2], "dtype": "int32"}, {"name": "StatefulPartitionedCall/Generator/decoder_up_adaresblock_0/resize/size", "shape": [2], "dtype": "int32"}, {"name": "Func/StatefulPartitionedCall/input/_134", "shape": [3], "dtype": "float32"}, {"name": "Func/StatefulPartitionedCall/input/_56", "shape": [64, 512], "dtype": "float32"}, {"name": "Func/StatefulPartitionedCall/input/_130", "shape": [1, 1, 128, 64], "dtype": "float32"}, {"name": "Func/StatefulPartitionedCall/input/_57", "shape": [512], "dtype": "float32"}, {"name": "StatefulPartitionedCall/Generator/decoder_up_adaresblock_2/adain_0/Reshape/shape", "shape": [4], "dtype": "int32"}, {"name": "StatefulPartitionedCall/Generator/decoder_up_adaresblock_0/adain_1/add_1/x", "shape": [], "dtype": "float32"}, {"name": "Func/StatefulPartitionedCall/input/_60", "shape": [3, 3, 512, 512], "dtype": "float32"}, {"name": "Func/StatefulPartitionedCall/input/_61", "shape": [512], "dtype": "float32"}, {"name": "StatefulPartitionedCall/Generator/decoder_up_adaresblock_0/adain_0/moments/mean/reduction_indices", "shape": [2], "dtype": "int32"}, {"name": "Func/StatefulPartitionedCall/input/_66", "shape": [3, 3, 512, 512], "dtype": "float32"}, {"name": "Func/StatefulPartitionedCall/input/_67", "shape": [512], "dtype": "float32"}, {"name": "StatefulPartitionedCall/Generator/encoder_bottleneck_resblock_1/instance_norm_1/Reshape_2", "shape": [1, 1, 1, 512, 1], "dtype": "float32"}, {"name": "StatefulPartitionedCall/Generator/encoder_bottleneck_resblock_1/instance_norm_1/Reshape_1", "shape": [1, 1, 1, 512, 1], "dtype": "float32"}, {"name": "StatefulPartitionedCall/Generator/encoder_bottleneck_resblock_1/instance_norm_0/Reshape_2", "shape": [1, 1, 1, 512, 1], "dtype": "float32"}, {"name": "StatefulPartitionedCall/Generator/encoder_bottleneck_resblock_1/instance_norm_0/Reshape_1", "shape": [1, 1, 1, 512, 1], "dtype": "float32"}, {"name": "StatefulPartitionedCall/Generator/encoder_bottleneck_resblock_0/instance_norm_1/Reshape_2", "shape": [1, 1, 1, 512, 1], "dtype": "float32"}, {"name": "StatefulPartitionedCall/Generator/encoder_bottleneck_resblock_0/instance_norm_1/Reshape_1", "shape": [1, 1, 1, 512, 1], "dtype": "float32"}, {"name": "StatefulPartitionedCall/Generator/encoder_bottleneck_resblock_0/instance_norm_0/Reshape_2", "shape": [1, 1, 1, 512, 1], "dtype": "float32"}, {"name": "StatefulPartitionedCall/Generator/encoder_bottleneck_resblock_0/instance_norm_0/Reshape_1", "shape": [1, 1, 1, 512, 1], "dtype": "float32"}, {"name": "Func/StatefulPartitionedCall/input/_42", "shape": [3, 3, 512, 512], "dtype": "float32"}, {"name": "Func/StatefulPartitionedCall/input/_43", "shape": [512], "dtype": "float32"}, {"name": "Func/StatefulPartitionedCall/input/_46", "shape": [3, 3, 512, 512], "dtype": "float32"}, {"name": "Func/StatefulPartitionedCall/input/_47", "shape": [512], "dtype": "float32"}, {"name": "StatefulPartitionedCall/Generator/encoder_down_resblock_3/instance_norm_1/Reshape_2", "shape": [1, 1, 1, 512, 1], "dtype": "float32"}, {"name": "StatefulPartitionedCall/Generator/encoder_down_resblock_3/instance_norm_1/Reshape_1", "shape": [1, 1, 1, 512, 1], "dtype": "float32"}, {"name": "StatefulPartitionedCall/Generator/encoder_down_resblock_3/instance_norm_0/Reshape_2", "shape": [1, 1, 1, 512, 1], "dtype": "float32"}, {"name": "StatefulPartitionedCall/Generator/encoder_down_resblock_3/instance_norm_0/Reshape_1", "shape": [1, 1, 1, 512, 1], "dtype": "float32"}, {"name": "StatefulPartitionedCall/Generator/encoder_bottleneck_resblock_1/instance_norm_1/stack/3", "shape": [], "dtype": "int32"}, {"name": "Func/StatefulPartitionedCall/input/_31", "shape": [1, 1, 256, 512], "dtype": "float32"}, {"name": "StatefulPartitionedCall/Generator/encoder_down_resblock_2/instance_norm_1/Reshape_2", "shape": [1, 1, 1, 256, 1], "dtype": "float32"}, {"name": "StatefulPartitionedCall/Generator/encoder_down_resblock_2/instance_norm_1/Reshape_1", "shape": [1, 1, 1, 256, 1], "dtype": "float32"}, {"name": "StatefulPartitionedCall/Generator/encoder_down_resblock_2/instance_norm_0/Reshape_2", "shape": [1, 1, 1, 256, 1], "dtype": "float32"}, {"name": "StatefulPartitionedCall/Generator/encoder_down_resblock_2/instance_norm_0/Reshape_1", "shape": [1, 1, 1, 256, 1], "dtype": "float32"}, {"name": "StatefulPartitionedCall/Generator/encoder_down_resblock_2/instance_norm_1/stack/3", "shape": [], "dtype": "int32"}, {"name": "Func/StatefulPartitionedCall/input/_22", "shape": [1, 1, 128, 256], "dtype": "float32"}, {"name": "StatefulPartitionedCall/Generator/encoder_down_resblock_1/instance_norm_1/Reshape_2", "shape": [1, 1, 1, 128, 1], "dtype": "float32"}, {"name": "StatefulPartitionedCall/Generator/encoder_down_resblock_1/instance_norm_1/Reshape_1", "shape": [1, 1, 1, 128, 1], "dtype": "float32"}, {"name": "StatefulPartitionedCall/Generator/encoder_down_resblock_1/instance_norm_0/Reshape_2", "shape": [1, 1, 1, 128, 1], "dtype": "float32"}, {"name": "StatefulPartitionedCall/Generator/encoder_down_resblock_1/instance_norm_0/Reshape_1", "shape": [1, 1, 1, 128, 1], "dtype": "float32"}, {"name": "StatefulPartitionedCall/Generator/encoder_down_resblock_1/instance_norm_1/stack/3", "shape": [], "dtype": "int32"}, {"name": "ConstantFolding/StatefulPartitionedCall/Generator/encoder_down_resblock_0/truediv_recip", "shape": [], "dtype": "float32"}, {"name": "Func/StatefulPartitionedCall/input/_13", "shape": [1, 1, 64, 128], "dtype": "float32"}, {"name": "StatefulPartitionedCall/Generator/encoder_down_resblock_0/instance_norm_1/Reshape_2", "shape": [1, 1, 1, 64, 1], "dtype": "float32"}, {"name": "StatefulPartitionedCall/Generator/encoder_down_resblock_0/instance_norm_1/Reshape_1", "shape": [1, 1, 1, 64, 1], "dtype": "float32"}, {"name": "StatefulPartitionedCall/Generator/encoder_down_resblock_0/instance_norm_0/Reshape_2", "shape": [1, 1, 1, 64, 1], "dtype": "float32"}, {"name": "StatefulPartitionedCall/Generator/encoder_down_resblock_0/instance_norm_0/Reshape_1", "shape": [1, 1, 1, 64, 1], "dtype": "float32"}, {"name": "StatefulPartitionedCall/Generator/sequential/ins_norm/batchnorm/add/y", "shape": [], "dtype": "float32"}, {"name": "StatefulPartitionedCall/Generator/sequential/ins_norm/strided_slice/stack", "shape": [1], "dtype": "int32"}, {"name": "StatefulPartitionedCall/Generator/sequential/ins_norm/strided_slice_1/stack_1", "shape": [1], "dtype": "int32"}, {"name": "StatefulPartitionedCall/Generator/sequential/ins_norm/strided_slice_2/stack_1", "shape": [1], "dtype": "int32"}, {"name": "StatefulPartitionedCall/Generator/sequential/ins_norm/strided_slice/stack_1", "shape": [1], "dtype": "int32"}, {"name": "StatefulPartitionedCall/Generator/sequential/ins_norm/stack/3", "shape": [], "dtype": "int32"}, {"name": "StatefulPartitionedCall/Generator/sequential/ins_norm/stack/4", "shape": [], "dtype": "int32"}, {"name": "StatefulPartitionedCall/Generator/sequential/ins_norm/moments/mean/reduction_indices", "shape": [3], "dtype": "int32"}, {"name": "Func/StatefulPartitionedCall/input/_3", "shape": [3, 3, 3, 64], "dtype": "float32"}, {"name": "Func/StatefulPartitionedCall/input/_4", "shape": [64], "dtype": "float32"}, {"name": "Func/StatefulPartitionedCall/input/_7", "shape": [3, 3, 64, 64], "dtype": "float32"}, {"name": "Func/StatefulPartitionedCall/input/_8", "shape": [64], "dtype": "float32"}, {"name": "Func/StatefulPartitionedCall/input/_11", "shape": [3, 3, 64, 128], "dtype": "float32"}, {"name": "Func/StatefulPartitionedCall/input/_12", "shape": [128], "dtype": "float32"}, {"name": "Func/StatefulPartitionedCall/input/_16", "shape": [3, 3, 128, 128], "dtype": "float32"}, {"name": "Func/StatefulPartitionedCall/input/_17", "shape": [128], "dtype": "float32"}, {"name": "Func/StatefulPartitionedCall/input/_20", "shape": [3, 3, 128, 256], "dtype": "float32"}, {"name": "Func/StatefulPartitionedCall/input/_21", "shape": [256], "dtype": "float32"}, {"name": "Func/StatefulPartitionedCall/input/_25", "shape": [3, 3, 256, 256], "dtype": "float32"}, {"name": "Func/StatefulPartitionedCall/input/_26", "shape": [256], "dtype": "float32"}, {"name": "Func/StatefulPartitionedCall/input/_29", "shape": [3, 3, 256, 512], "dtype": "float32"}, {"name": "Func/StatefulPartitionedCall/input/_30", "shape": [512], "dtype": "float32"}, {"name": "Func/StatefulPartitionedCall/input/_34", "shape": [3, 3, 512, 512], "dtype": "float32"}, {"name": "Func/StatefulPartitionedCall/input/_35", "shape": [512], "dtype": "float32"}, {"name": "Func/StatefulPartitionedCall/input/_38", "shape": [3, 3, 512, 512], "dtype": "float32"}, {"name": "Func/StatefulPartitionedCall/input/_39", "shape": [512], "dtype": "float32"}, {"name": "Func/StatefulPartitionedCall/input/_50", "shape": [3, 3, 512, 512], "dtype": "float32"}, {"name": "Func/StatefulPartitionedCall/input/_51", "shape": [512], "dtype": "float32"}, {"name": "StatefulPartitionedCall/Generator/decoder_up_adaresblock_0/conv_0/Pad/paddings", "shape": [4, 2], "dtype": "int32"}, {"name": "Func/StatefulPartitionedCall/input/_54", "shape": [3, 3, 512, 512], "dtype": "float32"}, {"name": "Func/StatefulPartitionedCall/input/_55", "shape": [512], "dtype": "float32"}, {"name": "StatefulPartitionedCall/Generator/decoder_up_adaresblock_3/resize/size", "shape": [2], "dtype": "int32"}, {"name": "StatefulPartitionedCall/Generator/decoder_up_adaresblock_2/resize/size", "shape": [2], "dtype": "int32"}, {"name": "Func/StatefulPartitionedCall/input/_104", "shape": [1, 1, 512, 256], "dtype": "float32"}, {"name": "StatefulPartitionedCall/Generator/decoder_up_adaresblock_1/resize/size", "shape": [2], "dtype": "int32"}, {"name": "Func/StatefulPartitionedCall/input/_133", "shape": [1, 1, 64, 3], "dtype": "float32"}, {"name": "Func/StatefulPartitionedCall/input/_117", "shape": [1, 1, 256, 128], "dtype": "float32"}]}]}