{"format": "graph-model", "generatedBy": "2.2.0", "convertedBy": "TensorFlow.js Converter v2.6.0", "userDefinedMetadata": {"signature": {"inputs": {"input_2:0": {"name": "input_2:0", "dtype": "DT_FLOAT", "tensorShape": {"dim": [{"size": "-1"}, {"size": "64"}]}}, "input_1:0": {"name": "input_1:0", "dtype": "DT_FLOAT", "tensorShape": {"dim": [{"size": "-1"}, {"size": "256"}, {"size": "256"}, {"size": "3"}]}}}, "outputs": {"Identity:0": {"name": "Identity:0", "dtype": "DT_FLOAT", "tensorShape": {"dim": [{"size": "-1"}, {"size": "256"}, {"size": "256"}, {"size": "3"}]}}}}}, "modelTopology": {"node": [{"name": "input_1", "op": "Placeholder", "attr": {"shape": {"shape": {"dim": [{"size": "-1"}, {"size": "256"}, {"size": "256"}, {"size": "3"}]}}, "dtype": {"type": "DT_FLOAT"}}}, {"name": "input_2", "op": "Placeholder", "attr": {"dtype": {"type": "DT_FLOAT"}, "shape": {"shape": {"dim": [{"size": "-1"}, {"size": "64"}]}}}}, {"name": "Func/StatefulPartitionedCall/input_control_node/_0", "op": "NoOp", "input": ["^input_1", "^input_2"]}, {"name": "StatefulPartitionedCall/Generator/sequential/ins_norm/Reshape_2", "op": "Const", "input": ["^Func/StatefulPartitionedCall/input_control_node/_0"], "attr": {"value": {"tensor": {"dtype": "DT_FLOAT", "tensorShape": {"dim": [{"size": "1"}, {"size": "1"}, {"size": "1"}, {"size": "64"}, {"size": "1"}]}}}, "dtype": {"type": "DT_FLOAT"}}}, {"name": "StatefulPartitionedCall/Generator/sequential/ins_norm/Reshape_1", "op": "Const", "input": ["^Func/StatefulPartitionedCall/input_control_node/_0"], "attr": {"dtype": {"type": "DT_FLOAT"}, "value": {"tensor": {"dtype": "DT_FLOAT", "tensorShape": {"dim": [{"size": "1"}, {"size": "1"}, {"size": "1"}, {"size": "64"}, {"size": "1"}]}}}}}, {"name": "Func/StatefulPartitionedCall/input/_126", "op": "Const", "input": ["^Func/StatefulPartitionedCall/input_control_node/_0"], "attr": {"value": {"tensor": {"dtype": "DT_FLOAT", "tensorShape": {"dim": [{"size": "64"}, {"size": "64"}]}}}, "dtype": {"type": "DT_FLOAT"}}}, {"name": "Func/StatefulPartitionedCall/input/_127", "op": "Const", "input": ["^Func/StatefulPartitionedCall/input_control_node/_0"], "attr": {"value": {"tensor": {"dtype": "DT_FLOAT", "tensorShape": {"dim": [{"size": "64"}]}}}, "dtype": {"type": "DT_FLOAT"}}}, {"name": "Func/StatefulPartitionedCall/input/_124", "op": "Const", "input": ["^Func/StatefulPartitionedCall/input_control_node/_0"], "attr": {"value": {"tensor": {"dtype": "DT_FLOAT", "tensorShape": {"dim": [{"size": "64"}, {"size": "64"}]}}}, "dtype": {"type": "DT_FLOAT"}}}, {"name": "Func/StatefulPartitionedCall/input/_125", "op": "Const", "input": ["^Func/StatefulPartitionedCall/input_control_node/_0"], "attr": {"value": {"tensor": {"dtype": "DT_FLOAT", "tensorShape": {"dim": [{"size": "64"}]}}}, "dtype": {"type": "DT_FLOAT"}}}, {"name": "StatefulPartitionedCall/Generator/decoder_up_adaresblock_0/adain_1/Reshape/shape", "op": "Const", "input": ["^Func/StatefulPartitionedCall/input_control_node/_0"], "attr": {"value": {"tensor": {"dtype": "DT_INT32", "tensorShape": {"dim": [{"size": "4"}]}}}, "dtype": {"type": "DT_INT32"}}}, {"name": "Func/StatefulPartitionedCall/input/_120", "op": "Const", "input": ["^Func/StatefulPartitionedCall/input_control_node/_0"], "attr": {"dtype": {"type": "DT_FLOAT"}, "value": {"tensor": {"dtype": "DT_FLOAT", "tensorShape": {"dim": [{"size": "64"}, {"size": "128"}]}}}}}, {"name": "Func/StatefulPartitionedCall/input/_121", "op": "Const", "input": ["^Func/StatefulPartitionedCall/input_control_node/_0"], "attr": {"value": {"tensor": {"dtype": "DT_FLOAT", "tensorShape": {"dim": [{"size": "128"}]}}}, "dtype": {"type": "DT_FLOAT"}}}, {"name": "Func/StatefulPartitionedCall/input/_118", "op": "Const", "input": ["^Func/StatefulPartitionedCall/input_control_node/_0"], "attr": {"value": {"tensor": {"dtype": "DT_FLOAT", "tensorShape": {"dim": [{"size": "64"}, {"size": "128"}]}}}, "dtype": {"type": "DT_FLOAT"}}}, {"name": "Func/StatefulPartitionedCall/input/_119", "op": "Const", "input": ["^Func/StatefulPartitionedCall/input_control_node/_0"], "attr": {"value": {"tensor": {"dtype": "DT_FLOAT", "tensorShape": {"dim": [{"size": "128"}]}}}, "dtype": {"type": "DT_FLOAT"}}}, {"name": "Func/StatefulPartitionedCall/input/_122", "op": "Const", "input": ["^Func/StatefulPartitionedCall/input_control_node/_0"], "attr": {"dtype": {"type": "DT_FLOAT"}, "value": {"tensor": {"dtype": "DT_FLOAT", "tensorShape": {"dim": [{"size": "3"}, {"size": "3"}, {"size": "128"}, {"size": "64"}]}}}}}, {"name": "Func/StatefulPartitionedCall/input/_123", "op": "Const", "input": ["^Func/StatefulPartitionedCall/input_control_node/_0"], "attr": {"value": {"tensor": {"dtype": "DT_FLOAT", "tensorShape": {"dim": [{"size": "64"}]}}}, "dtype": {"type": "DT_FLOAT"}}}, {"name": "Func/StatefulPartitionedCall/input/_128", "op": "Const", "input": ["^Func/StatefulPartitionedCall/input_control_node/_0"], "attr": {"value": {"tensor": {"dtype": "DT_FLOAT", "tensorShape": {"dim": [{"size": "3"}, {"size": "3"}, {"size": "64"}, {"size": "64"}]}}}, "dtype": {"type": "DT_FLOAT"}}}, {"name": "Func/StatefulPartitionedCall/input/_129", "op": "Const", "input": ["^Func/StatefulPartitionedCall/input_control_node/_0"], "attr": {"value": {"tensor": {"dtype": "DT_FLOAT", "tensorShape": {"dim": [{"size": "64"}]}}}, "dtype": {"type": "DT_FLOAT"}}}, {"name": "Func/StatefulPartitionedCall/input/_113", "op": "Const", "input": ["^Func/StatefulPartitionedCall/input_control_node/_0"], "attr": {"value": {"tensor": {"dtype": "DT_FLOAT", "tensorShape": {"dim": [{"size": "64"}, {"size": "128"}]}}}, "dtype": {"type": "DT_FLOAT"}}}, {"name": "Func/StatefulPartitionedCall/input/_114", "op": "Const", "input": ["^Func/StatefulPartitionedCall/input_control_node/_0"], "attr": {"value": {"tensor": {"dtype": "DT_FLOAT", "tensorShape": {"dim": [{"size": "128"}]}}}, "dtype": {"type": "DT_FLOAT"}}}, {"name": "Func/StatefulPartitionedCall/input/_111", "op": "Const", "input": ["^Func/StatefulPartitionedCall/input_control_node/_0"], "attr": {"value": {"tensor": {"dtype": "DT_FLOAT", "tensorShape": {"dim": [{"size": "64"}, {"size": "128"}]}}}, "dtype": {"type": "DT_FLOAT"}}}, {"name": "Func/StatefulPartitionedCall/input/_112", "op": "Const", "input": ["^Func/StatefulPartitionedCall/input_control_node/_0"], "attr": {"value": {"tensor": {"dtype": "DT_FLOAT", "tensorShape": {"dim": [{"size": "128"}]}}}, "dtype": {"type": "DT_FLOAT"}}}, {"name": "StatefulPartitionedCall/Generator/decoder_up_adaresblock_0/adain_0/Reshape/shape", "op": "Const", "input": ["^Func/StatefulPartitionedCall/input_control_node/_0"], "attr": {"value": {"tensor": {"dtype": "DT_INT32", "tensorShape": {"dim": [{"size": "4"}]}}}, "dtype": {"type": "DT_INT32"}}}, {"name": "Func/StatefulPartitionedCall/input/_107", "op": "Const", "input": ["^Func/StatefulPartitionedCall/input_control_node/_0"], "attr": {"value": {"tensor": {"dtype": "DT_FLOAT", "tensorShape": {"dim": [{"size": "64"}, {"size": "256"}]}}}, "dtype": {"type": "DT_FLOAT"}}}, {"name": "Func/StatefulPartitionedCall/input/_108", "op": "Const", "input": ["^Func/StatefulPartitionedCall/input_control_node/_0"], "attr": {"value": {"tensor": {"dtype": "DT_FLOAT", "tensorShape": {"dim": [{"size": "256"}]}}}, "dtype": {"type": "DT_FLOAT"}}}, {"name": "Func/StatefulPartitionedCall/input/_105", "op": "Const", "input": ["^Func/StatefulPartitionedCall/input_control_node/_0"], "attr": {"value": {"tensor": {"dtype": "DT_FLOAT", "tensorShape": {"dim": [{"size": "64"}, {"size": "256"}]}}}, "dtype": {"type": "DT_FLOAT"}}}, {"name": "Func/StatefulPartitionedCall/input/_106", "op": "Const", "input": ["^Func/StatefulPartitionedCall/input_control_node/_0"], "attr": {"value": {"tensor": {"dtype": "DT_FLOAT", "tensorShape": {"dim": [{"size": "256"}]}}}, "dtype": {"type": "DT_FLOAT"}}}, {"name": "Func/StatefulPartitionedCall/input/_109", "op": "Const", "input": ["^Func/StatefulPartitionedCall/input_control_node/_0"], "attr": {"value": {"tensor": {"dtype": "DT_FLOAT", "tensorShape": {"dim": [{"size": "3"}, {"size": "3"}, {"size": "256"}, {"size": "128"}]}}}, "dtype": {"type": "DT_FLOAT"}}}, {"name": "Func/StatefulPartitionedCall/input/_110", "op": "Const", "input": ["^Func/StatefulPartitionedCall/input_control_node/_0"], "attr": {"value": {"tensor": {"dtype": "DT_FLOAT", "tensorShape": {"dim": [{"size": "128"}]}}}, "dtype": {"type": "DT_FLOAT"}}}, {"name": "Func/StatefulPartitionedCall/input/_115", "op": "Const", "input": ["^Func/StatefulPartitionedCall/input_control_node/_0"], "attr": {"value": {"tensor": {"dtype": "DT_FLOAT", "tensorShape": {"dim": [{"size": "3"}, {"size": "3"}, {"size": "128"}, {"size": "128"}]}}}, "dtype": {"type": "DT_FLOAT"}}}, {"name": "Func/StatefulPartitionedCall/input/_116", "op": "Const", "input": ["^Func/StatefulPartitionedCall/input_control_node/_0"], "attr": {"value": {"tensor": {"dtype": "DT_FLOAT", "tensorShape": {"dim": [{"size": "128"}]}}}, "dtype": {"type": "DT_FLOAT"}}}, {"name": "Func/StatefulPartitionedCall/input/_100", "op": "Const", "input": ["^Func/StatefulPartitionedCall/input_control_node/_0"], "attr": {"value": {"tensor": {"dtype": "DT_FLOAT", "tensorShape": {"dim": [{"size": "64"}, {"size": "256"}]}}}, "dtype": {"type": "DT_FLOAT"}}}, {"name": "Func/StatefulPartitionedCall/input/_101", "op": "Const", "input": ["^Func/StatefulPartitionedCall/input_control_node/_0"], "attr": {"value": {"tensor": {"dtype": "DT_FLOAT", "tensorShape": {"dim": [{"size": "256"}]}}}, "dtype": {"type": "DT_FLOAT"}}}, {"name": "Func/StatefulPartitionedCall/input/_98", "op": "Const", "input": ["^Func/StatefulPartitionedCall/input_control_node/_0"], "attr": {"value": {"tensor": {"dtype": "DT_FLOAT", "tensorShape": {"dim": [{"size": "64"}, {"size": "256"}]}}}, "dtype": {"type": "DT_FLOAT"}}}, {"name": "Func/StatefulPartitionedCall/input/_99", "op": "Const", "input": ["^Func/StatefulPartitionedCall/input_control_node/_0"], "attr": {"value": {"tensor": {"dtype": "DT_FLOAT", "tensorShape": {"dim": [{"size": "256"}]}}}, "dtype": {"type": "DT_FLOAT"}}}, {"name": "StatefulPartitionedCall/Generator/decoder_up_adaresblock_1/adain_0/Reshape/shape", "op": "Const", "input": ["^Func/StatefulPartitionedCall/input_control_node/_0"], "attr": {"value": {"tensor": {"dtype": "DT_INT32", "tensorShape": {"dim": [{"size": "4"}]}}}, "dtype": {"type": "DT_INT32"}}}, {"name": "Func/StatefulPartitionedCall/input/_94", "op": "Const", "input": ["^Func/StatefulPartitionedCall/input_control_node/_0"], "attr": {"value": {"tensor": {"dtype": "DT_FLOAT", "tensorShape": {"dim": [{"size": "64"}, {"size": "512"}]}}}, "dtype": {"type": "DT_FLOAT"}}}, {"name": "Func/StatefulPartitionedCall/input/_95", "op": "Const", "input": ["^Func/StatefulPartitionedCall/input_control_node/_0"], "attr": {"value": {"tensor": {"dtype": "DT_FLOAT", "tensorShape": {"dim": [{"size": "512"}]}}}, "dtype": {"type": "DT_FLOAT"}}}, {"name": "Func/StatefulPartitionedCall/input/_92", "op": "Const", "input": ["^Func/StatefulPartitionedCall/input_control_node/_0"], "attr": {"value": {"tensor": {"dtype": "DT_FLOAT", "tensorShape": {"dim": [{"size": "64"}, {"size": "512"}]}}}, "dtype": {"type": "DT_FLOAT"}}}, {"name": "Func/StatefulPartitionedCall/input/_93", "op": "Const", "input": ["^Func/StatefulPartitionedCall/input_control_node/_0"], "attr": {"value": {"tensor": {"dtype": "DT_FLOAT", "tensorShape": {"dim": [{"size": "512"}]}}}, "dtype": {"type": "DT_FLOAT"}}}, {"name": "Func/StatefulPartitionedCall/input/_96", "op": "Const", "input": ["^Func/StatefulPartitionedCall/input_control_node/_0"], "attr": {"value": {"tensor": {"dtype": "DT_FLOAT", "tensorShape": {"dim": [{"size": "3"}, {"size": "3"}, {"size": "512"}, {"size": "256"}]}}}, "dtype": {"type": "DT_FLOAT"}}}, {"name": "Func/StatefulPartitionedCall/input/_97", "op": "Const", "input": ["^Func/StatefulPartitionedCall/input_control_node/_0"], "attr": {"dtype": {"type": "DT_FLOAT"}, "value": {"tensor": {"dtype": "DT_FLOAT", "tensorShape": {"dim": [{"size": "256"}]}}}}}, {"name": "Func/StatefulPartitionedCall/input/_102", "op": "Const", "input": ["^Func/StatefulPartitionedCall/input_control_node/_0"], "attr": {"value": {"tensor": {"dtype": "DT_FLOAT", "tensorShape": {"dim": [{"size": "3"}, {"size": "3"}, {"size": "256"}, {"size": "256"}]}}}, "dtype": {"type": "DT_FLOAT"}}}, {"name": "Func/StatefulPartitionedCall/input/_103", "op": "Const", "input": ["^Func/StatefulPartitionedCall/input_control_node/_0"], "attr": {"value": {"tensor": {"dtype": "DT_FLOAT", "tensorShape": {"dim": [{"size": "256"}]}}}, "dtype": {"type": "DT_FLOAT"}}}, {"name": "Func/StatefulPartitionedCall/input/_88", "op": "Const", "input": ["^Func/StatefulPartitionedCall/input_control_node/_0"], "attr": {"dtype": {"type": "DT_FLOAT"}, "value": {"tensor": {"dtype": "DT_FLOAT", "tensorShape": {"dim": [{"size": "64"}, {"size": "512"}]}}}}}, {"name": "Func/StatefulPartitionedCall/input/_89", "op": "Const", "input": ["^Func/StatefulPartitionedCall/input_control_node/_0"], "attr": {"value": {"tensor": {"dtype": "DT_FLOAT", "tensorShape": {"dim": [{"size": "512"}]}}}, "dtype": {"type": "DT_FLOAT"}}}, {"name": "Func/StatefulPartitionedCall/input/_86", "op": "Const", "input": ["^Func/StatefulPartitionedCall/input_control_node/_0"], "attr": {"value": {"tensor": {"dtype": "DT_FLOAT", "tensorShape": {"dim": [{"size": "64"}, {"size": "512"}]}}}, "dtype": {"type": "DT_FLOAT"}}}, {"name": "Func/StatefulPartitionedCall/input/_87", "op": "Const", "input": ["^Func/StatefulPartitionedCall/input_control_node/_0"], "attr": {"value": {"tensor": {"dtype": "DT_FLOAT", "tensorShape": {"dim": [{"size": "512"}]}}}, "dtype": {"type": "DT_FLOAT"}}}, {"name": "Func/StatefulPartitionedCall/input/_82", "op": "Const", "input": ["^Func/StatefulPartitionedCall/input_control_node/_0"], "attr": {"value": {"tensor": {"dtype": "DT_FLOAT", "tensorShape": {"dim": [{"size": "64"}, {"size": "512"}]}}}, "dtype": {"type": "DT_FLOAT"}}}, {"name": "Func/StatefulPartitionedCall/input/_83", "op": "Const", "input": ["^Func/StatefulPartitionedCall/input_control_node/_0"], "attr": {"value": {"tensor": {"dtype": "DT_FLOAT", "tensorShape": {"dim": [{"size": "512"}]}}}, "dtype": {"type": "DT_FLOAT"}}}, {"name": "Func/StatefulPartitionedCall/input/_80", "op": "Const", "input": ["^Func/StatefulPartitionedCall/input_control_node/_0"], "attr": {"value": {"tensor": {"dtype": "DT_FLOAT", "tensorShape": {"dim": [{"size": "64"}, {"size": "512"}]}}}, "dtype": {"type": "DT_FLOAT"}}}, {"name": "Func/StatefulPartitionedCall/input/_81", "op": "Const", "input": ["^Func/StatefulPartitionedCall/input_control_node/_0"], "attr": {"value": {"tensor": {"dtype": "DT_FLOAT", "tensorShape": {"dim": [{"size": "512"}]}}}, "dtype": {"type": "DT_FLOAT"}}}, {"name": "Func/StatefulPartitionedCall/input/_84", "op": "Const", "input": ["^Func/StatefulPartitionedCall/input_control_node/_0"], "attr": {"dtype": {"type": "DT_FLOAT"}, "value": {"tensor": {"dtype": "DT_FLOAT", "tensorShape": {"dim": [{"size": "3"}, {"size": "3"}, {"size": "512"}, {"size": "512"}]}}}}}, {"name": "Func/StatefulPartitionedCall/input/_85", "op": "Const", "input": ["^Func/StatefulPartitionedCall/input_control_node/_0"], "attr": {"value": {"tensor": {"dtype": "DT_FLOAT", "tensorShape": {"dim": [{"size": "512"}]}}}, "dtype": {"type": "DT_FLOAT"}}}, {"name": "Func/StatefulPartitionedCall/input/_90", "op": "Const", "input": ["^Func/StatefulPartitionedCall/input_control_node/_0"], "attr": {"value": {"tensor": {"dtype": "DT_FLOAT", "tensorShape": {"dim": [{"size": "3"}, {"size": "3"}, {"size": "512"}, {"size": "512"}]}}}, "dtype": {"type": "DT_FLOAT"}}}, {"name": "Func/StatefulPartitionedCall/input/_91", "op": "Const", "input": ["^Func/StatefulPartitionedCall/input_control_node/_0"], "attr": {"value": {"tensor": {"dtype": "DT_FLOAT", "tensorShape": {"dim": [{"size": "512"}]}}}, "dtype": {"type": "DT_FLOAT"}}}, {"name": "Func/StatefulPartitionedCall/input/_76", "op": "Const", "input": ["^Func/StatefulPartitionedCall/input_control_node/_0"], "attr": {"value": {"tensor": {"dtype": "DT_FLOAT", "tensorShape": {"dim": [{"size": "64"}, {"size": "512"}]}}}, "dtype": {"type": "DT_FLOAT"}}}, {"name": "Func/StatefulPartitionedCall/input/_77", "op": "Const", "input": ["^Func/StatefulPartitionedCall/input_control_node/_0"], "attr": {"value": {"tensor": {"dtype": "DT_FLOAT", "tensorShape": {"dim": [{"size": "512"}]}}}, "dtype": {"type": "DT_FLOAT"}}}, {"name": "Func/StatefulPartitionedCall/input/_74", "op": "Const", "input": ["^Func/StatefulPartitionedCall/input_control_node/_0"], "attr": {"value": {"tensor": {"dtype": "DT_FLOAT", "tensorShape": {"dim": [{"size": "64"}, {"size": "512"}]}}}, "dtype": {"type": "DT_FLOAT"}}}, {"name": "Func/StatefulPartitionedCall/input/_75", "op": "Const", "input": ["^Func/StatefulPartitionedCall/input_control_node/_0"], "attr": {"value": {"tensor": {"dtype": "DT_FLOAT", "tensorShape": {"dim": [{"size": "512"}]}}}, "dtype": {"type": "DT_FLOAT"}}}, {"name": "Func/StatefulPartitionedCall/input/_70", "op": "Const", "input": ["^Func/StatefulPartitionedCall/input_control_node/_0"], "attr": {"value": {"tensor": {"dtype": "DT_FLOAT", "tensorShape": {"dim": [{"size": "64"}, {"size": "512"}]}}}, "dtype": {"type": "DT_FLOAT"}}}, {"name": "Func/StatefulPartitionedCall/input/_71", "op": "Const", "input": ["^Func/StatefulPartitionedCall/input_control_node/_0"], "attr": {"value": {"tensor": {"dtype": "DT_FLOAT", "tensorShape": {"dim": [{"size": "512"}]}}}, "dtype": {"type": "DT_FLOAT"}}}, {"name": "Func/StatefulPartitionedCall/input/_68", "op": "Const", "input": ["^Func/StatefulPartitionedCall/input_control_node/_0"], "attr": {"value": {"tensor": {"dtype": "DT_FLOAT", "tensorShape": {"dim": [{"size": "64"}, {"size": "512"}]}}}, "dtype": {"type": "DT_FLOAT"}}}, {"name": "Func/StatefulPartitionedCall/input/_69", "op": "Const", "input": ["^Func/StatefulPartitionedCall/input_control_node/_0"], "attr": {"dtype": {"type": "DT_FLOAT"}, "value": {"tensor": {"dtype": "DT_FLOAT", "tensorShape": {"dim": [{"size": "512"}]}}}}}, {"name": "Func/StatefulPartitionedCall/input/_72", "op": "Const", "input": ["^Func/StatefulPartitionedCall/input_control_node/_0"], "attr": {"value": {"tensor": {"dtype": "DT_FLOAT", "tensorShape": {"dim": [{"size": "3"}, {"size": "3"}, {"size": "512"}, {"size": "512"}]}}}, "dtype": {"type": "DT_FLOAT"}}}, {"name": "Func/StatefulPartitionedCall/input/_73", "op": "Const", "input": ["^Func/StatefulPartitionedCall/input_control_node/_0"], "attr": {"value": {"tensor": {"dtype": "DT_FLOAT", "tensorShape": {"dim": [{"size": "512"}]}}}, "dtype": {"type": "DT_FLOAT"}}}, {"name": "Func/StatefulPartitionedCall/input/_78", "op": "Const", "input": ["^Func/StatefulPartitionedCall/input_control_node/_0"], "attr": {"value": {"tensor": {"dtype": "DT_FLOAT", "tensorShape": {"dim": [{"size": "3"}, {"size": "3"}, {"size": "512"}, {"size": "512"}]}}}, "dtype": {"type": "DT_FLOAT"}}}, {"name": "Func/StatefulPartitionedCall/input/_79", "op": "Const", "input": ["^Func/StatefulPartitionedCall/input_control_node/_0"], "attr": {"value": {"tensor": {"dtype": "DT_FLOAT", "tensorShape": {"dim": [{"size": "512"}]}}}, "dtype": {"type": "DT_FLOAT"}}}, {"name": "Func/StatefulPartitionedCall/input/_64", "op": "Const", "input": ["^Func/StatefulPartitionedCall/input_control_node/_0"], "attr": {"value": {"tensor": {"dtype": "DT_FLOAT", "tensorShape": {"dim": [{"size": "64"}, {"size": "512"}]}}}, "dtype": {"type": "DT_FLOAT"}}}, {"name": "Func/StatefulPartitionedCall/input/_65", "op": "Const", "input": ["^Func/StatefulPartitionedCall/input_control_node/_0"], "attr": {"value": {"tensor": {"dtype": "DT_FLOAT", "tensorShape": {"dim": [{"size": "512"}]}}}, "dtype": {"type": "DT_FLOAT"}}}, {"name": "Func/StatefulPartitionedCall/input/_62", "op": "Const", "input": ["^Func/StatefulPartitionedCall/input_control_node/_0"], "attr": {"value": {"tensor": {"dtype": "DT_FLOAT", "tensorShape": {"dim": [{"size": "64"}, {"size": "512"}]}}}, "dtype": {"type": "DT_FLOAT"}}}, {"name": "Func/StatefulPartitionedCall/input/_63", "op": "Const", "input": ["^Func/StatefulPartitionedCall/input_control_node/_0"], "attr": {"value": {"tensor": {"dtype": "DT_FLOAT", "tensorShape": {"dim": [{"size": "512"}]}}}, "dtype": {"type": "DT_FLOAT"}}}, {"name": "Func/StatefulPartitionedCall/input/_58", "op": "Const", "input": ["^Func/StatefulPartitionedCall/input_control_node/_0"], "attr": {"value": {"tensor": {"dtype": "DT_FLOAT", "tensorShape": {"dim": [{"size": "64"}, {"size": "512"}]}}}, "dtype": {"type": "DT_FLOAT"}}}, {"name": "Func/StatefulPartitionedCall/input/_59", "op": "Const", "input": ["^Func/StatefulPartitionedCall/input_control_node/_0"], "attr": {"value": {"tensor": {"dtype": "DT_FLOAT", "tensorShape": {"dim": [{"size": "512"}]}}}, "dtype": {"type": "DT_FLOAT"}}}, {"name": "StatefulPartitionedCall/Generator/decoder_up_adaresblock_0/adain_1/FullyConnected/flatten/Const", "op": "Const", "input": ["^Func/StatefulPartitionedCall/input_control_node/_0"], "attr": {"value": {"tensor": {"dtype": "DT_INT32", "tensorShape": {"dim": [{"size": "2"}]}}}, "dtype": {"type": "DT_INT32"}}}, {"name": "StatefulPartitionedCall/Generator/decoder_up_adaresblock_0/resize/size", "op": "Const", "input": ["^Func/StatefulPartitionedCall/input_control_node/_0"], "attr": {"value": {"tensor": {"dtype": "DT_INT32", "tensorShape": {"dim": [{"size": "2"}]}}}, "dtype": {"type": "DT_INT32"}}}, {"name": "Func/StatefulPartitionedCall/input/_134", "op": "Const", "input": ["^Func/StatefulPartitionedCall/input_control_node/_0"], "attr": {"value": {"tensor": {"dtype": "DT_FLOAT", "tensorShape": {"dim": [{"size": "3"}]}}}, "dtype": {"type": "DT_FLOAT"}}}, {"name": "Func/StatefulPartitionedCall/input/_56", "op": "Const", "input": ["^Func/StatefulPartitionedCall/input_control_node/_0"], "attr": {"value": {"tensor": {"dtype": "DT_FLOAT", "tensorShape": {"dim": [{"size": "64"}, {"size": "512"}]}}}, "dtype": {"type": "DT_FLOAT"}}}, {"name": "Func/StatefulPartitionedCall/input/_130", "op": "Const", "input": ["^Func/StatefulPartitionedCall/input_control_node/_0"], "attr": {"value": {"tensor": {"dtype": "DT_FLOAT", "tensorShape": {"dim": [{"size": "1"}, {"size": "1"}, {"size": "128"}, {"size": "64"}]}}}, "dtype": {"type": "DT_FLOAT"}}}, {"name": "Func/StatefulPartitionedCall/input/_57", "op": "Const", "input": ["^Func/StatefulPartitionedCall/input_control_node/_0"], "attr": {"value": {"tensor": {"dtype": "DT_FLOAT", "tensorShape": {"dim": [{"size": "512"}]}}}, "dtype": {"type": "DT_FLOAT"}}}, {"name": "StatefulPartitionedCall/Generator/decoder_up_adaresblock_2/adain_0/Reshape/shape", "op": "Const", "input": ["^Func/StatefulPartitionedCall/input_control_node/_0"], "attr": {"value": {"tensor": {"dtype": "DT_INT32", "tensorShape": {"dim": [{"size": "4"}]}}}, "dtype": {"type": "DT_INT32"}}}, {"name": "StatefulPartitionedCall/Generator/decoder_up_adaresblock_0/adain_1/add_1/x", "op": "Const", "input": ["^Func/StatefulPartitionedCall/input_control_node/_0"], "attr": {"value": {"tensor": {"dtype": "DT_FLOAT", "tensorShape": {}}}, "dtype": {"type": "DT_FLOAT"}}}, {"name": "Func/StatefulPartitionedCall/input/_60", "op": "Const", "input": ["^Func/StatefulPartitionedCall/input_control_node/_0"], "attr": {"value": {"tensor": {"dtype": "DT_FLOAT", "tensorShape": {"dim": [{"size": "3"}, {"size": "3"}, {"size": "512"}, {"size": "512"}]}}}, "dtype": {"type": "DT_FLOAT"}}}, {"name": "Func/StatefulPartitionedCall/input/_61", "op": "Const", "input": ["^Func/StatefulPartitionedCall/input_control_node/_0"], "attr": {"value": {"tensor": {"dtype": "DT_FLOAT", "tensorShape": {"dim": [{"size": "512"}]}}}, "dtype": {"type": "DT_FLOAT"}}}, {"name": "StatefulPartitionedCall/Generator/decoder_up_adaresblock_0/adain_0/moments/mean/reduction_indices", "op": "Const", "input": ["^Func/StatefulPartitionedCall/input_control_node/_0"], "attr": {"dtype": {"type": "DT_INT32"}, "value": {"tensor": {"dtype": "DT_INT32", "tensorShape": {"dim": [{"size": "2"}]}}}}}, {"name": "Func/StatefulPartitionedCall/input/_66", "op": "Const", "input": ["^Func/StatefulPartitionedCall/input_control_node/_0"], "attr": {"value": {"tensor": {"dtype": "DT_FLOAT", "tensorShape": {"dim": [{"size": "3"}, {"size": "3"}, {"size": "512"}, {"size": "512"}]}}}, "dtype": {"type": "DT_FLOAT"}}}, {"name": "Func/StatefulPartitionedCall/input/_67", "op": "Const", "input": ["^Func/StatefulPartitionedCall/input_control_node/_0"], "attr": {"value": {"tensor": {"dtype": "DT_FLOAT", "tensorShape": {"dim": [{"size": "512"}]}}}, "dtype": {"type": "DT_FLOAT"}}}, {"name": "StatefulPartitionedCall/Generator/encoder_bottleneck_resblock_1/instance_norm_1/Reshape_2", "op": "Const", "input": ["^Func/StatefulPartitionedCall/input_control_node/_0"], "attr": {"value": {"tensor": {"dtype": "DT_FLOAT", "tensorShape": {"dim": [{"size": "1"}, {"size": "1"}, {"size": "1"}, {"size": "512"}, {"size": "1"}]}}}, "dtype": {"type": "DT_FLOAT"}}}, {"name": "StatefulPartitionedCall/Generator/encoder_bottleneck_resblock_1/instance_norm_1/Reshape_1", "op": "Const", "input": ["^Func/StatefulPartitionedCall/input_control_node/_0"], "attr": {"value": {"tensor": {"dtype": "DT_FLOAT", "tensorShape": {"dim": [{"size": "1"}, {"size": "1"}, {"size": "1"}, {"size": "512"}, {"size": "1"}]}}}, "dtype": {"type": "DT_FLOAT"}}}, {"name": "StatefulPartitionedCall/Generator/encoder_bottleneck_resblock_1/instance_norm_0/Reshape_2", "op": "Const", "input": ["^Func/StatefulPartitionedCall/input_control_node/_0"], "attr": {"value": {"tensor": {"dtype": "DT_FLOAT", "tensorShape": {"dim": [{"size": "1"}, {"size": "1"}, {"size": "1"}, {"size": "512"}, {"size": "1"}]}}}, "dtype": {"type": "DT_FLOAT"}}}, {"name": "StatefulPartitionedCall/Generator/encoder_bottleneck_resblock_1/instance_norm_0/Reshape_1", "op": "Const", "input": ["^Func/StatefulPartitionedCall/input_control_node/_0"], "attr": {"value": {"tensor": {"dtype": "DT_FLOAT", "tensorShape": {"dim": [{"size": "1"}, {"size": "1"}, {"size": "1"}, {"size": "512"}, {"size": "1"}]}}}, "dtype": {"type": "DT_FLOAT"}}}, {"name": "StatefulPartitionedCall/Generator/encoder_bottleneck_resblock_0/instance_norm_1/Reshape_2", "op": "Const", "input": ["^Func/StatefulPartitionedCall/input_control_node/_0"], "attr": {"value": {"tensor": {"dtype": "DT_FLOAT", "tensorShape": {"dim": [{"size": "1"}, {"size": "1"}, {"size": "1"}, {"size": "512"}, {"size": "1"}]}}}, "dtype": {"type": "DT_FLOAT"}}}, {"name": "StatefulPartitionedCall/Generator/encoder_bottleneck_resblock_0/instance_norm_1/Reshape_1", "op": "Const", "input": ["^Func/StatefulPartitionedCall/input_control_node/_0"], "attr": {"value": {"tensor": {"dtype": "DT_FLOAT", "tensorShape": {"dim": [{"size": "1"}, {"size": "1"}, {"size": "1"}, {"size": "512"}, {"size": "1"}]}}}, "dtype": {"type": "DT_FLOAT"}}}, {"name": "StatefulPartitionedCall/Generator/encoder_bottleneck_resblock_0/instance_norm_0/Reshape_2", "op": "Const", "input": ["^Func/StatefulPartitionedCall/input_control_node/_0"], "attr": {"dtype": {"type": "DT_FLOAT"}, "value": {"tensor": {"dtype": "DT_FLOAT", "tensorShape": {"dim": [{"size": "1"}, {"size": "1"}, {"size": "1"}, {"size": "512"}, {"size": "1"}]}}}}}, {"name": "StatefulPartitionedCall/Generator/encoder_bottleneck_resblock_0/instance_norm_0/Reshape_1", "op": "Const", "input": ["^Func/StatefulPartitionedCall/input_control_node/_0"], "attr": {"value": {"tensor": {"dtype": "DT_FLOAT", "tensorShape": {"dim": [{"size": "1"}, {"size": "1"}, {"size": "1"}, {"size": "512"}, {"size": "1"}]}}}, "dtype": {"type": "DT_FLOAT"}}}, {"name": "Func/StatefulPartitionedCall/input/_42", "op": "Const", "input": ["^Func/StatefulPartitionedCall/input_control_node/_0"], "attr": {"value": {"tensor": {"dtype": "DT_FLOAT", "tensorShape": {"dim": [{"size": "3"}, {"size": "3"}, {"size": "512"}, {"size": "512"}]}}}, "dtype": {"type": "DT_FLOAT"}}}, {"name": "Func/StatefulPartitionedCall/input/_43", "op": "Const", "input": ["^Func/StatefulPartitionedCall/input_control_node/_0"], "attr": {"value": {"tensor": {"dtype": "DT_FLOAT", "tensorShape": {"dim": [{"size": "512"}]}}}, "dtype": {"type": "DT_FLOAT"}}}, {"name": "Func/StatefulPartitionedCall/input/_46", "op": "Const", "input": ["^Func/StatefulPartitionedCall/input_control_node/_0"], "attr": {"value": {"tensor": {"dtype": "DT_FLOAT", "tensorShape": {"dim": [{"size": "3"}, {"size": "3"}, {"size": "512"}, {"size": "512"}]}}}, "dtype": {"type": "DT_FLOAT"}}}, {"name": "Func/StatefulPartitionedCall/input/_47", "op": "Const", "input": ["^Func/StatefulPartitionedCall/input_control_node/_0"], "attr": {"value": {"tensor": {"dtype": "DT_FLOAT", "tensorShape": {"dim": [{"size": "512"}]}}}, "dtype": {"type": "DT_FLOAT"}}}, {"name": "StatefulPartitionedCall/Generator/encoder_down_resblock_3/instance_norm_1/Reshape_2", "op": "Const", "input": ["^Func/StatefulPartitionedCall/input_control_node/_0"], "attr": {"value": {"tensor": {"dtype": "DT_FLOAT", "tensorShape": {"dim": [{"size": "1"}, {"size": "1"}, {"size": "1"}, {"size": "512"}, {"size": "1"}]}}}, "dtype": {"type": "DT_FLOAT"}}}, {"name": "StatefulPartitionedCall/Generator/encoder_down_resblock_3/instance_norm_1/Reshape_1", "op": "Const", "input": ["^Func/StatefulPartitionedCall/input_control_node/_0"], "attr": {"value": {"tensor": {"dtype": "DT_FLOAT", "tensorShape": {"dim": [{"size": "1"}, {"size": "1"}, {"size": "1"}, {"size": "512"}, {"size": "1"}]}}}, "dtype": {"type": "DT_FLOAT"}}}, {"name": "StatefulPartitionedCall/Generator/encoder_down_resblock_3/instance_norm_0/Reshape_2", "op": "Const", "input": ["^Func/StatefulPartitionedCall/input_control_node/_0"], "attr": {"value": {"tensor": {"dtype": "DT_FLOAT", "tensorShape": {"dim": [{"size": "1"}, {"size": "1"}, {"size": "1"}, {"size": "512"}, {"size": "1"}]}}}, "dtype": {"type": "DT_FLOAT"}}}, {"name": "StatefulPartitionedCall/Generator/encoder_down_resblock_3/instance_norm_0/Reshape_1", "op": "Const", "input": ["^Func/StatefulPartitionedCall/input_control_node/_0"], "attr": {"value": {"tensor": {"dtype": "DT_FLOAT", "tensorShape": {"dim": [{"size": "1"}, {"size": "1"}, {"size": "1"}, {"size": "512"}, {"size": "1"}]}}}, "dtype": {"type": "DT_FLOAT"}}}, {"name": "StatefulPartitionedCall/Generator/encoder_bottleneck_resblock_1/instance_norm_1/stack/3", "op": "Const", "input": ["^Func/StatefulPartitionedCall/input_control_node/_0"], "attr": {"value": {"tensor": {"dtype": "DT_INT32", "tensorShape": {}}}, "dtype": {"type": "DT_INT32"}}}, {"name": "Func/StatefulPartitionedCall/input/_31", "op": "Const", "input": ["^Func/StatefulPartitionedCall/input_control_node/_0"], "attr": {"value": {"tensor": {"dtype": "DT_FLOAT", "tensorShape": {"dim": [{"size": "1"}, {"size": "1"}, {"size": "256"}, {"size": "512"}]}}}, "dtype": {"type": "DT_FLOAT"}}}, {"name": "StatefulPartitionedCall/Generator/encoder_down_resblock_2/instance_norm_1/Reshape_2", "op": "Const", "input": ["^Func/StatefulPartitionedCall/input_control_node/_0"], "attr": {"value": {"tensor": {"dtype": "DT_FLOAT", "tensorShape": {"dim": [{"size": "1"}, {"size": "1"}, {"size": "1"}, {"size": "256"}, {"size": "1"}]}}}, "dtype": {"type": "DT_FLOAT"}}}, {"name": "StatefulPartitionedCall/Generator/encoder_down_resblock_2/instance_norm_1/Reshape_1", "op": "Const", "input": ["^Func/StatefulPartitionedCall/input_control_node/_0"], "attr": {"value": {"tensor": {"dtype": "DT_FLOAT", "tensorShape": {"dim": [{"size": "1"}, {"size": "1"}, {"size": "1"}, {"size": "256"}, {"size": "1"}]}}}, "dtype": {"type": "DT_FLOAT"}}}, {"name": "StatefulPartitionedCall/Generator/encoder_down_resblock_2/instance_norm_0/Reshape_2", "op": "Const", "input": ["^Func/StatefulPartitionedCall/input_control_node/_0"], "attr": {"value": {"tensor": {"dtype": "DT_FLOAT", "tensorShape": {"dim": [{"size": "1"}, {"size": "1"}, {"size": "1"}, {"size": "256"}, {"size": "1"}]}}}, "dtype": {"type": "DT_FLOAT"}}}, {"name": "StatefulPartitionedCall/Generator/encoder_down_resblock_2/instance_norm_0/Reshape_1", "op": "Const", "input": ["^Func/StatefulPartitionedCall/input_control_node/_0"], "attr": {"value": {"tensor": {"dtype": "DT_FLOAT", "tensorShape": {"dim": [{"size": "1"}, {"size": "1"}, {"size": "1"}, {"size": "256"}, {"size": "1"}]}}}, "dtype": {"type": "DT_FLOAT"}}}, {"name": "StatefulPartitionedCall/Generator/encoder_down_resblock_2/instance_norm_1/stack/3", "op": "Const", "input": ["^Func/StatefulPartitionedCall/input_control_node/_0"], "attr": {"value": {"tensor": {"dtype": "DT_INT32", "tensorShape": {}}}, "dtype": {"type": "DT_INT32"}}}, {"name": "Func/StatefulPartitionedCall/input/_22", "op": "Const", "input": ["^Func/StatefulPartitionedCall/input_control_node/_0"], "attr": {"value": {"tensor": {"dtype": "DT_FLOAT", "tensorShape": {"dim": [{"size": "1"}, {"size": "1"}, {"size": "128"}, {"size": "256"}]}}}, "dtype": {"type": "DT_FLOAT"}}}, {"name": "StatefulPartitionedCall/Generator/encoder_down_resblock_1/instance_norm_1/Reshape_2", "op": "Const", "input": ["^Func/StatefulPartitionedCall/input_control_node/_0"], "attr": {"value": {"tensor": {"dtype": "DT_FLOAT", "tensorShape": {"dim": [{"size": "1"}, {"size": "1"}, {"size": "1"}, {"size": "128"}, {"size": "1"}]}}}, "dtype": {"type": "DT_FLOAT"}}}, {"name": "StatefulPartitionedCall/Generator/encoder_down_resblock_1/instance_norm_1/Reshape_1", "op": "Const", "input": ["^Func/StatefulPartitionedCall/input_control_node/_0"], "attr": {"value": {"tensor": {"dtype": "DT_FLOAT", "tensorShape": {"dim": [{"size": "1"}, {"size": "1"}, {"size": "1"}, {"size": "128"}, {"size": "1"}]}}}, "dtype": {"type": "DT_FLOAT"}}}, {"name": "StatefulPartitionedCall/Generator/encoder_down_resblock_1/instance_norm_0/Reshape_2", "op": "Const", "input": ["^Func/StatefulPartitionedCall/input_control_node/_0"], "attr": {"value": {"tensor": {"dtype": "DT_FLOAT", "tensorShape": {"dim": [{"size": "1"}, {"size": "1"}, {"size": "1"}, {"size": "128"}, {"size": "1"}]}}}, "dtype": {"type": "DT_FLOAT"}}}, {"name": "StatefulPartitionedCall/Generator/encoder_down_resblock_1/instance_norm_0/Reshape_1", "op": "Const", "input": ["^Func/StatefulPartitionedCall/input_control_node/_0"], "attr": {"value": {"tensor": {"dtype": "DT_FLOAT", "tensorShape": {"dim": [{"size": "1"}, {"size": "1"}, {"size": "1"}, {"size": "128"}, {"size": "1"}]}}}, "dtype": {"type": "DT_FLOAT"}}}, {"name": "StatefulPartitionedCall/Generator/encoder_down_resblock_1/instance_norm_1/stack/3", "op": "Const", "input": ["^Func/StatefulPartitionedCall/input_control_node/_0"], "attr": {"value": {"tensor": {"dtype": "DT_INT32", "tensorShape": {}}}, "dtype": {"type": "DT_INT32"}}}, {"name": "ConstantFolding/StatefulPartitionedCall/Generator/encoder_down_resblock_0/truediv_recip", "op": "Const", "input": ["^Func/StatefulPartitionedCall/input_control_node/_0"], "attr": {"value": {"tensor": {"dtype": "DT_FLOAT", "tensorShape": {}}}, "dtype": {"type": "DT_FLOAT"}}}, {"name": "Func/StatefulPartitionedCall/input/_13", "op": "Const", "input": ["^Func/StatefulPartitionedCall/input_control_node/_0"], "attr": {"value": {"tensor": {"dtype": "DT_FLOAT", "tensorShape": {"dim": [{"size": "1"}, {"size": "1"}, {"size": "64"}, {"size": "128"}]}}}, "dtype": {"type": "DT_FLOAT"}}}, {"name": "StatefulPartitionedCall/Generator/encoder_down_resblock_0/instance_norm_1/Reshape_2", "op": "Const", "input": ["^Func/StatefulPartitionedCall/input_control_node/_0"], "attr": {"value": {"tensor": {"dtype": "DT_FLOAT", "tensorShape": {"dim": [{"size": "1"}, {"size": "1"}, {"size": "1"}, {"size": "64"}, {"size": "1"}]}}}, "dtype": {"type": "DT_FLOAT"}}}, {"name": "StatefulPartitionedCall/Generator/encoder_down_resblock_0/instance_norm_1/Reshape_1", "op": "Const", "input": ["^Func/StatefulPartitionedCall/input_control_node/_0"], "attr": {"value": {"tensor": {"dtype": "DT_FLOAT", "tensorShape": {"dim": [{"size": "1"}, {"size": "1"}, {"size": "1"}, {"size": "64"}, {"size": "1"}]}}}, "dtype": {"type": "DT_FLOAT"}}}, {"name": "StatefulPartitionedCall/Generator/encoder_down_resblock_0/instance_norm_0/Reshape_2", "op": "Const", "input": ["^Func/StatefulPartitionedCall/input_control_node/_0"], "attr": {"value": {"tensor": {"dtype": "DT_FLOAT", "tensorShape": {"dim": [{"size": "1"}, {"size": "1"}, {"size": "1"}, {"size": "64"}, {"size": "1"}]}}}, "dtype": {"type": "DT_FLOAT"}}}, {"name": "StatefulPartitionedCall/Generator/encoder_down_resblock_0/instance_norm_0/Reshape_1", "op": "Const", "input": ["^Func/StatefulPartitionedCall/input_control_node/_0"], "attr": {"value": {"tensor": {"dtype": "DT_FLOAT", "tensorShape": {"dim": [{"size": "1"}, {"size": "1"}, {"size": "1"}, {"size": "64"}, {"size": "1"}]}}}, "dtype": {"type": "DT_FLOAT"}}}, {"name": "StatefulPartitionedCall/Generator/sequential/ins_norm/batchnorm/add/y", "op": "Const", "input": ["^Func/StatefulPartitionedCall/input_control_node/_0"], "attr": {"value": {"tensor": {"dtype": "DT_FLOAT", "tensorShape": {}}}, "dtype": {"type": "DT_FLOAT"}}}, {"name": "StatefulPartitionedCall/Generator/sequential/ins_norm/strided_slice/stack", "op": "Const", "input": ["^Func/StatefulPartitionedCall/input_control_node/_0"], "attr": {"value": {"tensor": {"dtype": "DT_INT32", "tensorShape": {"dim": [{"size": "1"}]}}}, "dtype": {"type": "DT_INT32"}}}, {"name": "StatefulPartitionedCall/Generator/sequential/ins_norm/strided_slice_1/stack_1", "op": "Const", "input": ["^Func/StatefulPartitionedCall/input_control_node/_0"], "attr": {"dtype": {"type": "DT_INT32"}, "value": {"tensor": {"dtype": "DT_INT32", "tensorShape": {"dim": [{"size": "1"}]}}}}}, {"name": "StatefulPartitionedCall/Generator/sequential/ins_norm/strided_slice_2/stack_1", "op": "Const", "input": ["^Func/StatefulPartitionedCall/input_control_node/_0"], "attr": {"value": {"tensor": {"dtype": "DT_INT32", "tensorShape": {"dim": [{"size": "1"}]}}}, "dtype": {"type": "DT_INT32"}}}, {"name": "StatefulPartitionedCall/Generator/sequential/ins_norm/strided_slice/stack_1", "op": "Const", "input": ["^Func/StatefulPartitionedCall/input_control_node/_0"], "attr": {"dtype": {"type": "DT_INT32"}, "value": {"tensor": {"dtype": "DT_INT32", "tensorShape": {"dim": [{"size": "1"}]}}}}}, {"name": "StatefulPartitionedCall/Generator/sequential/ins_norm/stack/3", "op": "Const", "input": ["^Func/StatefulPartitionedCall/input_control_node/_0"], "attr": {"value": {"tensor": {"dtype": "DT_INT32", "tensorShape": {}}}, "dtype": {"type": "DT_INT32"}}}, {"name": "StatefulPartitionedCall/Generator/sequential/ins_norm/stack/4", "op": "Const", "input": ["^Func/StatefulPartitionedCall/input_control_node/_0"], "attr": {"value": {"tensor": {"dtype": "DT_INT32", "tensorShape": {}}}, "dtype": {"type": "DT_INT32"}}}, {"name": "StatefulPartitionedCall/Generator/sequential/ins_norm/moments/mean/reduction_indices", "op": "Const", "input": ["^Func/StatefulPartitionedCall/input_control_node/_0"], "attr": {"value": {"tensor": {"dtype": "DT_INT32", "tensorShape": {"dim": [{"size": "3"}]}}}, "dtype": {"type": "DT_INT32"}}}, {"name": "Func/StatefulPartitionedCall/input/_3", "op": "Const", "input": ["^Func/StatefulPartitionedCall/input_control_node/_0"], "attr": {"value": {"tensor": {"dtype": "DT_FLOAT", "tensorShape": {"dim": [{"size": "3"}, {"size": "3"}, {"size": "3"}, {"size": "64"}]}}}, "dtype": {"type": "DT_FLOAT"}}}, {"name": "Func/StatefulPartitionedCall/input/_4", "op": "Const", "input": ["^Func/StatefulPartitionedCall/input_control_node/_0"], "attr": {"value": {"tensor": {"dtype": "DT_FLOAT", "tensorShape": {"dim": [{"size": "64"}]}}}, "dtype": {"type": "DT_FLOAT"}}}, {"name": "Func/StatefulPartitionedCall/input/_7", "op": "Const", "input": ["^Func/StatefulPartitionedCall/input_control_node/_0"], "attr": {"value": {"tensor": {"dtype": "DT_FLOAT", "tensorShape": {"dim": [{"size": "3"}, {"size": "3"}, {"size": "64"}, {"size": "64"}]}}}, "dtype": {"type": "DT_FLOAT"}}}, {"name": "Func/StatefulPartitionedCall/input/_8", "op": "Const", "input": ["^Func/StatefulPartitionedCall/input_control_node/_0"], "attr": {"value": {"tensor": {"dtype": "DT_FLOAT", "tensorShape": {"dim": [{"size": "64"}]}}}, "dtype": {"type": "DT_FLOAT"}}}, {"name": "Func/StatefulPartitionedCall/input/_11", "op": "Const", "input": ["^Func/StatefulPartitionedCall/input_control_node/_0"], "attr": {"value": {"tensor": {"dtype": "DT_FLOAT", "tensorShape": {"dim": [{"size": "3"}, {"size": "3"}, {"size": "64"}, {"size": "128"}]}}}, "dtype": {"type": "DT_FLOAT"}}}, {"name": "Func/StatefulPartitionedCall/input/_12", "op": "Const", "input": ["^Func/StatefulPartitionedCall/input_control_node/_0"], "attr": {"value": {"tensor": {"dtype": "DT_FLOAT", "tensorShape": {"dim": [{"size": "128"}]}}}, "dtype": {"type": "DT_FLOAT"}}}, {"name": "Func/StatefulPartitionedCall/input/_16", "op": "Const", "input": ["^Func/StatefulPartitionedCall/input_control_node/_0"], "attr": {"value": {"tensor": {"dtype": "DT_FLOAT", "tensorShape": {"dim": [{"size": "3"}, {"size": "3"}, {"size": "128"}, {"size": "128"}]}}}, "dtype": {"type": "DT_FLOAT"}}}, {"name": "Func/StatefulPartitionedCall/input/_17", "op": "Const", "input": ["^Func/StatefulPartitionedCall/input_control_node/_0"], "attr": {"value": {"tensor": {"dtype": "DT_FLOAT", "tensorShape": {"dim": [{"size": "128"}]}}}, "dtype": {"type": "DT_FLOAT"}}}, {"name": "Func/StatefulPartitionedCall/input/_20", "op": "Const", "input": ["^Func/StatefulPartitionedCall/input_control_node/_0"], "attr": {"value": {"tensor": {"dtype": "DT_FLOAT", "tensorShape": {"dim": [{"size": "3"}, {"size": "3"}, {"size": "128"}, {"size": "256"}]}}}, "dtype": {"type": "DT_FLOAT"}}}, {"name": "Func/StatefulPartitionedCall/input/_21", "op": "Const", "input": ["^Func/StatefulPartitionedCall/input_control_node/_0"], "attr": {"value": {"tensor": {"dtype": "DT_FLOAT", "tensorShape": {"dim": [{"size": "256"}]}}}, "dtype": {"type": "DT_FLOAT"}}}, {"name": "Func/StatefulPartitionedCall/input/_25", "op": "Const", "input": ["^Func/StatefulPartitionedCall/input_control_node/_0"], "attr": {"value": {"tensor": {"dtype": "DT_FLOAT", "tensorShape": {"dim": [{"size": "3"}, {"size": "3"}, {"size": "256"}, {"size": "256"}]}}}, "dtype": {"type": "DT_FLOAT"}}}, {"name": "Func/StatefulPartitionedCall/input/_26", "op": "Const", "input": ["^Func/StatefulPartitionedCall/input_control_node/_0"], "attr": {"value": {"tensor": {"dtype": "DT_FLOAT", "tensorShape": {"dim": [{"size": "256"}]}}}, "dtype": {"type": "DT_FLOAT"}}}, {"name": "Func/StatefulPartitionedCall/input/_29", "op": "Const", "input": ["^Func/StatefulPartitionedCall/input_control_node/_0"], "attr": {"value": {"tensor": {"dtype": "DT_FLOAT", "tensorShape": {"dim": [{"size": "3"}, {"size": "3"}, {"size": "256"}, {"size": "512"}]}}}, "dtype": {"type": "DT_FLOAT"}}}, {"name": "Func/StatefulPartitionedCall/input/_30", "op": "Const", "input": ["^Func/StatefulPartitionedCall/input_control_node/_0"], "attr": {"value": {"tensor": {"dtype": "DT_FLOAT", "tensorShape": {"dim": [{"size": "512"}]}}}, "dtype": {"type": "DT_FLOAT"}}}, {"name": "Func/StatefulPartitionedCall/input/_34", "op": "Const", "input": ["^Func/StatefulPartitionedCall/input_control_node/_0"], "attr": {"value": {"tensor": {"dtype": "DT_FLOAT", "tensorShape": {"dim": [{"size": "3"}, {"size": "3"}, {"size": "512"}, {"size": "512"}]}}}, "dtype": {"type": "DT_FLOAT"}}}, {"name": "Func/StatefulPartitionedCall/input/_35", "op": "Const", "input": ["^Func/StatefulPartitionedCall/input_control_node/_0"], "attr": {"value": {"tensor": {"dtype": "DT_FLOAT", "tensorShape": {"dim": [{"size": "512"}]}}}, "dtype": {"type": "DT_FLOAT"}}}, {"name": "Func/StatefulPartitionedCall/input/_38", "op": "Const", "input": ["^Func/StatefulPartitionedCall/input_control_node/_0"], "attr": {"value": {"tensor": {"dtype": "DT_FLOAT", "tensorShape": {"dim": [{"size": "3"}, {"size": "3"}, {"size": "512"}, {"size": "512"}]}}}, "dtype": {"type": "DT_FLOAT"}}}, {"name": "Func/StatefulPartitionedCall/input/_39", "op": "Const", "input": ["^Func/StatefulPartitionedCall/input_control_node/_0"], "attr": {"value": {"tensor": {"dtype": "DT_FLOAT", "tensorShape": {"dim": [{"size": "512"}]}}}, "dtype": {"type": "DT_FLOAT"}}}, {"name": "Func/StatefulPartitionedCall/input/_50", "op": "Const", "input": ["^Func/StatefulPartitionedCall/input_control_node/_0"], "attr": {"value": {"tensor": {"dtype": "DT_FLOAT", "tensorShape": {"dim": [{"size": "3"}, {"size": "3"}, {"size": "512"}, {"size": "512"}]}}}, "dtype": {"type": "DT_FLOAT"}}}, {"name": "Func/StatefulPartitionedCall/input/_51", "op": "Const", "input": ["^Func/StatefulPartitionedCall/input_control_node/_0"], "attr": {"value": {"tensor": {"dtype": "DT_FLOAT", "tensorShape": {"dim": [{"size": "512"}]}}}, "dtype": {"type": "DT_FLOAT"}}}, {"name": "StatefulPartitionedCall/Generator/decoder_up_adaresblock_0/conv_0/Pad/paddings", "op": "Const", "input": ["^Func/StatefulPartitionedCall/input_control_node/_0"], "attr": {"value": {"tensor": {"dtype": "DT_INT32", "tensorShape": {"dim": [{"size": "4"}, {"size": "2"}]}}}, "dtype": {"type": "DT_INT32"}}}, {"name": "Func/StatefulPartitionedCall/input/_54", "op": "Const", "input": ["^Func/StatefulPartitionedCall/input_control_node/_0"], "attr": {"value": {"tensor": {"dtype": "DT_FLOAT", "tensorShape": {"dim": [{"size": "3"}, {"size": "3"}, {"size": "512"}, {"size": "512"}]}}}, "dtype": {"type": "DT_FLOAT"}}}, {"name": "Func/StatefulPartitionedCall/input/_55", "op": "Const", "input": ["^Func/StatefulPartitionedCall/input_control_node/_0"], "attr": {"value": {"tensor": {"dtype": "DT_FLOAT", "tensorShape": {"dim": [{"size": "512"}]}}}, "dtype": {"type": "DT_FLOAT"}}}, {"name": "StatefulPartitionedCall/Generator/decoder_up_adaresblock_3/resize/size", "op": "Const", "input": ["^Func/StatefulPartitionedCall/input_control_node/_0"], "attr": {"value": {"tensor": {"dtype": "DT_INT32", "tensorShape": {"dim": [{"size": "2"}]}}}, "dtype": {"type": "DT_INT32"}}}, {"name": "StatefulPartitionedCall/Generator/decoder_up_adaresblock_2/resize/size", "op": "Const", "input": ["^Func/StatefulPartitionedCall/input_control_node/_0"], "attr": {"value": {"tensor": {"dtype": "DT_INT32", "tensorShape": {"dim": [{"size": "2"}]}}}, "dtype": {"type": "DT_INT32"}}}, {"name": "Func/StatefulPartitionedCall/input/_104", "op": "Const", "input": ["^Func/StatefulPartitionedCall/input_control_node/_0"], "attr": {"value": {"tensor": {"dtype": "DT_FLOAT", "tensorShape": {"dim": [{"size": "1"}, {"size": "1"}, {"size": "512"}, {"size": "256"}]}}}, "dtype": {"type": "DT_FLOAT"}}}, {"name": "StatefulPartitionedCall/Generator/decoder_up_adaresblock_1/resize/size", "op": "Const", "input": ["^Func/StatefulPartitionedCall/input_control_node/_0"], "attr": {"value": {"tensor": {"dtype": "DT_INT32", "tensorShape": {"dim": [{"size": "2"}]}}}, "dtype": {"type": "DT_INT32"}}}, {"name": "Func/StatefulPartitionedCall/input/_133", "op": "Const", "input": ["^Func/StatefulPartitionedCall/input_control_node/_0"], "attr": {"value": {"tensor": {"dtype": "DT_FLOAT", "tensorShape": {"dim": [{"size": "1"}, {"size": "1"}, {"size": "64"}, {"size": "3"}]}}}, "dtype": {"type": "DT_FLOAT"}}}, {"name": "Func/StatefulPartitionedCall/input/_117", "op": "Const", "input": ["^Func/StatefulPartitionedCall/input_control_node/_0"], "attr": {"value": {"tensor": {"dtype": "DT_FLOAT", "tensorShape": {"dim": [{"size": "1"}, {"size": "1"}, {"size": "256"}, {"size": "128"}]}}}, "dtype": {"type": "DT_FLOAT"}}}, {"name": "StatefulPartitionedCall/Generator/decoder_up_adaresblock_0/adain_1/FullyConnected/flatten/Reshape", "op": "Reshape", "input": ["input_2", "StatefulPartitionedCall/Generator/decoder_up_adaresblock_0/adain_1/FullyConnected/flatten/Const"], "attr": {"T": {"type": "DT_FLOAT"}, "Tshape": {"type": "DT_INT32"}}}, {"name": "StatefulPartitionedCall/Generator/from_rgb/Pad", "op": "Pad", "input": ["input_1", "StatefulPartitionedCall/Generator/decoder_up_adaresblock_0/conv_0/Pad/paddings"], "attr": {"T": {"type": "DT_FLOAT"}, "Tpaddings": {"type": "DT_INT32"}}}, {"name": "StatefulPartitionedCall/Generator/decoder_up_adaresblock_0/adain_1/FullyConnected_1/FullyConnected/BiasAdd", "op": "_FusedMatMul", "input": ["StatefulPartitionedCall/Generator/decoder_up_adaresblock_0/adain_1/FullyConnected/flatten/Reshape", "Func/StatefulPartitionedCall/input/_126", "Func/StatefulPartitionedCall/input/_127"], "device": "/device:CPU:0", "attr": {"T": {"type": "DT_FLOAT"}, "num_args": {"i": "1"}, "epsilon": {"f": 0.0}, "fused_ops": {"list": {"s": ["Qmlhc0FkZA=="]}}, "transpose_a": {"b": false}, "transpose_b": {"b": false}}}, {"name": "StatefulPartitionedCall/Generator/decoder_up_adaresblock_0/adain_1/FullyConnected/FullyConnected/BiasAdd", "op": "_FusedMatMul", "input": ["StatefulPartitionedCall/Generator/decoder_up_adaresblock_0/adain_1/FullyConnected/flatten/Reshape", "Func/StatefulPartitionedCall/input/_124", "Func/StatefulPartitionedCall/input/_125"], "device": "/device:CPU:0", "attr": {"num_args": {"i": "1"}, "epsilon": {"f": 0.0}, "fused_ops": {"list": {"s": ["Qmlhc0FkZA=="]}}, "transpose_a": {"b": false}, "transpose_b": {"b": false}, "T": {"type": "DT_FLOAT"}}}, {"name": "StatefulPartitionedCall/Generator/decoder_up_adaresblock_0/adain_0/FullyConnected_1/FullyConnected/BiasAdd", "op": "_FusedMatMul", "input": ["StatefulPartitionedCall/Generator/decoder_up_adaresblock_0/adain_1/FullyConnected/flatten/Reshape", "Func/StatefulPartitionedCall/input/_120", "Func/StatefulPartitionedCall/input/_121"], "device": "/device:CPU:0", "attr": {"T": {"type": "DT_FLOAT"}, "num_args": {"i": "1"}, "epsilon": {"f": 0.0}, "fused_ops": {"list": {"s": ["Qmlhc0FkZA=="]}}, "transpose_a": {"b": false}, "transpose_b": {"b": false}}}, {"name": "StatefulPartitionedCall/Generator/decoder_up_adaresblock_0/adain_0/FullyConnected/FullyConnected/BiasAdd", "op": "_FusedMatMul", "input": ["StatefulPartitionedCall/Generator/decoder_up_adaresblock_0/adain_1/FullyConnected/flatten/Reshape", "Func/StatefulPartitionedCall/input/_118", "Func/StatefulPartitionedCall/input/_119"], "device": "/device:CPU:0", "attr": {"num_args": {"i": "1"}, "epsilon": {"f": 0.0}, "fused_ops": {"list": {"s": ["Qmlhc0FkZA=="]}}, "transpose_a": {"b": false}, "transpose_b": {"b": false}, "T": {"type": "DT_FLOAT"}}}, {"name": "StatefulPartitionedCall/Generator/decoder_up_adaresblock_1/adain_1/FullyConnected_1/FullyConnected/BiasAdd", "op": "_FusedMatMul", "input": ["StatefulPartitionedCall/Generator/decoder_up_adaresblock_0/adain_1/FullyConnected/flatten/Reshape", "Func/StatefulPartitionedCall/input/_113", "Func/StatefulPartitionedCall/input/_114"], "device": "/device:CPU:0", "attr": {"num_args": {"i": "1"}, "epsilon": {"f": 0.0}, "fused_ops": {"list": {"s": ["Qmlhc0FkZA=="]}}, "transpose_a": {"b": false}, "transpose_b": {"b": false}, "T": {"type": "DT_FLOAT"}}}, {"name": "StatefulPartitionedCall/Generator/decoder_up_adaresblock_1/adain_1/FullyConnected/FullyConnected/BiasAdd", "op": "_FusedMatMul", "input": ["StatefulPartitionedCall/Generator/decoder_up_adaresblock_0/adain_1/FullyConnected/flatten/Reshape", "Func/StatefulPartitionedCall/input/_111", "Func/StatefulPartitionedCall/input/_112"], "device": "/device:CPU:0", "attr": {"num_args": {"i": "1"}, "epsilon": {"f": 0.0}, "fused_ops": {"list": {"s": ["Qmlhc0FkZA=="]}}, "transpose_a": {"b": false}, "transpose_b": {"b": false}, "T": {"type": "DT_FLOAT"}}}, {"name": "StatefulPartitionedCall/Generator/decoder_up_adaresblock_1/adain_0/FullyConnected_1/FullyConnected/BiasAdd", "op": "_FusedMatMul", "input": ["StatefulPartitionedCall/Generator/decoder_up_adaresblock_0/adain_1/FullyConnected/flatten/Reshape", "Func/StatefulPartitionedCall/input/_107", "Func/StatefulPartitionedCall/input/_108"], "device": "/device:CPU:0", "attr": {"transpose_a": {"b": false}, "transpose_b": {"b": false}, "T": {"type": "DT_FLOAT"}, "num_args": {"i": "1"}, "epsilon": {"f": 0.0}, "fused_ops": {"list": {"s": ["Qmlhc0FkZA=="]}}}}, {"name": "StatefulPartitionedCall/Generator/decoder_up_adaresblock_1/adain_0/FullyConnected/FullyConnected/BiasAdd", "op": "_FusedMatMul", "input": ["StatefulPartitionedCall/Generator/decoder_up_adaresblock_0/adain_1/FullyConnected/flatten/Reshape", "Func/StatefulPartitionedCall/input/_105", "Func/StatefulPartitionedCall/input/_106"], "device": "/device:CPU:0", "attr": {"fused_ops": {"list": {"s": ["Qmlhc0FkZA=="]}}, "transpose_a": {"b": false}, "transpose_b": {"b": false}, "T": {"type": "DT_FLOAT"}, "num_args": {"i": "1"}, "epsilon": {"f": 0.0}}}, {"name": "StatefulPartitionedCall/Generator/decoder_up_adaresblock_2/adain_1/FullyConnected_1/FullyConnected/BiasAdd", "op": "_FusedMatMul", "input": ["StatefulPartitionedCall/Generator/decoder_up_adaresblock_0/adain_1/FullyConnected/flatten/Reshape", "Func/StatefulPartitionedCall/input/_100", "Func/StatefulPartitionedCall/input/_101"], "device": "/device:CPU:0", "attr": {"num_args": {"i": "1"}, "epsilon": {"f": 0.0}, "fused_ops": {"list": {"s": ["Qmlhc0FkZA=="]}}, "transpose_a": {"b": false}, "transpose_b": {"b": false}, "T": {"type": "DT_FLOAT"}}}, {"name": "StatefulPartitionedCall/Generator/decoder_up_adaresblock_2/adain_1/FullyConnected/FullyConnected/BiasAdd", "op": "_FusedMatMul", "input": ["StatefulPartitionedCall/Generator/decoder_up_adaresblock_0/adain_1/FullyConnected/flatten/Reshape", "Func/StatefulPartitionedCall/input/_98", "Func/StatefulPartitionedCall/input/_99"], "device": "/device:CPU:0", "attr": {"transpose_a": {"b": false}, "transpose_b": {"b": false}, "T": {"type": "DT_FLOAT"}, "num_args": {"i": "1"}, "epsilon": {"f": 0.0}, "fused_ops": {"list": {"s": ["Qmlhc0FkZA=="]}}}}, {"name": "StatefulPartitionedCall/Generator/decoder_up_adaresblock_2/adain_0/FullyConnected_1/FullyConnected/BiasAdd", "op": "_FusedMatMul", "input": ["StatefulPartitionedCall/Generator/decoder_up_adaresblock_0/adain_1/FullyConnected/flatten/Reshape", "Func/StatefulPartitionedCall/input/_94", "Func/StatefulPartitionedCall/input/_95"], "device": "/device:CPU:0", "attr": {"transpose_a": {"b": false}, "transpose_b": {"b": false}, "T": {"type": "DT_FLOAT"}, "num_args": {"i": "1"}, "epsilon": {"f": 0.0}, "fused_ops": {"list": {"s": ["Qmlhc0FkZA=="]}}}}, {"name": "StatefulPartitionedCall/Generator/decoder_up_adaresblock_2/adain_0/FullyConnected/FullyConnected/BiasAdd", "op": "_FusedMatMul", "input": ["StatefulPartitionedCall/Generator/decoder_up_adaresblock_0/adain_1/FullyConnected/flatten/Reshape", "Func/StatefulPartitionedCall/input/_92", "Func/StatefulPartitionedCall/input/_93"], "device": "/device:CPU:0", "attr": {"transpose_a": {"b": false}, "transpose_b": {"b": false}, "T": {"type": "DT_FLOAT"}, "num_args": {"i": "1"}, "epsilon": {"f": 0.0}, "fused_ops": {"list": {"s": ["Qmlhc0FkZA=="]}}}}, {"name": "StatefulPartitionedCall/Generator/decoder_up_adaresblock_3/adain_1/FullyConnected_1/FullyConnected/BiasAdd", "op": "_FusedMatMul", "input": ["StatefulPartitionedCall/Generator/decoder_up_adaresblock_0/adain_1/FullyConnected/flatten/Reshape", "Func/StatefulPartitionedCall/input/_88", "Func/StatefulPartitionedCall/input/_89"], "device": "/device:CPU:0", "attr": {"epsilon": {"f": 0.0}, "fused_ops": {"list": {"s": ["Qmlhc0FkZA=="]}}, "transpose_a": {"b": false}, "transpose_b": {"b": false}, "T": {"type": "DT_FLOAT"}, "num_args": {"i": "1"}}}, {"name": "StatefulPartitionedCall/Generator/decoder_up_adaresblock_3/adain_1/FullyConnected/FullyConnected/BiasAdd", "op": "_FusedMatMul", "input": ["StatefulPartitionedCall/Generator/decoder_up_adaresblock_0/adain_1/FullyConnected/flatten/Reshape", "Func/StatefulPartitionedCall/input/_86", "Func/StatefulPartitionedCall/input/_87"], "device": "/device:CPU:0", "attr": {"num_args": {"i": "1"}, "epsilon": {"f": 0.0}, "fused_ops": {"list": {"s": ["Qmlhc0FkZA=="]}}, "transpose_a": {"b": false}, "transpose_b": {"b": false}, "T": {"type": "DT_FLOAT"}}}, {"name": "StatefulPartitionedCall/Generator/decoder_up_adaresblock_3/adain_0/FullyConnected_1/FullyConnected/BiasAdd", "op": "_FusedMatMul", "input": ["StatefulPartitionedCall/Generator/decoder_up_adaresblock_0/adain_1/FullyConnected/flatten/Reshape", "Func/StatefulPartitionedCall/input/_82", "Func/StatefulPartitionedCall/input/_83"], "device": "/device:CPU:0", "attr": {"T": {"type": "DT_FLOAT"}, "num_args": {"i": "1"}, "epsilon": {"f": 0.0}, "fused_ops": {"list": {"s": ["Qmlhc0FkZA=="]}}, "transpose_a": {"b": false}, "transpose_b": {"b": false}}}, {"name": "StatefulPartitionedCall/Generator/decoder_up_adaresblock_3/adain_0/FullyConnected/FullyConnected/BiasAdd", "op": "_FusedMatMul", "input": ["StatefulPartitionedCall/Generator/decoder_up_adaresblock_0/adain_1/FullyConnected/flatten/Reshape", "Func/StatefulPartitionedCall/input/_80", "Func/StatefulPartitionedCall/input/_81"], "device": "/device:CPU:0", "attr": {"epsilon": {"f": 0.0}, "fused_ops": {"list": {"s": ["Qmlhc0FkZA=="]}}, "transpose_a": {"b": false}, "transpose_b": {"b": false}, "T": {"type": "DT_FLOAT"}, "num_args": {"i": "1"}}}, {"name": "StatefulPartitionedCall/Generator/decoder_bottleneck_adaresblock_0/adain_1/FullyConnected_1/FullyConnected/BiasAdd", "op": "_FusedMatMul", "input": ["StatefulPartitionedCall/Generator/decoder_up_adaresblock_0/adain_1/FullyConnected/flatten/Reshape", "Func/StatefulPartitionedCall/input/_76", "Func/StatefulPartitionedCall/input/_77"], "device": "/device:CPU:0", "attr": {"T": {"type": "DT_FLOAT"}, "num_args": {"i": "1"}, "epsilon": {"f": 0.0}, "fused_ops": {"list": {"s": ["Qmlhc0FkZA=="]}}, "transpose_a": {"b": false}, "transpose_b": {"b": false}}}, {"name": "StatefulPartitionedCall/Generator/decoder_bottleneck_adaresblock_0/adain_1/FullyConnected/FullyConnected/BiasAdd", "op": "_FusedMatMul", "input": ["StatefulPartitionedCall/Generator/decoder_up_adaresblock_0/adain_1/FullyConnected/flatten/Reshape", "Func/StatefulPartitionedCall/input/_74", "Func/StatefulPartitionedCall/input/_75"], "device": "/device:CPU:0", "attr": {"epsilon": {"f": 0.0}, "fused_ops": {"list": {"s": ["Qmlhc0FkZA=="]}}, "transpose_a": {"b": false}, "transpose_b": {"b": false}, "T": {"type": "DT_FLOAT"}, "num_args": {"i": "1"}}}, {"name": "StatefulPartitionedCall/Generator/decoder_bottleneck_adaresblock_0/adain_0/FullyConnected_1/FullyConnected/BiasAdd", "op": "_FusedMatMul", "input": ["StatefulPartitionedCall/Generator/decoder_up_adaresblock_0/adain_1/FullyConnected/flatten/Reshape", "Func/StatefulPartitionedCall/input/_70", "Func/StatefulPartitionedCall/input/_71"], "device": "/device:CPU:0", "attr": {"transpose_a": {"b": false}, "transpose_b": {"b": false}, "T": {"type": "DT_FLOAT"}, "num_args": {"i": "1"}, "epsilon": {"f": 0.0}, "fused_ops": {"list": {"s": ["Qmlhc0FkZA=="]}}}}, {"name": "StatefulPartitionedCall/Generator/decoder_bottleneck_adaresblock_0/adain_0/FullyConnected/FullyConnected/BiasAdd", "op": "_FusedMatMul", "input": ["StatefulPartitionedCall/Generator/decoder_up_adaresblock_0/adain_1/FullyConnected/flatten/Reshape", "Func/StatefulPartitionedCall/input/_68", "Func/StatefulPartitionedCall/input/_69"], "device": "/device:CPU:0", "attr": {"T": {"type": "DT_FLOAT"}, "num_args": {"i": "1"}, "epsilon": {"f": 0.0}, "fused_ops": {"list": {"s": ["Qmlhc0FkZA=="]}}, "transpose_a": {"b": false}, "transpose_b": {"b": false}}}, {"name": "StatefulPartitionedCall/Generator/decoder_bottleneck_adaresblock_1/adain_1/FullyConnected_1/FullyConnected/BiasAdd", "op": "_FusedMatMul", "input": ["StatefulPartitionedCall/Generator/decoder_up_adaresblock_0/adain_1/FullyConnected/flatten/Reshape", "Func/StatefulPartitionedCall/input/_64", "Func/StatefulPartitionedCall/input/_65"], "device": "/device:CPU:0", "attr": {"num_args": {"i": "1"}, "epsilon": {"f": 0.0}, "fused_ops": {"list": {"s": ["Qmlhc0FkZA=="]}}, "transpose_a": {"b": false}, "transpose_b": {"b": false}, "T": {"type": "DT_FLOAT"}}}, {"name": "StatefulPartitionedCall/Generator/decoder_bottleneck_adaresblock_1/adain_1/FullyConnected/FullyConnected/BiasAdd", "op": "_FusedMatMul", "input": ["StatefulPartitionedCall/Generator/decoder_up_adaresblock_0/adain_1/FullyConnected/flatten/Reshape", "Func/StatefulPartitionedCall/input/_62", "Func/StatefulPartitionedCall/input/_63"], "device": "/device:CPU:0", "attr": {"transpose_a": {"b": false}, "transpose_b": {"b": false}, "T": {"type": "DT_FLOAT"}, "num_args": {"i": "1"}, "epsilon": {"f": 0.0}, "fused_ops": {"list": {"s": ["Qmlhc0FkZA=="]}}}}, {"name": "StatefulPartitionedCall/Generator/decoder_bottleneck_adaresblock_1/adain_0/FullyConnected_1/FullyConnected/BiasAdd", "op": "_FusedMatMul", "input": ["StatefulPartitionedCall/Generator/decoder_up_adaresblock_0/adain_1/FullyConnected/flatten/Reshape", "Func/StatefulPartitionedCall/input/_58", "Func/StatefulPartitionedCall/input/_59"], "device": "/device:CPU:0", "attr": {"epsilon": {"f": 0.0}, "fused_ops": {"list": {"s": ["Qmlhc0FkZA=="]}}, "transpose_a": {"b": false}, "transpose_b": {"b": false}, "T": {"type": "DT_FLOAT"}, "num_args": {"i": "1"}}}, {"name": "StatefulPartitionedCall/Generator/decoder_bottleneck_adaresblock_1/adain_0/FullyConnected/FullyConnected/BiasAdd", "op": "_FusedMatMul", "input": ["StatefulPartitionedCall/Generator/decoder_up_adaresblock_0/adain_1/FullyConnected/flatten/Reshape", "Func/StatefulPartitionedCall/input/_56", "Func/StatefulPartitionedCall/input/_57"], "device": "/device:CPU:0", "attr": {"transpose_b": {"b": false}, "T": {"type": "DT_FLOAT"}, "num_args": {"i": "1"}, "epsilon": {"f": 0.0}, "fused_ops": {"list": {"s": ["Qmlhc0FkZA=="]}}, "transpose_a": {"b": false}}}, {"name": "StatefulPartitionedCall/Generator/from_rgb/from_rgb/BiasAdd", "op": "_FusedConv2D", "input": ["StatefulPartitionedCall/Generator/from_rgb/Pad", "Func/StatefulPartitionedCall/input/_3", "Func/StatefulPartitionedCall/input/_4"], "device": "/device:CPU:0", "attr": {"dilations": {"list": {"i": ["1", "1", "1", "1"]}}, "T": {"type": "DT_FLOAT"}, "data_format": {"s": "TkhXQw=="}, "strides": {"list": {"i": ["1", "1", "1", "1"]}}, "explicit_paddings": {"list": {}}, "use_cudnn_on_gpu": {"b": true}, "num_args": {"i": "1"}, "epsilon": {"f": 0.0}, "padding": {"s": "VkFMSUQ="}, "fused_ops": {"list": {"s": ["Qmlhc0FkZA=="]}}}}, {"name": "StatefulPartitionedCall/Generator/decoder_up_adaresblock_0/adain_1/Reshape_1", "op": "Reshape", "input": ["StatefulPartitionedCall/Generator/decoder_up_adaresblock_0/adain_1/FullyConnected_1/FullyConnected/BiasAdd", "StatefulPartitionedCall/Generator/decoder_up_adaresblock_0/adain_1/Reshape/shape"], "attr": {"T": {"type": "DT_FLOAT"}, "Tshape": {"type": "DT_INT32"}}}, {"name": "StatefulPartitionedCall/Generator/decoder_up_adaresblock_0/adain_1/Reshape", "op": "Reshape", "input": ["StatefulPartitionedCall/Generator/decoder_up_adaresblock_0/adain_1/FullyConnected/FullyConnected/BiasAdd", "StatefulPartitionedCall/Generator/decoder_up_adaresblock_0/adain_1/Reshape/shape"], "attr": {"T": {"type": "DT_FLOAT"}, "Tshape": {"type": "DT_INT32"}}}, {"name": "StatefulPartitionedCall/Generator/decoder_up_adaresblock_0/adain_0/Reshape_1", "op": "Reshape", "input": ["StatefulPartitionedCall/Generator/decoder_up_adaresblock_0/adain_0/FullyConnected_1/FullyConnected/BiasAdd", "StatefulPartitionedCall/Generator/decoder_up_adaresblock_0/adain_0/Reshape/shape"], "attr": {"T": {"type": "DT_FLOAT"}, "Tshape": {"type": "DT_INT32"}}}, {"name": "StatefulPartitionedCall/Generator/decoder_up_adaresblock_0/adain_0/Reshape", "op": "Reshape", "input": ["StatefulPartitionedCall/Generator/decoder_up_adaresblock_0/adain_0/FullyConnected/FullyConnected/BiasAdd", "StatefulPartitionedCall/Generator/decoder_up_adaresblock_0/adain_0/Reshape/shape"], "attr": {"T": {"type": "DT_FLOAT"}, "Tshape": {"type": "DT_INT32"}}}, {"name": "StatefulPartitionedCall/Generator/decoder_up_adaresblock_1/adain_1/Reshape_1", "op": "Reshape", "input": ["StatefulPartitionedCall/Generator/decoder_up_adaresblock_1/adain_1/FullyConnected_1/FullyConnected/BiasAdd", "StatefulPartitionedCall/Generator/decoder_up_adaresblock_0/adain_0/Reshape/shape"], "attr": {"T": {"type": "DT_FLOAT"}, "Tshape": {"type": "DT_INT32"}}}, {"name": "StatefulPartitionedCall/Generator/decoder_up_adaresblock_1/adain_1/Reshape", "op": "Reshape", "input": ["StatefulPartitionedCall/Generator/decoder_up_adaresblock_1/adain_1/FullyConnected/FullyConnected/BiasAdd", "StatefulPartitionedCall/Generator/decoder_up_adaresblock_0/adain_0/Reshape/shape"], "attr": {"T": {"type": "DT_FLOAT"}, "Tshape": {"type": "DT_INT32"}}}, {"name": "StatefulPartitionedCall/Generator/decoder_up_adaresblock_1/adain_0/Reshape_1", "op": "Reshape", "input": ["StatefulPartitionedCall/Generator/decoder_up_adaresblock_1/adain_0/FullyConnected_1/FullyConnected/BiasAdd", "StatefulPartitionedCall/Generator/decoder_up_adaresblock_1/adain_0/Reshape/shape"], "attr": {"T": {"type": "DT_FLOAT"}, "Tshape": {"type": "DT_INT32"}}}, {"name": "StatefulPartitionedCall/Generator/decoder_up_adaresblock_1/adain_0/Reshape", "op": "Reshape", "input": ["StatefulPartitionedCall/Generator/decoder_up_adaresblock_1/adain_0/FullyConnected/FullyConnected/BiasAdd", "StatefulPartitionedCall/Generator/decoder_up_adaresblock_1/adain_0/Reshape/shape"], "attr": {"T": {"type": "DT_FLOAT"}, "Tshape": {"type": "DT_INT32"}}}, {"name": "StatefulPartitionedCall/Generator/decoder_up_adaresblock_2/adain_1/Reshape_1", "op": "Reshape", "input": ["StatefulPartitionedCall/Generator/decoder_up_adaresblock_2/adain_1/FullyConnected_1/FullyConnected/BiasAdd", "StatefulPartitionedCall/Generator/decoder_up_adaresblock_1/adain_0/Reshape/shape"], "attr": {"T": {"type": "DT_FLOAT"}, "Tshape": {"type": "DT_INT32"}}}, {"name": "StatefulPartitionedCall/Generator/decoder_up_adaresblock_2/adain_1/Reshape", "op": "Reshape", "input": ["StatefulPartitionedCall/Generator/decoder_up_adaresblock_2/adain_1/FullyConnected/FullyConnected/BiasAdd", "StatefulPartitionedCall/Generator/decoder_up_adaresblock_1/adain_0/Reshape/shape"], "attr": {"T": {"type": "DT_FLOAT"}, "Tshape": {"type": "DT_INT32"}}}, {"name": "StatefulPartitionedCall/Generator/decoder_up_adaresblock_2/adain_0/Reshape_1", "op": "Reshape", "input": ["StatefulPartitionedCall/Generator/decoder_up_adaresblock_2/adain_0/FullyConnected_1/FullyConnected/BiasAdd", "StatefulPartitionedCall/Generator/decoder_up_adaresblock_2/adain_0/Reshape/shape"], "attr": {"T": {"type": "DT_FLOAT"}, "Tshape": {"type": "DT_INT32"}}}, {"name": "StatefulPartitionedCall/Generator/decoder_up_adaresblock_2/adain_0/Reshape", "op": "Reshape", "input": ["StatefulPartitionedCall/Generator/decoder_up_adaresblock_2/adain_0/FullyConnected/FullyConnected/BiasAdd", "StatefulPartitionedCall/Generator/decoder_up_adaresblock_2/adain_0/Reshape/shape"], "attr": {"Tshape": {"type": "DT_INT32"}, "T": {"type": "DT_FLOAT"}}}, {"name": "StatefulPartitionedCall/Generator/decoder_up_adaresblock_3/adain_1/Reshape_1", "op": "Reshape", "input": ["StatefulPartitionedCall/Generator/decoder_up_adaresblock_3/adain_1/FullyConnected_1/FullyConnected/BiasAdd", "StatefulPartitionedCall/Generator/decoder_up_adaresblock_2/adain_0/Reshape/shape"], "attr": {"Tshape": {"type": "DT_INT32"}, "T": {"type": "DT_FLOAT"}}}, {"name": "StatefulPartitionedCall/Generator/decoder_up_adaresblock_3/adain_1/Reshape", "op": "Reshape", "input": ["StatefulPartitionedCall/Generator/decoder_up_adaresblock_3/adain_1/FullyConnected/FullyConnected/BiasAdd", "StatefulPartitionedCall/Generator/decoder_up_adaresblock_2/adain_0/Reshape/shape"], "attr": {"T": {"type": "DT_FLOAT"}, "Tshape": {"type": "DT_INT32"}}}, {"name": "StatefulPartitionedCall/Generator/decoder_up_adaresblock_3/adain_0/Reshape_1", "op": "Reshape", "input": ["StatefulPartitionedCall/Generator/decoder_up_adaresblock_3/adain_0/FullyConnected_1/FullyConnected/BiasAdd", "StatefulPartitionedCall/Generator/decoder_up_adaresblock_2/adain_0/Reshape/shape"], "attr": {"T": {"type": "DT_FLOAT"}, "Tshape": {"type": "DT_INT32"}}}, {"name": "StatefulPartitionedCall/Generator/decoder_up_adaresblock_3/adain_0/Reshape", "op": "Reshape", "input": ["StatefulPartitionedCall/Generator/decoder_up_adaresblock_3/adain_0/FullyConnected/FullyConnected/BiasAdd", "StatefulPartitionedCall/Generator/decoder_up_adaresblock_2/adain_0/Reshape/shape"], "attr": {"T": {"type": "DT_FLOAT"}, "Tshape": {"type": "DT_INT32"}}}, {"name": "StatefulPartitionedCall/Generator/decoder_bottleneck_adaresblock_0/adain_1/Reshape_1", "op": "Reshape", "input": ["StatefulPartitionedCall/Generator/decoder_bottleneck_adaresblock_0/adain_1/FullyConnected_1/FullyConnected/BiasAdd", "StatefulPartitionedCall/Generator/decoder_up_adaresblock_2/adain_0/Reshape/shape"], "attr": {"T": {"type": "DT_FLOAT"}, "Tshape": {"type": "DT_INT32"}}}, {"name": "StatefulPartitionedCall/Generator/decoder_bottleneck_adaresblock_0/adain_1/Reshape", "op": "Reshape", "input": ["StatefulPartitionedCall/Generator/decoder_bottleneck_adaresblock_0/adain_1/FullyConnected/FullyConnected/BiasAdd", "StatefulPartitionedCall/Generator/decoder_up_adaresblock_2/adain_0/Reshape/shape"], "attr": {"Tshape": {"type": "DT_INT32"}, "T": {"type": "DT_FLOAT"}}}, {"name": "StatefulPartitionedCall/Generator/decoder_bottleneck_adaresblock_0/adain_0/Reshape_1", "op": "Reshape", "input": ["StatefulPartitionedCall/Generator/decoder_bottleneck_adaresblock_0/adain_0/FullyConnected_1/FullyConnected/BiasAdd", "StatefulPartitionedCall/Generator/decoder_up_adaresblock_2/adain_0/Reshape/shape"], "attr": {"T": {"type": "DT_FLOAT"}, "Tshape": {"type": "DT_INT32"}}}, {"name": "StatefulPartitionedCall/Generator/decoder_bottleneck_adaresblock_0/adain_0/Reshape", "op": "Reshape", "input": ["StatefulPartitionedCall/Generator/decoder_bottleneck_adaresblock_0/adain_0/FullyConnected/FullyConnected/BiasAdd", "StatefulPartitionedCall/Generator/decoder_up_adaresblock_2/adain_0/Reshape/shape"], "attr": {"Tshape": {"type": "DT_INT32"}, "T": {"type": "DT_FLOAT"}}}, {"name": "StatefulPartitionedCall/Generator/decoder_bottleneck_adaresblock_1/adain_1/Reshape_1", "op": "Reshape", "input": ["StatefulPartitionedCall/Generator/decoder_bottleneck_adaresblock_1/adain_1/FullyConnected_1/FullyConnected/BiasAdd", "StatefulPartitionedCall/Generator/decoder_up_adaresblock_2/adain_0/Reshape/shape"], "attr": {"T": {"type": "DT_FLOAT"}, "Tshape": {"type": "DT_INT32"}}}, {"name": "StatefulPartitionedCall/Generator/decoder_bottleneck_adaresblock_1/adain_1/Reshape", "op": "Reshape", "input": ["StatefulPartitionedCall/Generator/decoder_bottleneck_adaresblock_1/adain_1/FullyConnected/FullyConnected/BiasAdd", "StatefulPartitionedCall/Generator/decoder_up_adaresblock_2/adain_0/Reshape/shape"], "attr": {"T": {"type": "DT_FLOAT"}, "Tshape": {"type": "DT_INT32"}}}, {"name": "StatefulPartitionedCall/Generator/decoder_bottleneck_adaresblock_1/adain_0/Reshape_1", "op": "Reshape", "input": ["StatefulPartitionedCall/Generator/decoder_bottleneck_adaresblock_1/adain_0/FullyConnected_1/FullyConnected/BiasAdd", "StatefulPartitionedCall/Generator/decoder_up_adaresblock_2/adain_0/Reshape/shape"], "attr": {"T": {"type": "DT_FLOAT"}, "Tshape": {"type": "DT_INT32"}}}, {"name": "StatefulPartitionedCall/Generator/decoder_bottleneck_adaresblock_1/adain_0/Reshape", "op": "Reshape", "input": ["StatefulPartitionedCall/Generator/decoder_bottleneck_adaresblock_1/adain_0/FullyConnected/FullyConnected/BiasAdd", "StatefulPartitionedCall/Generator/decoder_up_adaresblock_2/adain_0/Reshape/shape"], "attr": {"T": {"type": "DT_FLOAT"}, "Tshape": {"type": "DT_INT32"}}}, {"name": "StatefulPartitionedCall/Generator/encoder_down_resblock_0/skip_conv/skip_conv/Conv2D", "op": "Conv2D", "input": ["StatefulPartitionedCall/Generator/from_rgb/from_rgb/BiasAdd", "Func/StatefulPartitionedCall/input/_13"], "device": "/device:CPU:0", "attr": {"dilations": {"list": {"i": ["1", "1", "1", "1"]}}, "T": {"type": "DT_FLOAT"}, "data_format": {"s": "TkhXQw=="}, "strides": {"list": {"i": ["1", "1", "1", "1"]}}, "use_cudnn_on_gpu": {"b": true}, "explicit_paddings": {"list": {}}, "padding": {"s": "VkFMSUQ="}}}, {"name": "StatefulPartitionedCall/Generator/encoder_down_resblock_0/instance_norm_0/Shape", "op": "Shape", "input": ["StatefulPartitionedCall/Generator/from_rgb/from_rgb/BiasAdd"], "attr": {"out_type": {"type": "DT_INT32"}, "T": {"type": "DT_FLOAT"}}}, {"name": "StatefulPartitionedCall/Generator/decoder_up_adaresblock_0/adain_1/add_1", "op": "AddV2", "input": ["StatefulPartitionedCall/Generator/decoder_up_adaresblock_0/adain_1/Reshape", "StatefulPartitionedCall/Generator/decoder_up_adaresblock_0/adain_1/add_1/x"], "attr": {"T": {"type": "DT_FLOAT"}}}, {"name": "StatefulPartitionedCall/Generator/decoder_up_adaresblock_0/adain_0/add_1", "op": "AddV2", "input": ["StatefulPartitionedCall/Generator/decoder_up_adaresblock_0/adain_0/Reshape", "StatefulPartitionedCall/Generator/decoder_up_adaresblock_0/adain_1/add_1/x"], "attr": {"T": {"type": "DT_FLOAT"}}}, {"name": "StatefulPartitionedCall/Generator/decoder_up_adaresblock_1/adain_1/add_1", "op": "AddV2", "input": ["StatefulPartitionedCall/Generator/decoder_up_adaresblock_0/adain_1/add_1/x", "StatefulPartitionedCall/Generator/decoder_up_adaresblock_1/adain_1/Reshape"], "attr": {"T": {"type": "DT_FLOAT"}}}, {"name": "StatefulPartitionedCall/Generator/decoder_up_adaresblock_1/adain_0/add_1", "op": "AddV2", "input": ["StatefulPartitionedCall/Generator/decoder_up_adaresblock_0/adain_1/add_1/x", "StatefulPartitionedCall/Generator/decoder_up_adaresblock_1/adain_0/Reshape"], "attr": {"T": {"type": "DT_FLOAT"}}}, {"name": "StatefulPartitionedCall/Generator/decoder_up_adaresblock_2/adain_1/add_1", "op": "AddV2", "input": ["StatefulPartitionedCall/Generator/decoder_up_adaresblock_0/adain_1/add_1/x", "StatefulPartitionedCall/Generator/decoder_up_adaresblock_2/adain_1/Reshape"], "attr": {"T": {"type": "DT_FLOAT"}}}, {"name": "StatefulPartitionedCall/Generator/decoder_up_adaresblock_2/adain_0/add_1", "op": "AddV2", "input": ["StatefulPartitionedCall/Generator/decoder_up_adaresblock_0/adain_1/add_1/x", "StatefulPartitionedCall/Generator/decoder_up_adaresblock_2/adain_0/Reshape"], "attr": {"T": {"type": "DT_FLOAT"}}}, {"name": "StatefulPartitionedCall/Generator/decoder_up_adaresblock_3/adain_1/add_1", "op": "AddV2", "input": ["StatefulPartitionedCall/Generator/decoder_up_adaresblock_0/adain_1/add_1/x", "StatefulPartitionedCall/Generator/decoder_up_adaresblock_3/adain_1/Reshape"], "attr": {"T": {"type": "DT_FLOAT"}}}, {"name": "StatefulPartitionedCall/Generator/decoder_up_adaresblock_3/adain_0/add_1", "op": "AddV2", "input": ["StatefulPartitionedCall/Generator/decoder_up_adaresblock_0/adain_1/add_1/x", "StatefulPartitionedCall/Generator/decoder_up_adaresblock_3/adain_0/Reshape"], "attr": {"T": {"type": "DT_FLOAT"}}}, {"name": "StatefulPartitionedCall/Generator/decoder_bottleneck_adaresblock_0/adain_1/add_1", "op": "AddV2", "input": ["StatefulPartitionedCall/Generator/decoder_bottleneck_adaresblock_0/adain_1/Reshape", "StatefulPartitionedCall/Generator/decoder_up_adaresblock_0/adain_1/add_1/x"], "attr": {"T": {"type": "DT_FLOAT"}}}, {"name": "StatefulPartitionedCall/Generator/decoder_bottleneck_adaresblock_0/adain_0/add_1", "op": "AddV2", "input": ["StatefulPartitionedCall/Generator/decoder_bottleneck_adaresblock_0/adain_0/Reshape", "StatefulPartitionedCall/Generator/decoder_up_adaresblock_0/adain_1/add_1/x"], "attr": {"T": {"type": "DT_FLOAT"}}}, {"name": "StatefulPartitionedCall/Generator/decoder_bottleneck_adaresblock_1/adain_1/add_1", "op": "AddV2", "input": ["StatefulPartitionedCall/Generator/decoder_bottleneck_adaresblock_1/adain_1/Reshape", "StatefulPartitionedCall/Generator/decoder_up_adaresblock_0/adain_1/add_1/x"], "attr": {"T": {"type": "DT_FLOAT"}}}, {"name": "StatefulPartitionedCall/Generator/decoder_bottleneck_adaresblock_1/adain_0/add_1", "op": "AddV2", "input": ["StatefulPartitionedCall/Generator/decoder_bottleneck_adaresblock_1/adain_0/Reshape", "StatefulPartitionedCall/Generator/decoder_up_adaresblock_0/adain_1/add_1/x"], "attr": {"T": {"type": "DT_FLOAT"}}}, {"name": "StatefulPartitionedCall/Generator/encoder_down_resblock_0/avg_pool_1/AvgPool", "op": "AvgPool", "input": ["StatefulPartitionedCall/Generator/encoder_down_resblock_0/skip_conv/skip_conv/Conv2D"], "attr": {"T": {"type": "DT_FLOAT"}, "data_format": {"s": "TkhXQw=="}, "strides": {"list": {"i": ["1", "2", "2", "1"]}}, "ksize": {"list": {"i": ["1", "2", "2", "1"]}}, "padding": {"s": "VkFMSUQ="}}}, {"name": "StatefulPartitionedCall/Generator/encoder_down_resblock_0/instance_norm_0/strided_slice", "op": "StridedSlice", "input": ["StatefulPartitionedCall/Generator/encoder_down_resblock_0/instance_norm_0/Shape", "StatefulPartitionedCall/Generator/sequential/ins_norm/strided_slice/stack", "StatefulPartitionedCall/Generator/sequential/ins_norm/strided_slice/stack_1", "StatefulPartitionedCall/Generator/sequential/ins_norm/strided_slice/stack_1"], "attr": {"shrink_axis_mask": {"i": "1"}, "ellipsis_mask": {"i": "0"}, "begin_mask": {"i": "0"}, "new_axis_mask": {"i": "0"}, "end_mask": {"i": "0"}, "T": {"type": "DT_INT32"}, "Index": {"type": "DT_INT32"}}}, {"name": "StatefulPartitionedCall/Generator/encoder_down_resblock_0/instance_norm_0/strided_slice_1", "op": "StridedSlice", "input": ["StatefulPartitionedCall/Generator/encoder_down_resblock_0/instance_norm_0/Shape", "StatefulPartitionedCall/Generator/sequential/ins_norm/strided_slice/stack_1", "StatefulPartitionedCall/Generator/sequential/ins_norm/strided_slice_1/stack_1", "StatefulPartitionedCall/Generator/sequential/ins_norm/strided_slice/stack_1"], "attr": {"end_mask": {"i": "0"}, "T": {"type": "DT_INT32"}, "Index": {"type": "DT_INT32"}, "shrink_axis_mask": {"i": "1"}, "ellipsis_mask": {"i": "0"}, "begin_mask": {"i": "0"}, "new_axis_mask": {"i": "0"}}}, {"name": "StatefulPartitionedCall/Generator/encoder_down_resblock_0/instance_norm_0/strided_slice_2", "op": "StridedSlice", "input": ["StatefulPartitionedCall/Generator/encoder_down_resblock_0/instance_norm_0/Shape", "StatefulPartitionedCall/Generator/sequential/ins_norm/strided_slice_1/stack_1", "StatefulPartitionedCall/Generator/sequential/ins_norm/strided_slice_2/stack_1", "StatefulPartitionedCall/Generator/sequential/ins_norm/strided_slice/stack_1"], "attr": {"T": {"type": "DT_INT32"}, "Index": {"type": "DT_INT32"}, "shrink_axis_mask": {"i": "1"}, "begin_mask": {"i": "0"}, "ellipsis_mask": {"i": "0"}, "new_axis_mask": {"i": "0"}, "end_mask": {"i": "0"}}}, {"name": "StatefulPartitionedCall/Generator/encoder_down_resblock_0/instance_norm_0/stack", "op": "Pack", "input": ["StatefulPartitionedCall/Generator/encoder_down_resblock_0/instance_norm_0/strided_slice", "StatefulPartitionedCall/Generator/encoder_down_resblock_0/instance_norm_0/strided_slice_1", "StatefulPartitionedCall/Generator/encoder_down_resblock_0/instance_norm_0/strided_slice_2", "StatefulPartitionedCall/Generator/sequential/ins_norm/stack/3", "StatefulPartitionedCall/Generator/sequential/ins_norm/stack/4"], "attr": {"T": {"type": "DT_INT32"}, "axis": {"i": "0"}, "N": {"i": "5"}}}, {"name": "StatefulPartitionedCall/Generator/encoder_down_resblock_0/instance_norm_0/Reshape", "op": "Reshape", "input": ["StatefulPartitionedCall/Generator/from_rgb/from_rgb/BiasAdd", "StatefulPartitionedCall/Generator/encoder_down_resblock_0/instance_norm_0/stack"], "attr": {"T": {"type": "DT_FLOAT"}, "Tshape": {"type": "DT_INT32"}}}, {"name": "StatefulPartitionedCall/Generator/encoder_down_resblock_0/instance_norm_0/moments/mean", "op": "Mean", "input": ["StatefulPartitionedCall/Generator/encoder_down_resblock_0/instance_norm_0/Reshape", "StatefulPartitionedCall/Generator/sequential/ins_norm/moments/mean/reduction_indices"], "attr": {"Tidx": {"type": "DT_INT32"}, "keep_dims": {"b": true}, "T": {"type": "DT_FLOAT"}}}, {"name": "StatefulPartitionedCall/Generator/encoder_down_resblock_0/instance_norm_0/moments/SquaredDifference", "op": "SquaredDifference", "input": ["StatefulPartitionedCall/Generator/encoder_down_resblock_0/instance_norm_0/Reshape", "StatefulPartitionedCall/Generator/encoder_down_resblock_0/instance_norm_0/moments/mean"], "attr": {"T": {"type": "DT_FLOAT"}}}, {"name": "StatefulPartitionedCall/Generator/encoder_down_resblock_0/instance_norm_0/moments/variance", "op": "Mean", "input": ["StatefulPartitionedCall/Generator/encoder_down_resblock_0/instance_norm_0/moments/SquaredDifference", "StatefulPartitionedCall/Generator/sequential/ins_norm/moments/mean/reduction_indices"], "attr": {"Tidx": {"type": "DT_INT32"}, "keep_dims": {"b": true}, "T": {"type": "DT_FLOAT"}}}, {"name": "StatefulPartitionedCall/Generator/encoder_down_resblock_0/instance_norm_0/batchnorm/add", "op": "AddV2", "input": ["StatefulPartitionedCall/Generator/encoder_down_resblock_0/instance_norm_0/moments/variance", "StatefulPartitionedCall/Generator/sequential/ins_norm/batchnorm/add/y"], "attr": {"T": {"type": "DT_FLOAT"}}}, {"name": "StatefulPartitionedCall/Generator/encoder_down_resblock_0/instance_norm_0/batchnorm/Rsqrt", "op": "Rsqrt", "input": ["StatefulPartitionedCall/Generator/encoder_down_resblock_0/instance_norm_0/batchnorm/add"], "attr": {"T": {"type": "DT_FLOAT"}}}, {"name": "StatefulPartitionedCall/Generator/encoder_down_resblock_0/instance_norm_0/batchnorm/mul", "op": "Mul", "input": ["StatefulPartitionedCall/Generator/encoder_down_resblock_0/instance_norm_0/Reshape_1", "StatefulPartitionedCall/Generator/encoder_down_resblock_0/instance_norm_0/batchnorm/Rsqrt"], "attr": {"T": {"type": "DT_FLOAT"}}}, {"name": "StatefulPartitionedCall/Generator/encoder_down_resblock_0/instance_norm_0/batchnorm/mul_2", "op": "Mul", "input": ["StatefulPartitionedCall/Generator/encoder_down_resblock_0/instance_norm_0/batchnorm/mul", "StatefulPartitionedCall/Generator/encoder_down_resblock_0/instance_norm_0/moments/mean"], "attr": {"T": {"type": "DT_FLOAT"}}}, {"name": "StatefulPartitionedCall/Generator/encoder_down_resblock_0/instance_norm_0/batchnorm/mul_1", "op": "Mul", "input": ["StatefulPartitionedCall/Generator/encoder_down_resblock_0/instance_norm_0/Reshape", "StatefulPartitionedCall/Generator/encoder_down_resblock_0/instance_norm_0/batchnorm/mul"], "attr": {"T": {"type": "DT_FLOAT"}}}, {"name": "StatefulPartitionedCall/Generator/encoder_down_resblock_0/instance_norm_0/batchnorm/sub", "op": "Sub", "input": ["StatefulPartitionedCall/Generator/encoder_down_resblock_0/instance_norm_0/Reshape_2", "StatefulPartitionedCall/Generator/encoder_down_resblock_0/instance_norm_0/batchnorm/mul_2"], "attr": {"T": {"type": "DT_FLOAT"}}}, {"name": "StatefulPartitionedCall/Generator/encoder_down_resblock_0/instance_norm_0/batchnorm/add_1", "op": "AddV2", "input": ["StatefulPartitionedCall/Generator/encoder_down_resblock_0/instance_norm_0/batchnorm/mul_1", "StatefulPartitionedCall/Generator/encoder_down_resblock_0/instance_norm_0/batchnorm/sub"], "attr": {"T": {"type": "DT_FLOAT"}}}, {"name": "StatefulPartitionedCall/Generator/encoder_down_resblock_0/instance_norm_0/Reshape_3", "op": "Reshape", "input": ["StatefulPartitionedCall/Generator/encoder_down_resblock_0/instance_norm_0/batchnorm/add_1", "StatefulPartitionedCall/Generator/encoder_down_resblock_0/instance_norm_0/Shape"], "attr": {"T": {"type": "DT_FLOAT"}, "Tshape": {"type": "DT_INT32"}}}, {"name": "StatefulPartitionedCall/Generator/encoder_down_resblock_0/leaky_relu/LeakyRelu", "op": "LeakyRelu", "input": ["StatefulPartitionedCall/Generator/encoder_down_resblock_0/instance_norm_0/Reshape_3"], "attr": {"T": {"type": "DT_FLOAT"}, "alpha": {"f": 0.2}}}, {"name": "StatefulPartitionedCall/Generator/encoder_down_resblock_0/conv_0/Pad", "op": "Pad", "input": ["StatefulPartitionedCall/Generator/encoder_down_resblock_0/leaky_relu/LeakyRelu", "StatefulPartitionedCall/Generator/decoder_up_adaresblock_0/conv_0/Pad/paddings"], "attr": {"T": {"type": "DT_FLOAT"}, "Tpaddings": {"type": "DT_INT32"}}}, {"name": "StatefulPartitionedCall/Generator/encoder_down_resblock_0/conv_0/conv_0/BiasAdd", "op": "_FusedConv2D", "input": ["StatefulPartitionedCall/Generator/encoder_down_resblock_0/conv_0/Pad", "Func/StatefulPartitionedCall/input/_7", "Func/StatefulPartitionedCall/input/_8"], "device": "/device:CPU:0", "attr": {"T": {"type": "DT_FLOAT"}, "strides": {"list": {"i": ["1", "1", "1", "1"]}}, "data_format": {"s": "TkhXQw=="}, "use_cudnn_on_gpu": {"b": true}, "explicit_paddings": {"list": {}}, "num_args": {"i": "1"}, "epsilon": {"f": 0.0}, "padding": {"s": "VkFMSUQ="}, "fused_ops": {"list": {"s": ["Qmlhc0FkZA=="]}}, "dilations": {"list": {"i": ["1", "1", "1", "1"]}}}}, {"name": "StatefulPartitionedCall/Generator/encoder_down_resblock_0/avg_pool/AvgPool", "op": "AvgPool", "input": ["StatefulPartitionedCall/Generator/encoder_down_resblock_0/conv_0/conv_0/BiasAdd"], "attr": {"ksize": {"list": {"i": ["1", "2", "2", "1"]}}, "padding": {"s": "VkFMSUQ="}, "T": {"type": "DT_FLOAT"}, "data_format": {"s": "TkhXQw=="}, "strides": {"list": {"i": ["1", "2", "2", "1"]}}}}, {"name": "StatefulPartitionedCall/Generator/encoder_down_resblock_0/instance_norm_1/Shape", "op": "Shape", "input": ["StatefulPartitionedCall/Generator/encoder_down_resblock_0/avg_pool/AvgPool"], "attr": {"T": {"type": "DT_FLOAT"}, "out_type": {"type": "DT_INT32"}}}, {"name": "StatefulPartitionedCall/Generator/encoder_down_resblock_0/instance_norm_1/strided_slice", "op": "StridedSlice", "input": ["StatefulPartitionedCall/Generator/encoder_down_resblock_0/instance_norm_1/Shape", "StatefulPartitionedCall/Generator/sequential/ins_norm/strided_slice/stack", "StatefulPartitionedCall/Generator/sequential/ins_norm/strided_slice/stack_1", "StatefulPartitionedCall/Generator/sequential/ins_norm/strided_slice/stack_1"], "attr": {"end_mask": {"i": "0"}, "T": {"type": "DT_INT32"}, "Index": {"type": "DT_INT32"}, "shrink_axis_mask": {"i": "1"}, "begin_mask": {"i": "0"}, "ellipsis_mask": {"i": "0"}, "new_axis_mask": {"i": "0"}}}, {"name": "StatefulPartitionedCall/Generator/encoder_down_resblock_0/instance_norm_1/strided_slice_1", "op": "StridedSlice", "input": ["StatefulPartitionedCall/Generator/encoder_down_resblock_0/instance_norm_1/Shape", "StatefulPartitionedCall/Generator/sequential/ins_norm/strided_slice/stack_1", "StatefulPartitionedCall/Generator/sequential/ins_norm/strided_slice_1/stack_1", "StatefulPartitionedCall/Generator/sequential/ins_norm/strided_slice/stack_1"], "attr": {"T": {"type": "DT_INT32"}, "Index": {"type": "DT_INT32"}, "shrink_axis_mask": {"i": "1"}, "ellipsis_mask": {"i": "0"}, "begin_mask": {"i": "0"}, "new_axis_mask": {"i": "0"}, "end_mask": {"i": "0"}}}, {"name": "StatefulPartitionedCall/Generator/encoder_down_resblock_0/instance_norm_1/strided_slice_2", "op": "StridedSlice", "input": ["StatefulPartitionedCall/Generator/encoder_down_resblock_0/instance_norm_1/Shape", "StatefulPartitionedCall/Generator/sequential/ins_norm/strided_slice_1/stack_1", "StatefulPartitionedCall/Generator/sequential/ins_norm/strided_slice_2/stack_1", "StatefulPartitionedCall/Generator/sequential/ins_norm/strided_slice/stack_1"], "attr": {"Index": {"type": "DT_INT32"}, "T": {"type": "DT_INT32"}, "shrink_axis_mask": {"i": "1"}, "begin_mask": {"i": "0"}, "ellipsis_mask": {"i": "0"}, "new_axis_mask": {"i": "0"}, "end_mask": {"i": "0"}}}, {"name": "StatefulPartitionedCall/Generator/encoder_down_resblock_0/instance_norm_1/stack", "op": "Pack", "input": ["StatefulPartitionedCall/Generator/encoder_down_resblock_0/instance_norm_1/strided_slice", "StatefulPartitionedCall/Generator/encoder_down_resblock_0/instance_norm_1/strided_slice_1", "StatefulPartitionedCall/Generator/encoder_down_resblock_0/instance_norm_1/strided_slice_2", "StatefulPartitionedCall/Generator/sequential/ins_norm/stack/3", "StatefulPartitionedCall/Generator/sequential/ins_norm/stack/4"], "attr": {"T": {"type": "DT_INT32"}, "axis": {"i": "0"}, "N": {"i": "5"}}}, {"name": "StatefulPartitionedCall/Generator/encoder_down_resblock_0/instance_norm_1/Reshape", "op": "Reshape", "input": ["StatefulPartitionedCall/Generator/encoder_down_resblock_0/avg_pool/AvgPool", "StatefulPartitionedCall/Generator/encoder_down_resblock_0/instance_norm_1/stack"], "attr": {"T": {"type": "DT_FLOAT"}, "Tshape": {"type": "DT_INT32"}}}, {"name": "StatefulPartitionedCall/Generator/encoder_down_resblock_0/instance_norm_1/moments/mean", "op": "Mean", "input": ["StatefulPartitionedCall/Generator/encoder_down_resblock_0/instance_norm_1/Reshape", "StatefulPartitionedCall/Generator/sequential/ins_norm/moments/mean/reduction_indices"], "attr": {"T": {"type": "DT_FLOAT"}, "Tidx": {"type": "DT_INT32"}, "keep_dims": {"b": true}}}, {"name": "StatefulPartitionedCall/Generator/encoder_down_resblock_0/instance_norm_1/moments/SquaredDifference", "op": "SquaredDifference", "input": ["StatefulPartitionedCall/Generator/encoder_down_resblock_0/instance_norm_1/Reshape", "StatefulPartitionedCall/Generator/encoder_down_resblock_0/instance_norm_1/moments/mean"], "attr": {"T": {"type": "DT_FLOAT"}}}, {"name": "StatefulPartitionedCall/Generator/encoder_down_resblock_0/instance_norm_1/moments/variance", "op": "Mean", "input": ["StatefulPartitionedCall/Generator/encoder_down_resblock_0/instance_norm_1/moments/SquaredDifference", "StatefulPartitionedCall/Generator/sequential/ins_norm/moments/mean/reduction_indices"], "attr": {"Tidx": {"type": "DT_INT32"}, "keep_dims": {"b": true}, "T": {"type": "DT_FLOAT"}}}, {"name": "StatefulPartitionedCall/Generator/encoder_down_resblock_0/instance_norm_1/batchnorm/add", "op": "AddV2", "input": ["StatefulPartitionedCall/Generator/encoder_down_resblock_0/instance_norm_1/moments/variance", "StatefulPartitionedCall/Generator/sequential/ins_norm/batchnorm/add/y"], "attr": {"T": {"type": "DT_FLOAT"}}}, {"name": "StatefulPartitionedCall/Generator/encoder_down_resblock_0/instance_norm_1/batchnorm/Rsqrt", "op": "Rsqrt", "input": ["StatefulPartitionedCall/Generator/encoder_down_resblock_0/instance_norm_1/batchnorm/add"], "attr": {"T": {"type": "DT_FLOAT"}}}, {"name": "StatefulPartitionedCall/Generator/encoder_down_resblock_0/instance_norm_1/batchnorm/mul", "op": "Mul", "input": ["StatefulPartitionedCall/Generator/encoder_down_resblock_0/instance_norm_1/Reshape_1", "StatefulPartitionedCall/Generator/encoder_down_resblock_0/instance_norm_1/batchnorm/Rsqrt"], "attr": {"T": {"type": "DT_FLOAT"}}}, {"name": "StatefulPartitionedCall/Generator/encoder_down_resblock_0/instance_norm_1/batchnorm/mul_2", "op": "Mul", "input": ["StatefulPartitionedCall/Generator/encoder_down_resblock_0/instance_norm_1/batchnorm/mul", "StatefulPartitionedCall/Generator/encoder_down_resblock_0/instance_norm_1/moments/mean"], "attr": {"T": {"type": "DT_FLOAT"}}}, {"name": "StatefulPartitionedCall/Generator/encoder_down_resblock_0/instance_norm_1/batchnorm/mul_1", "op": "Mul", "input": ["StatefulPartitionedCall/Generator/encoder_down_resblock_0/instance_norm_1/Reshape", "StatefulPartitionedCall/Generator/encoder_down_resblock_0/instance_norm_1/batchnorm/mul"], "attr": {"T": {"type": "DT_FLOAT"}}}, {"name": "StatefulPartitionedCall/Generator/encoder_down_resblock_0/instance_norm_1/batchnorm/sub", "op": "Sub", "input": ["StatefulPartitionedCall/Generator/encoder_down_resblock_0/instance_norm_1/Reshape_2", "StatefulPartitionedCall/Generator/encoder_down_resblock_0/instance_norm_1/batchnorm/mul_2"], "attr": {"T": {"type": "DT_FLOAT"}}}, {"name": "StatefulPartitionedCall/Generator/encoder_down_resblock_0/instance_norm_1/batchnorm/add_1", "op": "AddV2", "input": ["StatefulPartitionedCall/Generator/encoder_down_resblock_0/instance_norm_1/batchnorm/mul_1", "StatefulPartitionedCall/Generator/encoder_down_resblock_0/instance_norm_1/batchnorm/sub"], "attr": {"T": {"type": "DT_FLOAT"}}}, {"name": "StatefulPartitionedCall/Generator/encoder_down_resblock_0/instance_norm_1/Reshape_3", "op": "Reshape", "input": ["StatefulPartitionedCall/Generator/encoder_down_resblock_0/instance_norm_1/batchnorm/add_1", "StatefulPartitionedCall/Generator/encoder_down_resblock_0/instance_norm_1/Shape"], "attr": {"T": {"type": "DT_FLOAT"}, "Tshape": {"type": "DT_INT32"}}}, {"name": "StatefulPartitionedCall/Generator/encoder_down_resblock_0/leaky_relu_1/LeakyRelu", "op": "LeakyRelu", "input": ["StatefulPartitionedCall/Generator/encoder_down_resblock_0/instance_norm_1/Reshape_3"], "attr": {"T": {"type": "DT_FLOAT"}, "alpha": {"f": 0.2}}}, {"name": "StatefulPartitionedCall/Generator/encoder_down_resblock_0/conv_1/Pad", "op": "Pad", "input": ["StatefulPartitionedCall/Generator/encoder_down_resblock_0/leaky_relu_1/LeakyRelu", "StatefulPartitionedCall/Generator/decoder_up_adaresblock_0/conv_0/Pad/paddings"], "attr": {"T": {"type": "DT_FLOAT"}, "Tpaddings": {"type": "DT_INT32"}}}, {"name": "StatefulPartitionedCall/Generator/encoder_down_resblock_0/conv_1/conv_1/BiasAdd", "op": "_FusedConv2D", "input": ["StatefulPartitionedCall/Generator/encoder_down_resblock_0/conv_1/Pad", "Func/StatefulPartitionedCall/input/_11", "Func/StatefulPartitionedCall/input/_12"], "device": "/device:CPU:0", "attr": {"strides": {"list": {"i": ["1", "1", "1", "1"]}}, "data_format": {"s": "TkhXQw=="}, "explicit_paddings": {"list": {}}, "use_cudnn_on_gpu": {"b": true}, "num_args": {"i": "1"}, "epsilon": {"f": 0.0}, "padding": {"s": "VkFMSUQ="}, "fused_ops": {"list": {"s": ["Qmlhc0FkZA=="]}}, "dilations": {"list": {"i": ["1", "1", "1", "1"]}}, "T": {"type": "DT_FLOAT"}}}, {"name": "StatefulPartitionedCall/Generator/encoder_down_resblock_0/add", "op": "AddV2", "input": ["StatefulPartitionedCall/Generator/encoder_down_resblock_0/avg_pool_1/AvgPool", "StatefulPartitionedCall/Generator/encoder_down_resblock_0/conv_1/conv_1/BiasAdd"], "attr": {"T": {"type": "DT_FLOAT"}}}, {"name": "StatefulPartitionedCall/Generator/encoder_down_resblock_0/truediv", "op": "Mul", "input": ["ConstantFolding/StatefulPartitionedCall/Generator/encoder_down_resblock_0/truediv_recip", "StatefulPartitionedCall/Generator/encoder_down_resblock_0/add"], "attr": {"T": {"type": "DT_FLOAT"}}}, {"name": "StatefulPartitionedCall/Generator/encoder_down_resblock_1/skip_conv/skip_conv/Conv2D", "op": "Conv2D", "input": ["StatefulPartitionedCall/Generator/encoder_down_resblock_0/truediv", "Func/StatefulPartitionedCall/input/_22"], "device": "/device:CPU:0", "attr": {"padding": {"s": "VkFMSUQ="}, "dilations": {"list": {"i": ["1", "1", "1", "1"]}}, "T": {"type": "DT_FLOAT"}, "data_format": {"s": "TkhXQw=="}, "strides": {"list": {"i": ["1", "1", "1", "1"]}}, "explicit_paddings": {"list": {}}, "use_cudnn_on_gpu": {"b": true}}}, {"name": "StatefulPartitionedCall/Generator/encoder_down_resblock_1/instance_norm_0/Shape", "op": "Shape", "input": ["StatefulPartitionedCall/Generator/encoder_down_resblock_0/truediv"], "attr": {"T": {"type": "DT_FLOAT"}, "out_type": {"type": "DT_INT32"}}}, {"name": "StatefulPartitionedCall/Generator/encoder_down_resblock_1/avg_pool_1/AvgPool", "op": "AvgPool", "input": ["StatefulPartitionedCall/Generator/encoder_down_resblock_1/skip_conv/skip_conv/Conv2D"], "attr": {"ksize": {"list": {"i": ["1", "2", "2", "1"]}}, "padding": {"s": "VkFMSUQ="}, "T": {"type": "DT_FLOAT"}, "strides": {"list": {"i": ["1", "2", "2", "1"]}}, "data_format": {"s": "TkhXQw=="}}}, {"name": "StatefulPartitionedCall/Generator/encoder_down_resblock_1/instance_norm_0/strided_slice", "op": "StridedSlice", "input": ["StatefulPartitionedCall/Generator/encoder_down_resblock_1/instance_norm_0/Shape", "StatefulPartitionedCall/Generator/sequential/ins_norm/strided_slice/stack", "StatefulPartitionedCall/Generator/sequential/ins_norm/strided_slice/stack_1", "StatefulPartitionedCall/Generator/sequential/ins_norm/strided_slice/stack_1"], "attr": {"T": {"type": "DT_INT32"}, "Index": {"type": "DT_INT32"}, "shrink_axis_mask": {"i": "1"}, "begin_mask": {"i": "0"}, "ellipsis_mask": {"i": "0"}, "new_axis_mask": {"i": "0"}, "end_mask": {"i": "0"}}}, {"name": "StatefulPartitionedCall/Generator/encoder_down_resblock_1/instance_norm_0/strided_slice_1", "op": "StridedSlice", "input": ["StatefulPartitionedCall/Generator/encoder_down_resblock_1/instance_norm_0/Shape", "StatefulPartitionedCall/Generator/sequential/ins_norm/strided_slice/stack_1", "StatefulPartitionedCall/Generator/sequential/ins_norm/strided_slice_1/stack_1", "StatefulPartitionedCall/Generator/sequential/ins_norm/strided_slice/stack_1"], "attr": {"end_mask": {"i": "0"}, "T": {"type": "DT_INT32"}, "Index": {"type": "DT_INT32"}, "shrink_axis_mask": {"i": "1"}, "begin_mask": {"i": "0"}, "ellipsis_mask": {"i": "0"}, "new_axis_mask": {"i": "0"}}}, {"name": "StatefulPartitionedCall/Generator/encoder_down_resblock_1/instance_norm_0/strided_slice_2", "op": "StridedSlice", "input": ["StatefulPartitionedCall/Generator/encoder_down_resblock_1/instance_norm_0/Shape", "StatefulPartitionedCall/Generator/sequential/ins_norm/strided_slice_1/stack_1", "StatefulPartitionedCall/Generator/sequential/ins_norm/strided_slice_2/stack_1", "StatefulPartitionedCall/Generator/sequential/ins_norm/strided_slice/stack_1"], "attr": {"T": {"type": "DT_INT32"}, "Index": {"type": "DT_INT32"}, "shrink_axis_mask": {"i": "1"}, "ellipsis_mask": {"i": "0"}, "begin_mask": {"i": "0"}, "new_axis_mask": {"i": "0"}, "end_mask": {"i": "0"}}}, {"name": "StatefulPartitionedCall/Generator/encoder_down_resblock_1/instance_norm_0/stack", "op": "Pack", "input": ["StatefulPartitionedCall/Generator/encoder_down_resblock_1/instance_norm_0/strided_slice", "StatefulPartitionedCall/Generator/encoder_down_resblock_1/instance_norm_0/strided_slice_1", "StatefulPartitionedCall/Generator/encoder_down_resblock_1/instance_norm_0/strided_slice_2", "StatefulPartitionedCall/Generator/encoder_down_resblock_1/instance_norm_1/stack/3", "StatefulPartitionedCall/Generator/sequential/ins_norm/stack/4"], "attr": {"T": {"type": "DT_INT32"}, "axis": {"i": "0"}, "N": {"i": "5"}}}, {"name": "StatefulPartitionedCall/Generator/encoder_down_resblock_1/instance_norm_0/Reshape", "op": "Reshape", "input": ["StatefulPartitionedCall/Generator/encoder_down_resblock_0/truediv", "StatefulPartitionedCall/Generator/encoder_down_resblock_1/instance_norm_0/stack"], "attr": {"T": {"type": "DT_FLOAT"}, "Tshape": {"type": "DT_INT32"}}}, {"name": "StatefulPartitionedCall/Generator/encoder_down_resblock_1/instance_norm_0/moments/mean", "op": "Mean", "input": ["StatefulPartitionedCall/Generator/encoder_down_resblock_1/instance_norm_0/Reshape", "StatefulPartitionedCall/Generator/sequential/ins_norm/moments/mean/reduction_indices"], "attr": {"T": {"type": "DT_FLOAT"}, "Tidx": {"type": "DT_INT32"}, "keep_dims": {"b": true}}}, {"name": "StatefulPartitionedCall/Generator/encoder_down_resblock_1/instance_norm_0/moments/SquaredDifference", "op": "SquaredDifference", "input": ["StatefulPartitionedCall/Generator/encoder_down_resblock_1/instance_norm_0/Reshape", "StatefulPartitionedCall/Generator/encoder_down_resblock_1/instance_norm_0/moments/mean"], "attr": {"T": {"type": "DT_FLOAT"}}}, {"name": "StatefulPartitionedCall/Generator/encoder_down_resblock_1/instance_norm_0/moments/variance", "op": "Mean", "input": ["StatefulPartitionedCall/Generator/encoder_down_resblock_1/instance_norm_0/moments/SquaredDifference", "StatefulPartitionedCall/Generator/sequential/ins_norm/moments/mean/reduction_indices"], "attr": {"T": {"type": "DT_FLOAT"}, "Tidx": {"type": "DT_INT32"}, "keep_dims": {"b": true}}}, {"name": "StatefulPartitionedCall/Generator/encoder_down_resblock_1/instance_norm_0/batchnorm/add", "op": "AddV2", "input": ["StatefulPartitionedCall/Generator/encoder_down_resblock_1/instance_norm_0/moments/variance", "StatefulPartitionedCall/Generator/sequential/ins_norm/batchnorm/add/y"], "attr": {"T": {"type": "DT_FLOAT"}}}, {"name": "StatefulPartitionedCall/Generator/encoder_down_resblock_1/instance_norm_0/batchnorm/Rsqrt", "op": "Rsqrt", "input": ["StatefulPartitionedCall/Generator/encoder_down_resblock_1/instance_norm_0/batchnorm/add"], "attr": {"T": {"type": "DT_FLOAT"}}}, {"name": "StatefulPartitionedCall/Generator/encoder_down_resblock_1/instance_norm_0/batchnorm/mul", "op": "Mul", "input": ["StatefulPartitionedCall/Generator/encoder_down_resblock_1/instance_norm_0/Reshape_1", "StatefulPartitionedCall/Generator/encoder_down_resblock_1/instance_norm_0/batchnorm/Rsqrt"], "attr": {"T": {"type": "DT_FLOAT"}}}, {"name": "StatefulPartitionedCall/Generator/encoder_down_resblock_1/instance_norm_0/batchnorm/mul_2", "op": "Mul", "input": ["StatefulPartitionedCall/Generator/encoder_down_resblock_1/instance_norm_0/batchnorm/mul", "StatefulPartitionedCall/Generator/encoder_down_resblock_1/instance_norm_0/moments/mean"], "attr": {"T": {"type": "DT_FLOAT"}}}, {"name": "StatefulPartitionedCall/Generator/encoder_down_resblock_1/instance_norm_0/batchnorm/mul_1", "op": "Mul", "input": ["StatefulPartitionedCall/Generator/encoder_down_resblock_1/instance_norm_0/Reshape", "StatefulPartitionedCall/Generator/encoder_down_resblock_1/instance_norm_0/batchnorm/mul"], "attr": {"T": {"type": "DT_FLOAT"}}}, {"name": "StatefulPartitionedCall/Generator/encoder_down_resblock_1/instance_norm_0/batchnorm/sub", "op": "Sub", "input": ["StatefulPartitionedCall/Generator/encoder_down_resblock_1/instance_norm_0/Reshape_2", "StatefulPartitionedCall/Generator/encoder_down_resblock_1/instance_norm_0/batchnorm/mul_2"], "attr": {"T": {"type": "DT_FLOAT"}}}, {"name": "StatefulPartitionedCall/Generator/encoder_down_resblock_1/instance_norm_0/batchnorm/add_1", "op": "AddV2", "input": ["StatefulPartitionedCall/Generator/encoder_down_resblock_1/instance_norm_0/batchnorm/mul_1", "StatefulPartitionedCall/Generator/encoder_down_resblock_1/instance_norm_0/batchnorm/sub"], "attr": {"T": {"type": "DT_FLOAT"}}}, {"name": "StatefulPartitionedCall/Generator/encoder_down_resblock_1/instance_norm_0/Reshape_3", "op": "Reshape", "input": ["StatefulPartitionedCall/Generator/encoder_down_resblock_1/instance_norm_0/batchnorm/add_1", "StatefulPartitionedCall/Generator/encoder_down_resblock_1/instance_norm_0/Shape"], "attr": {"T": {"type": "DT_FLOAT"}, "Tshape": {"type": "DT_INT32"}}}, {"name": "StatefulPartitionedCall/Generator/encoder_down_resblock_1/leaky_relu/LeakyRelu", "op": "LeakyRelu", "input": ["StatefulPartitionedCall/Generator/encoder_down_resblock_1/instance_norm_0/Reshape_3"], "attr": {"alpha": {"f": 0.2}, "T": {"type": "DT_FLOAT"}}}, {"name": "StatefulPartitionedCall/Generator/encoder_down_resblock_1/conv_0/Pad", "op": "Pad", "input": ["StatefulPartitionedCall/Generator/encoder_down_resblock_1/leaky_relu/LeakyRelu", "StatefulPartitionedCall/Generator/decoder_up_adaresblock_0/conv_0/Pad/paddings"], "attr": {"T": {"type": "DT_FLOAT"}, "Tpaddings": {"type": "DT_INT32"}}}, {"name": "StatefulPartitionedCall/Generator/encoder_down_resblock_1/conv_0/conv_0/BiasAdd", "op": "_FusedConv2D", "input": ["StatefulPartitionedCall/Generator/encoder_down_resblock_1/conv_0/Pad", "Func/StatefulPartitionedCall/input/_16", "Func/StatefulPartitionedCall/input/_17"], "device": "/device:CPU:0", "attr": {"T": {"type": "DT_FLOAT"}, "strides": {"list": {"i": ["1", "1", "1", "1"]}}, "data_format": {"s": "TkhXQw=="}, "explicit_paddings": {"list": {}}, "use_cudnn_on_gpu": {"b": true}, "num_args": {"i": "1"}, "epsilon": {"f": 0.0}, "padding": {"s": "VkFMSUQ="}, "fused_ops": {"list": {"s": ["Qmlhc0FkZA=="]}}, "dilations": {"list": {"i": ["1", "1", "1", "1"]}}}}, {"name": "StatefulPartitionedCall/Generator/encoder_down_resblock_1/avg_pool/AvgPool", "op": "AvgPool", "input": ["StatefulPartitionedCall/Generator/encoder_down_resblock_1/conv_0/conv_0/BiasAdd"], "attr": {"ksize": {"list": {"i": ["1", "2", "2", "1"]}}, "padding": {"s": "VkFMSUQ="}, "T": {"type": "DT_FLOAT"}, "strides": {"list": {"i": ["1", "2", "2", "1"]}}, "data_format": {"s": "TkhXQw=="}}}, {"name": "StatefulPartitionedCall/Generator/encoder_down_resblock_1/instance_norm_1/Shape", "op": "Shape", "input": ["StatefulPartitionedCall/Generator/encoder_down_resblock_1/avg_pool/AvgPool"], "attr": {"T": {"type": "DT_FLOAT"}, "out_type": {"type": "DT_INT32"}}}, {"name": "StatefulPartitionedCall/Generator/encoder_down_resblock_1/instance_norm_1/strided_slice", "op": "StridedSlice", "input": ["StatefulPartitionedCall/Generator/encoder_down_resblock_1/instance_norm_1/Shape", "StatefulPartitionedCall/Generator/sequential/ins_norm/strided_slice/stack", "StatefulPartitionedCall/Generator/sequential/ins_norm/strided_slice/stack_1", "StatefulPartitionedCall/Generator/sequential/ins_norm/strided_slice/stack_1"], "attr": {"T": {"type": "DT_INT32"}, "Index": {"type": "DT_INT32"}, "shrink_axis_mask": {"i": "1"}, "begin_mask": {"i": "0"}, "ellipsis_mask": {"i": "0"}, "new_axis_mask": {"i": "0"}, "end_mask": {"i": "0"}}}, {"name": "StatefulPartitionedCall/Generator/encoder_down_resblock_1/instance_norm_1/strided_slice_1", "op": "StridedSlice", "input": ["StatefulPartitionedCall/Generator/encoder_down_resblock_1/instance_norm_1/Shape", "StatefulPartitionedCall/Generator/sequential/ins_norm/strided_slice/stack_1", "StatefulPartitionedCall/Generator/sequential/ins_norm/strided_slice_1/stack_1", "StatefulPartitionedCall/Generator/sequential/ins_norm/strided_slice/stack_1"], "attr": {"Index": {"type": "DT_INT32"}, "T": {"type": "DT_INT32"}, "shrink_axis_mask": {"i": "1"}, "ellipsis_mask": {"i": "0"}, "begin_mask": {"i": "0"}, "new_axis_mask": {"i": "0"}, "end_mask": {"i": "0"}}}, {"name": "StatefulPartitionedCall/Generator/encoder_down_resblock_1/instance_norm_1/strided_slice_2", "op": "StridedSlice", "input": ["StatefulPartitionedCall/Generator/encoder_down_resblock_1/instance_norm_1/Shape", "StatefulPartitionedCall/Generator/sequential/ins_norm/strided_slice_1/stack_1", "StatefulPartitionedCall/Generator/sequential/ins_norm/strided_slice_2/stack_1", "StatefulPartitionedCall/Generator/sequential/ins_norm/strided_slice/stack_1"], "attr": {"Index": {"type": "DT_INT32"}, "T": {"type": "DT_INT32"}, "shrink_axis_mask": {"i": "1"}, "begin_mask": {"i": "0"}, "ellipsis_mask": {"i": "0"}, "new_axis_mask": {"i": "0"}, "end_mask": {"i": "0"}}}, {"name": "StatefulPartitionedCall/Generator/encoder_down_resblock_1/instance_norm_1/stack", "op": "Pack", "input": ["StatefulPartitionedCall/Generator/encoder_down_resblock_1/instance_norm_1/strided_slice", "StatefulPartitionedCall/Generator/encoder_down_resblock_1/instance_norm_1/strided_slice_1", "StatefulPartitionedCall/Generator/encoder_down_resblock_1/instance_norm_1/strided_slice_2", "StatefulPartitionedCall/Generator/encoder_down_resblock_1/instance_norm_1/stack/3", "StatefulPartitionedCall/Generator/sequential/ins_norm/stack/4"], "attr": {"T": {"type": "DT_INT32"}, "axis": {"i": "0"}, "N": {"i": "5"}}}, {"name": "StatefulPartitionedCall/Generator/encoder_down_resblock_1/instance_norm_1/Reshape", "op": "Reshape", "input": ["StatefulPartitionedCall/Generator/encoder_down_resblock_1/avg_pool/AvgPool", "StatefulPartitionedCall/Generator/encoder_down_resblock_1/instance_norm_1/stack"], "attr": {"Tshape": {"type": "DT_INT32"}, "T": {"type": "DT_FLOAT"}}}, {"name": "StatefulPartitionedCall/Generator/encoder_down_resblock_1/instance_norm_1/moments/mean", "op": "Mean", "input": ["StatefulPartitionedCall/Generator/encoder_down_resblock_1/instance_norm_1/Reshape", "StatefulPartitionedCall/Generator/sequential/ins_norm/moments/mean/reduction_indices"], "attr": {"Tidx": {"type": "DT_INT32"}, "keep_dims": {"b": true}, "T": {"type": "DT_FLOAT"}}}, {"name": "StatefulPartitionedCall/Generator/encoder_down_resblock_1/instance_norm_1/moments/SquaredDifference", "op": "SquaredDifference", "input": ["StatefulPartitionedCall/Generator/encoder_down_resblock_1/instance_norm_1/Reshape", "StatefulPartitionedCall/Generator/encoder_down_resblock_1/instance_norm_1/moments/mean"], "attr": {"T": {"type": "DT_FLOAT"}}}, {"name": "StatefulPartitionedCall/Generator/encoder_down_resblock_1/instance_norm_1/moments/variance", "op": "Mean", "input": ["StatefulPartitionedCall/Generator/encoder_down_resblock_1/instance_norm_1/moments/SquaredDifference", "StatefulPartitionedCall/Generator/sequential/ins_norm/moments/mean/reduction_indices"], "attr": {"Tidx": {"type": "DT_INT32"}, "keep_dims": {"b": true}, "T": {"type": "DT_FLOAT"}}}, {"name": "StatefulPartitionedCall/Generator/encoder_down_resblock_1/instance_norm_1/batchnorm/add", "op": "AddV2", "input": ["StatefulPartitionedCall/Generator/encoder_down_resblock_1/instance_norm_1/moments/variance", "StatefulPartitionedCall/Generator/sequential/ins_norm/batchnorm/add/y"], "attr": {"T": {"type": "DT_FLOAT"}}}, {"name": "StatefulPartitionedCall/Generator/encoder_down_resblock_1/instance_norm_1/batchnorm/Rsqrt", "op": "Rsqrt", "input": ["StatefulPartitionedCall/Generator/encoder_down_resblock_1/instance_norm_1/batchnorm/add"], "attr": {"T": {"type": "DT_FLOAT"}}}, {"name": "StatefulPartitionedCall/Generator/encoder_down_resblock_1/instance_norm_1/batchnorm/mul", "op": "Mul", "input": ["StatefulPartitionedCall/Generator/encoder_down_resblock_1/instance_norm_1/Reshape_1", "StatefulPartitionedCall/Generator/encoder_down_resblock_1/instance_norm_1/batchnorm/Rsqrt"], "attr": {"T": {"type": "DT_FLOAT"}}}, {"name": "StatefulPartitionedCall/Generator/encoder_down_resblock_1/instance_norm_1/batchnorm/mul_2", "op": "Mul", "input": ["StatefulPartitionedCall/Generator/encoder_down_resblock_1/instance_norm_1/batchnorm/mul", "StatefulPartitionedCall/Generator/encoder_down_resblock_1/instance_norm_1/moments/mean"], "attr": {"T": {"type": "DT_FLOAT"}}}, {"name": "StatefulPartitionedCall/Generator/encoder_down_resblock_1/instance_norm_1/batchnorm/mul_1", "op": "Mul", "input": ["StatefulPartitionedCall/Generator/encoder_down_resblock_1/instance_norm_1/Reshape", "StatefulPartitionedCall/Generator/encoder_down_resblock_1/instance_norm_1/batchnorm/mul"], "attr": {"T": {"type": "DT_FLOAT"}}}, {"name": "StatefulPartitionedCall/Generator/encoder_down_resblock_1/instance_norm_1/batchnorm/sub", "op": "Sub", "input": ["StatefulPartitionedCall/Generator/encoder_down_resblock_1/instance_norm_1/Reshape_2", "StatefulPartitionedCall/Generator/encoder_down_resblock_1/instance_norm_1/batchnorm/mul_2"], "attr": {"T": {"type": "DT_FLOAT"}}}, {"name": "StatefulPartitionedCall/Generator/encoder_down_resblock_1/instance_norm_1/batchnorm/add_1", "op": "AddV2", "input": ["StatefulPartitionedCall/Generator/encoder_down_resblock_1/instance_norm_1/batchnorm/mul_1", "StatefulPartitionedCall/Generator/encoder_down_resblock_1/instance_norm_1/batchnorm/sub"], "attr": {"T": {"type": "DT_FLOAT"}}}, {"name": "StatefulPartitionedCall/Generator/encoder_down_resblock_1/instance_norm_1/Reshape_3", "op": "Reshape", "input": ["StatefulPartitionedCall/Generator/encoder_down_resblock_1/instance_norm_1/batchnorm/add_1", "StatefulPartitionedCall/Generator/encoder_down_resblock_1/instance_norm_1/Shape"], "attr": {"T": {"type": "DT_FLOAT"}, "Tshape": {"type": "DT_INT32"}}}, {"name": "StatefulPartitionedCall/Generator/encoder_down_resblock_1/leaky_relu_1/LeakyRelu", "op": "LeakyRelu", "input": ["StatefulPartitionedCall/Generator/encoder_down_resblock_1/instance_norm_1/Reshape_3"], "attr": {"T": {"type": "DT_FLOAT"}, "alpha": {"f": 0.2}}}, {"name": "StatefulPartitionedCall/Generator/encoder_down_resblock_1/conv_1/Pad", "op": "Pad", "input": ["StatefulPartitionedCall/Generator/encoder_down_resblock_1/leaky_relu_1/LeakyRelu", "StatefulPartitionedCall/Generator/decoder_up_adaresblock_0/conv_0/Pad/paddings"], "attr": {"T": {"type": "DT_FLOAT"}, "Tpaddings": {"type": "DT_INT32"}}}, {"name": "StatefulPartitionedCall/Generator/encoder_down_resblock_1/conv_1/conv_1/BiasAdd", "op": "_FusedConv2D", "input": ["StatefulPartitionedCall/Generator/encoder_down_resblock_1/conv_1/Pad", "Func/StatefulPartitionedCall/input/_20", "Func/StatefulPartitionedCall/input/_21"], "device": "/device:CPU:0", "attr": {"explicit_paddings": {"list": {}}, "use_cudnn_on_gpu": {"b": true}, "num_args": {"i": "1"}, "epsilon": {"f": 0.0}, "padding": {"s": "VkFMSUQ="}, "fused_ops": {"list": {"s": ["Qmlhc0FkZA=="]}}, "dilations": {"list": {"i": ["1", "1", "1", "1"]}}, "T": {"type": "DT_FLOAT"}, "strides": {"list": {"i": ["1", "1", "1", "1"]}}, "data_format": {"s": "TkhXQw=="}}}, {"name": "StatefulPartitionedCall/Generator/encoder_down_resblock_1/add", "op": "AddV2", "input": ["StatefulPartitionedCall/Generator/encoder_down_resblock_1/avg_pool_1/AvgPool", "StatefulPartitionedCall/Generator/encoder_down_resblock_1/conv_1/conv_1/BiasAdd"], "attr": {"T": {"type": "DT_FLOAT"}}}, {"name": "StatefulPartitionedCall/Generator/encoder_down_resblock_1/truediv", "op": "Mul", "input": ["ConstantFolding/StatefulPartitionedCall/Generator/encoder_down_resblock_0/truediv_recip", "StatefulPartitionedCall/Generator/encoder_down_resblock_1/add"], "attr": {"T": {"type": "DT_FLOAT"}}}, {"name": "StatefulPartitionedCall/Generator/encoder_down_resblock_2/skip_conv/skip_conv/Conv2D", "op": "Conv2D", "input": ["StatefulPartitionedCall/Generator/encoder_down_resblock_1/truediv", "Func/StatefulPartitionedCall/input/_31"], "device": "/device:CPU:0", "attr": {"dilations": {"list": {"i": ["1", "1", "1", "1"]}}, "T": {"type": "DT_FLOAT"}, "strides": {"list": {"i": ["1", "1", "1", "1"]}}, "data_format": {"s": "TkhXQw=="}, "explicit_paddings": {"list": {}}, "use_cudnn_on_gpu": {"b": true}, "padding": {"s": "VkFMSUQ="}}}, {"name": "StatefulPartitionedCall/Generator/encoder_down_resblock_2/instance_norm_0/Shape", "op": "Shape", "input": ["StatefulPartitionedCall/Generator/encoder_down_resblock_1/truediv"], "attr": {"T": {"type": "DT_FLOAT"}, "out_type": {"type": "DT_INT32"}}}, {"name": "StatefulPartitionedCall/Generator/encoder_down_resblock_2/avg_pool_1/AvgPool", "op": "AvgPool", "input": ["StatefulPartitionedCall/Generator/encoder_down_resblock_2/skip_conv/skip_conv/Conv2D"], "attr": {"data_format": {"s": "TkhXQw=="}, "strides": {"list": {"i": ["1", "2", "2", "1"]}}, "ksize": {"list": {"i": ["1", "2", "2", "1"]}}, "padding": {"s": "VkFMSUQ="}, "T": {"type": "DT_FLOAT"}}}, {"name": "StatefulPartitionedCall/Generator/encoder_down_resblock_2/instance_norm_0/strided_slice", "op": "StridedSlice", "input": ["StatefulPartitionedCall/Generator/encoder_down_resblock_2/instance_norm_0/Shape", "StatefulPartitionedCall/Generator/sequential/ins_norm/strided_slice/stack", "StatefulPartitionedCall/Generator/sequential/ins_norm/strided_slice/stack_1", "StatefulPartitionedCall/Generator/sequential/ins_norm/strided_slice/stack_1"], "attr": {"begin_mask": {"i": "0"}, "ellipsis_mask": {"i": "0"}, "new_axis_mask": {"i": "0"}, "end_mask": {"i": "0"}, "T": {"type": "DT_INT32"}, "Index": {"type": "DT_INT32"}, "shrink_axis_mask": {"i": "1"}}}, {"name": "StatefulPartitionedCall/Generator/encoder_down_resblock_2/instance_norm_0/strided_slice_1", "op": "StridedSlice", "input": ["StatefulPartitionedCall/Generator/encoder_down_resblock_2/instance_norm_0/Shape", "StatefulPartitionedCall/Generator/sequential/ins_norm/strided_slice/stack_1", "StatefulPartitionedCall/Generator/sequential/ins_norm/strided_slice_1/stack_1", "StatefulPartitionedCall/Generator/sequential/ins_norm/strided_slice/stack_1"], "attr": {"shrink_axis_mask": {"i": "1"}, "ellipsis_mask": {"i": "0"}, "begin_mask": {"i": "0"}, "new_axis_mask": {"i": "0"}, "end_mask": {"i": "0"}, "Index": {"type": "DT_INT32"}, "T": {"type": "DT_INT32"}}}, {"name": "StatefulPartitionedCall/Generator/encoder_down_resblock_2/instance_norm_0/strided_slice_2", "op": "StridedSlice", "input": ["StatefulPartitionedCall/Generator/encoder_down_resblock_2/instance_norm_0/Shape", "StatefulPartitionedCall/Generator/sequential/ins_norm/strided_slice_1/stack_1", "StatefulPartitionedCall/Generator/sequential/ins_norm/strided_slice_2/stack_1", "StatefulPartitionedCall/Generator/sequential/ins_norm/strided_slice/stack_1"], "attr": {"shrink_axis_mask": {"i": "1"}, "begin_mask": {"i": "0"}, "ellipsis_mask": {"i": "0"}, "new_axis_mask": {"i": "0"}, "end_mask": {"i": "0"}, "Index": {"type": "DT_INT32"}, "T": {"type": "DT_INT32"}}}, {"name": "StatefulPartitionedCall/Generator/encoder_down_resblock_2/instance_norm_0/stack", "op": "Pack", "input": ["StatefulPartitionedCall/Generator/encoder_down_resblock_2/instance_norm_0/strided_slice", "StatefulPartitionedCall/Generator/encoder_down_resblock_2/instance_norm_0/strided_slice_1", "StatefulPartitionedCall/Generator/encoder_down_resblock_2/instance_norm_0/strided_slice_2", "StatefulPartitionedCall/Generator/encoder_down_resblock_2/instance_norm_1/stack/3", "StatefulPartitionedCall/Generator/sequential/ins_norm/stack/4"], "attr": {"T": {"type": "DT_INT32"}, "axis": {"i": "0"}, "N": {"i": "5"}}}, {"name": "StatefulPartitionedCall/Generator/encoder_down_resblock_2/instance_norm_0/Reshape", "op": "Reshape", "input": ["StatefulPartitionedCall/Generator/encoder_down_resblock_1/truediv", "StatefulPartitionedCall/Generator/encoder_down_resblock_2/instance_norm_0/stack"], "attr": {"T": {"type": "DT_FLOAT"}, "Tshape": {"type": "DT_INT32"}}}, {"name": "StatefulPartitionedCall/Generator/encoder_down_resblock_2/instance_norm_0/moments/mean", "op": "Mean", "input": ["StatefulPartitionedCall/Generator/encoder_down_resblock_2/instance_norm_0/Reshape", "StatefulPartitionedCall/Generator/sequential/ins_norm/moments/mean/reduction_indices"], "attr": {"T": {"type": "DT_FLOAT"}, "Tidx": {"type": "DT_INT32"}, "keep_dims": {"b": true}}}, {"name": "StatefulPartitionedCall/Generator/encoder_down_resblock_2/instance_norm_0/moments/SquaredDifference", "op": "SquaredDifference", "input": ["StatefulPartitionedCall/Generator/encoder_down_resblock_2/instance_norm_0/Reshape", "StatefulPartitionedCall/Generator/encoder_down_resblock_2/instance_norm_0/moments/mean"], "attr": {"T": {"type": "DT_FLOAT"}}}, {"name": "StatefulPartitionedCall/Generator/encoder_down_resblock_2/instance_norm_0/moments/variance", "op": "Mean", "input": ["StatefulPartitionedCall/Generator/encoder_down_resblock_2/instance_norm_0/moments/SquaredDifference", "StatefulPartitionedCall/Generator/sequential/ins_norm/moments/mean/reduction_indices"], "attr": {"Tidx": {"type": "DT_INT32"}, "keep_dims": {"b": true}, "T": {"type": "DT_FLOAT"}}}, {"name": "StatefulPartitionedCall/Generator/encoder_down_resblock_2/instance_norm_0/batchnorm/add", "op": "AddV2", "input": ["StatefulPartitionedCall/Generator/encoder_down_resblock_2/instance_norm_0/moments/variance", "StatefulPartitionedCall/Generator/sequential/ins_norm/batchnorm/add/y"], "attr": {"T": {"type": "DT_FLOAT"}}}, {"name": "StatefulPartitionedCall/Generator/encoder_down_resblock_2/instance_norm_0/batchnorm/Rsqrt", "op": "Rsqrt", "input": ["StatefulPartitionedCall/Generator/encoder_down_resblock_2/instance_norm_0/batchnorm/add"], "attr": {"T": {"type": "DT_FLOAT"}}}, {"name": "StatefulPartitionedCall/Generator/encoder_down_resblock_2/instance_norm_0/batchnorm/mul", "op": "Mul", "input": ["StatefulPartitionedCall/Generator/encoder_down_resblock_2/instance_norm_0/Reshape_1", "StatefulPartitionedCall/Generator/encoder_down_resblock_2/instance_norm_0/batchnorm/Rsqrt"], "attr": {"T": {"type": "DT_FLOAT"}}}, {"name": "StatefulPartitionedCall/Generator/encoder_down_resblock_2/instance_norm_0/batchnorm/mul_2", "op": "Mul", "input": ["StatefulPartitionedCall/Generator/encoder_down_resblock_2/instance_norm_0/batchnorm/mul", "StatefulPartitionedCall/Generator/encoder_down_resblock_2/instance_norm_0/moments/mean"], "attr": {"T": {"type": "DT_FLOAT"}}}, {"name": "StatefulPartitionedCall/Generator/encoder_down_resblock_2/instance_norm_0/batchnorm/mul_1", "op": "Mul", "input": ["StatefulPartitionedCall/Generator/encoder_down_resblock_2/instance_norm_0/Reshape", "StatefulPartitionedCall/Generator/encoder_down_resblock_2/instance_norm_0/batchnorm/mul"], "attr": {"T": {"type": "DT_FLOAT"}}}, {"name": "StatefulPartitionedCall/Generator/encoder_down_resblock_2/instance_norm_0/batchnorm/sub", "op": "Sub", "input": ["StatefulPartitionedCall/Generator/encoder_down_resblock_2/instance_norm_0/Reshape_2", "StatefulPartitionedCall/Generator/encoder_down_resblock_2/instance_norm_0/batchnorm/mul_2"], "attr": {"T": {"type": "DT_FLOAT"}}}, {"name": "StatefulPartitionedCall/Generator/encoder_down_resblock_2/instance_norm_0/batchnorm/add_1", "op": "AddV2", "input": ["StatefulPartitionedCall/Generator/encoder_down_resblock_2/instance_norm_0/batchnorm/mul_1", "StatefulPartitionedCall/Generator/encoder_down_resblock_2/instance_norm_0/batchnorm/sub"], "attr": {"T": {"type": "DT_FLOAT"}}}, {"name": "StatefulPartitionedCall/Generator/encoder_down_resblock_2/instance_norm_0/Reshape_3", "op": "Reshape", "input": ["StatefulPartitionedCall/Generator/encoder_down_resblock_2/instance_norm_0/batchnorm/add_1", "StatefulPartitionedCall/Generator/encoder_down_resblock_2/instance_norm_0/Shape"], "attr": {"T": {"type": "DT_FLOAT"}, "Tshape": {"type": "DT_INT32"}}}, {"name": "StatefulPartitionedCall/Generator/encoder_down_resblock_2/leaky_relu/LeakyRelu", "op": "LeakyRelu", "input": ["StatefulPartitionedCall/Generator/encoder_down_resblock_2/instance_norm_0/Reshape_3"], "attr": {"T": {"type": "DT_FLOAT"}, "alpha": {"f": 0.2}}}, {"name": "StatefulPartitionedCall/Generator/encoder_down_resblock_2/conv_0/Pad", "op": "Pad", "input": ["StatefulPartitionedCall/Generator/encoder_down_resblock_2/leaky_relu/LeakyRelu", "StatefulPartitionedCall/Generator/decoder_up_adaresblock_0/conv_0/Pad/paddings"], "attr": {"Tpaddings": {"type": "DT_INT32"}, "T": {"type": "DT_FLOAT"}}}, {"name": "StatefulPartitionedCall/Generator/encoder_down_resblock_2/conv_0/conv_0/BiasAdd", "op": "_FusedConv2D", "input": ["StatefulPartitionedCall/Generator/encoder_down_resblock_2/conv_0/Pad", "Func/StatefulPartitionedCall/input/_25", "Func/StatefulPartitionedCall/input/_26"], "device": "/device:CPU:0", "attr": {"dilations": {"list": {"i": ["1", "1", "1", "1"]}}, "T": {"type": "DT_FLOAT"}, "strides": {"list": {"i": ["1", "1", "1", "1"]}}, "data_format": {"s": "TkhXQw=="}, "explicit_paddings": {"list": {}}, "use_cudnn_on_gpu": {"b": true}, "num_args": {"i": "1"}, "epsilon": {"f": 0.0}, "padding": {"s": "VkFMSUQ="}, "fused_ops": {"list": {"s": ["Qmlhc0FkZA=="]}}}}, {"name": "StatefulPartitionedCall/Generator/encoder_down_resblock_2/avg_pool/AvgPool", "op": "AvgPool", "input": ["StatefulPartitionedCall/Generator/encoder_down_resblock_2/conv_0/conv_0/BiasAdd"], "attr": {"ksize": {"list": {"i": ["1", "2", "2", "1"]}}, "padding": {"s": "VkFMSUQ="}, "T": {"type": "DT_FLOAT"}, "data_format": {"s": "TkhXQw=="}, "strides": {"list": {"i": ["1", "2", "2", "1"]}}}}, {"name": "StatefulPartitionedCall/Generator/encoder_down_resblock_2/instance_norm_1/Shape", "op": "Shape", "input": ["StatefulPartitionedCall/Generator/encoder_down_resblock_2/avg_pool/AvgPool"], "attr": {"out_type": {"type": "DT_INT32"}, "T": {"type": "DT_FLOAT"}}}, {"name": "StatefulPartitionedCall/Generator/encoder_down_resblock_2/instance_norm_1/strided_slice", "op": "StridedSlice", "input": ["StatefulPartitionedCall/Generator/encoder_down_resblock_2/instance_norm_1/Shape", "StatefulPartitionedCall/Generator/sequential/ins_norm/strided_slice/stack", "StatefulPartitionedCall/Generator/sequential/ins_norm/strided_slice/stack_1", "StatefulPartitionedCall/Generator/sequential/ins_norm/strided_slice/stack_1"], "attr": {"shrink_axis_mask": {"i": "1"}, "begin_mask": {"i": "0"}, "ellipsis_mask": {"i": "0"}, "new_axis_mask": {"i": "0"}, "end_mask": {"i": "0"}, "Index": {"type": "DT_INT32"}, "T": {"type": "DT_INT32"}}}, {"name": "StatefulPartitionedCall/Generator/encoder_down_resblock_2/instance_norm_1/strided_slice_1", "op": "StridedSlice", "input": ["StatefulPartitionedCall/Generator/encoder_down_resblock_2/instance_norm_1/Shape", "StatefulPartitionedCall/Generator/sequential/ins_norm/strided_slice/stack_1", "StatefulPartitionedCall/Generator/sequential/ins_norm/strided_slice_1/stack_1", "StatefulPartitionedCall/Generator/sequential/ins_norm/strided_slice/stack_1"], "attr": {"Index": {"type": "DT_INT32"}, "T": {"type": "DT_INT32"}, "shrink_axis_mask": {"i": "1"}, "ellipsis_mask": {"i": "0"}, "begin_mask": {"i": "0"}, "new_axis_mask": {"i": "0"}, "end_mask": {"i": "0"}}}, {"name": "StatefulPartitionedCall/Generator/encoder_down_resblock_2/instance_norm_1/strided_slice_2", "op": "StridedSlice", "input": ["StatefulPartitionedCall/Generator/encoder_down_resblock_2/instance_norm_1/Shape", "StatefulPartitionedCall/Generator/sequential/ins_norm/strided_slice_1/stack_1", "StatefulPartitionedCall/Generator/sequential/ins_norm/strided_slice_2/stack_1", "StatefulPartitionedCall/Generator/sequential/ins_norm/strided_slice/stack_1"], "attr": {"Index": {"type": "DT_INT32"}, "T": {"type": "DT_INT32"}, "shrink_axis_mask": {"i": "1"}, "begin_mask": {"i": "0"}, "ellipsis_mask": {"i": "0"}, "new_axis_mask": {"i": "0"}, "end_mask": {"i": "0"}}}, {"name": "StatefulPartitionedCall/Generator/encoder_down_resblock_2/instance_norm_1/stack", "op": "Pack", "input": ["StatefulPartitionedCall/Generator/encoder_down_resblock_2/instance_norm_1/strided_slice", "StatefulPartitionedCall/Generator/encoder_down_resblock_2/instance_norm_1/strided_slice_1", "StatefulPartitionedCall/Generator/encoder_down_resblock_2/instance_norm_1/strided_slice_2", "StatefulPartitionedCall/Generator/encoder_down_resblock_2/instance_norm_1/stack/3", "StatefulPartitionedCall/Generator/sequential/ins_norm/stack/4"], "attr": {"N": {"i": "5"}, "T": {"type": "DT_INT32"}, "axis": {"i": "0"}}}, {"name": "StatefulPartitionedCall/Generator/encoder_down_resblock_2/instance_norm_1/Reshape", "op": "Reshape", "input": ["StatefulPartitionedCall/Generator/encoder_down_resblock_2/avg_pool/AvgPool", "StatefulPartitionedCall/Generator/encoder_down_resblock_2/instance_norm_1/stack"], "attr": {"T": {"type": "DT_FLOAT"}, "Tshape": {"type": "DT_INT32"}}}, {"name": "StatefulPartitionedCall/Generator/encoder_down_resblock_2/instance_norm_1/moments/mean", "op": "Mean", "input": ["StatefulPartitionedCall/Generator/encoder_down_resblock_2/instance_norm_1/Reshape", "StatefulPartitionedCall/Generator/sequential/ins_norm/moments/mean/reduction_indices"], "attr": {"Tidx": {"type": "DT_INT32"}, "keep_dims": {"b": true}, "T": {"type": "DT_FLOAT"}}}, {"name": "StatefulPartitionedCall/Generator/encoder_down_resblock_2/instance_norm_1/moments/SquaredDifference", "op": "SquaredDifference", "input": ["StatefulPartitionedCall/Generator/encoder_down_resblock_2/instance_norm_1/Reshape", "StatefulPartitionedCall/Generator/encoder_down_resblock_2/instance_norm_1/moments/mean"], "attr": {"T": {"type": "DT_FLOAT"}}}, {"name": "StatefulPartitionedCall/Generator/encoder_down_resblock_2/instance_norm_1/moments/variance", "op": "Mean", "input": ["StatefulPartitionedCall/Generator/encoder_down_resblock_2/instance_norm_1/moments/SquaredDifference", "StatefulPartitionedCall/Generator/sequential/ins_norm/moments/mean/reduction_indices"], "attr": {"Tidx": {"type": "DT_INT32"}, "keep_dims": {"b": true}, "T": {"type": "DT_FLOAT"}}}, {"name": "StatefulPartitionedCall/Generator/encoder_down_resblock_2/instance_norm_1/batchnorm/add", "op": "AddV2", "input": ["StatefulPartitionedCall/Generator/encoder_down_resblock_2/instance_norm_1/moments/variance", "StatefulPartitionedCall/Generator/sequential/ins_norm/batchnorm/add/y"], "attr": {"T": {"type": "DT_FLOAT"}}}, {"name": "StatefulPartitionedCall/Generator/encoder_down_resblock_2/instance_norm_1/batchnorm/Rsqrt", "op": "Rsqrt", "input": ["StatefulPartitionedCall/Generator/encoder_down_resblock_2/instance_norm_1/batchnorm/add"], "attr": {"T": {"type": "DT_FLOAT"}}}, {"name": "StatefulPartitionedCall/Generator/encoder_down_resblock_2/instance_norm_1/batchnorm/mul", "op": "Mul", "input": ["StatefulPartitionedCall/Generator/encoder_down_resblock_2/instance_norm_1/Reshape_1", "StatefulPartitionedCall/Generator/encoder_down_resblock_2/instance_norm_1/batchnorm/Rsqrt"], "attr": {"T": {"type": "DT_FLOAT"}}}, {"name": "StatefulPartitionedCall/Generator/encoder_down_resblock_2/instance_norm_1/batchnorm/mul_2", "op": "Mul", "input": ["StatefulPartitionedCall/Generator/encoder_down_resblock_2/instance_norm_1/batchnorm/mul", "StatefulPartitionedCall/Generator/encoder_down_resblock_2/instance_norm_1/moments/mean"], "attr": {"T": {"type": "DT_FLOAT"}}}, {"name": "StatefulPartitionedCall/Generator/encoder_down_resblock_2/instance_norm_1/batchnorm/mul_1", "op": "Mul", "input": ["StatefulPartitionedCall/Generator/encoder_down_resblock_2/instance_norm_1/Reshape", "StatefulPartitionedCall/Generator/encoder_down_resblock_2/instance_norm_1/batchnorm/mul"], "attr": {"T": {"type": "DT_FLOAT"}}}, {"name": "StatefulPartitionedCall/Generator/encoder_down_resblock_2/instance_norm_1/batchnorm/sub", "op": "Sub", "input": ["StatefulPartitionedCall/Generator/encoder_down_resblock_2/instance_norm_1/Reshape_2", "StatefulPartitionedCall/Generator/encoder_down_resblock_2/instance_norm_1/batchnorm/mul_2"], "attr": {"T": {"type": "DT_FLOAT"}}}, {"name": "StatefulPartitionedCall/Generator/encoder_down_resblock_2/instance_norm_1/batchnorm/add_1", "op": "AddV2", "input": ["StatefulPartitionedCall/Generator/encoder_down_resblock_2/instance_norm_1/batchnorm/mul_1", "StatefulPartitionedCall/Generator/encoder_down_resblock_2/instance_norm_1/batchnorm/sub"], "attr": {"T": {"type": "DT_FLOAT"}}}, {"name": "StatefulPartitionedCall/Generator/encoder_down_resblock_2/instance_norm_1/Reshape_3", "op": "Reshape", "input": ["StatefulPartitionedCall/Generator/encoder_down_resblock_2/instance_norm_1/batchnorm/add_1", "StatefulPartitionedCall/Generator/encoder_down_resblock_2/instance_norm_1/Shape"], "attr": {"T": {"type": "DT_FLOAT"}, "Tshape": {"type": "DT_INT32"}}}, {"name": "StatefulPartitionedCall/Generator/encoder_down_resblock_2/leaky_relu_1/LeakyRelu", "op": "LeakyRelu", "input": ["StatefulPartitionedCall/Generator/encoder_down_resblock_2/instance_norm_1/Reshape_3"], "attr": {"T": {"type": "DT_FLOAT"}, "alpha": {"f": 0.2}}}, {"name": "StatefulPartitionedCall/Generator/encoder_down_resblock_2/conv_1/Pad", "op": "Pad", "input": ["StatefulPartitionedCall/Generator/encoder_down_resblock_2/leaky_relu_1/LeakyRelu", "StatefulPartitionedCall/Generator/decoder_up_adaresblock_0/conv_0/Pad/paddings"], "attr": {"T": {"type": "DT_FLOAT"}, "Tpaddings": {"type": "DT_INT32"}}}, {"name": "StatefulPartitionedCall/Generator/encoder_down_resblock_2/conv_1/conv_1/BiasAdd", "op": "_FusedConv2D", "input": ["StatefulPartitionedCall/Generator/encoder_down_resblock_2/conv_1/Pad", "Func/StatefulPartitionedCall/input/_29", "Func/StatefulPartitionedCall/input/_30"], "device": "/device:CPU:0", "attr": {"dilations": {"list": {"i": ["1", "1", "1", "1"]}}, "T": {"type": "DT_FLOAT"}, "data_format": {"s": "TkhXQw=="}, "strides": {"list": {"i": ["1", "1", "1", "1"]}}, "use_cudnn_on_gpu": {"b": true}, "explicit_paddings": {"list": {}}, "num_args": {"i": "1"}, "epsilon": {"f": 0.0}, "padding": {"s": "VkFMSUQ="}, "fused_ops": {"list": {"s": ["Qmlhc0FkZA=="]}}}}, {"name": "StatefulPartitionedCall/Generator/encoder_down_resblock_2/add", "op": "AddV2", "input": ["StatefulPartitionedCall/Generator/encoder_down_resblock_2/avg_pool_1/AvgPool", "StatefulPartitionedCall/Generator/encoder_down_resblock_2/conv_1/conv_1/BiasAdd"], "attr": {"T": {"type": "DT_FLOAT"}}}, {"name": "StatefulPartitionedCall/Generator/encoder_down_resblock_2/truediv", "op": "Mul", "input": ["ConstantFolding/StatefulPartitionedCall/Generator/encoder_down_resblock_0/truediv_recip", "StatefulPartitionedCall/Generator/encoder_down_resblock_2/add"], "attr": {"T": {"type": "DT_FLOAT"}}}, {"name": "StatefulPartitionedCall/Generator/encoder_down_resblock_3/avg_pool_1/AvgPool", "op": "AvgPool", "input": ["StatefulPartitionedCall/Generator/encoder_down_resblock_2/truediv"], "attr": {"strides": {"list": {"i": ["1", "2", "2", "1"]}}, "data_format": {"s": "TkhXQw=="}, "ksize": {"list": {"i": ["1", "2", "2", "1"]}}, "padding": {"s": "VkFMSUQ="}, "T": {"type": "DT_FLOAT"}}}, {"name": "StatefulPartitionedCall/Generator/encoder_down_resblock_3/instance_norm_0/Shape", "op": "Shape", "input": ["StatefulPartitionedCall/Generator/encoder_down_resblock_2/truediv"], "attr": {"T": {"type": "DT_FLOAT"}, "out_type": {"type": "DT_INT32"}}}, {"name": "StatefulPartitionedCall/Generator/encoder_down_resblock_3/instance_norm_0/strided_slice", "op": "StridedSlice", "input": ["StatefulPartitionedCall/Generator/encoder_down_resblock_3/instance_norm_0/Shape", "StatefulPartitionedCall/Generator/sequential/ins_norm/strided_slice/stack", "StatefulPartitionedCall/Generator/sequential/ins_norm/strided_slice/stack_1", "StatefulPartitionedCall/Generator/sequential/ins_norm/strided_slice/stack_1"], "attr": {"T": {"type": "DT_INT32"}, "Index": {"type": "DT_INT32"}, "shrink_axis_mask": {"i": "1"}, "ellipsis_mask": {"i": "0"}, "begin_mask": {"i": "0"}, "new_axis_mask": {"i": "0"}, "end_mask": {"i": "0"}}}, {"name": "StatefulPartitionedCall/Generator/encoder_down_resblock_3/instance_norm_0/strided_slice_1", "op": "StridedSlice", "input": ["StatefulPartitionedCall/Generator/encoder_down_resblock_3/instance_norm_0/Shape", "StatefulPartitionedCall/Generator/sequential/ins_norm/strided_slice/stack_1", "StatefulPartitionedCall/Generator/sequential/ins_norm/strided_slice_1/stack_1", "StatefulPartitionedCall/Generator/sequential/ins_norm/strided_slice/stack_1"], "attr": {"new_axis_mask": {"i": "0"}, "end_mask": {"i": "0"}, "T": {"type": "DT_INT32"}, "Index": {"type": "DT_INT32"}, "shrink_axis_mask": {"i": "1"}, "ellipsis_mask": {"i": "0"}, "begin_mask": {"i": "0"}}}, {"name": "StatefulPartitionedCall/Generator/encoder_down_resblock_3/instance_norm_0/strided_slice_2", "op": "StridedSlice", "input": ["StatefulPartitionedCall/Generator/encoder_down_resblock_3/instance_norm_0/Shape", "StatefulPartitionedCall/Generator/sequential/ins_norm/strided_slice_1/stack_1", "StatefulPartitionedCall/Generator/sequential/ins_norm/strided_slice_2/stack_1", "StatefulPartitionedCall/Generator/sequential/ins_norm/strided_slice/stack_1"], "attr": {"shrink_axis_mask": {"i": "1"}, "begin_mask": {"i": "0"}, "ellipsis_mask": {"i": "0"}, "new_axis_mask": {"i": "0"}, "end_mask": {"i": "0"}, "T": {"type": "DT_INT32"}, "Index": {"type": "DT_INT32"}}}, {"name": "StatefulPartitionedCall/Generator/encoder_down_resblock_3/instance_norm_0/stack", "op": "Pack", "input": ["StatefulPartitionedCall/Generator/encoder_down_resblock_3/instance_norm_0/strided_slice", "StatefulPartitionedCall/Generator/encoder_down_resblock_3/instance_norm_0/strided_slice_1", "StatefulPartitionedCall/Generator/encoder_down_resblock_3/instance_norm_0/strided_slice_2", "StatefulPartitionedCall/Generator/encoder_bottleneck_resblock_1/instance_norm_1/stack/3", "StatefulPartitionedCall/Generator/sequential/ins_norm/stack/4"], "attr": {"N": {"i": "5"}, "T": {"type": "DT_INT32"}, "axis": {"i": "0"}}}, {"name": "StatefulPartitionedCall/Generator/encoder_down_resblock_3/instance_norm_0/Reshape", "op": "Reshape", "input": ["StatefulPartitionedCall/Generator/encoder_down_resblock_2/truediv", "StatefulPartitionedCall/Generator/encoder_down_resblock_3/instance_norm_0/stack"], "attr": {"Tshape": {"type": "DT_INT32"}, "T": {"type": "DT_FLOAT"}}}, {"name": "StatefulPartitionedCall/Generator/encoder_down_resblock_3/instance_norm_0/moments/mean", "op": "Mean", "input": ["StatefulPartitionedCall/Generator/encoder_down_resblock_3/instance_norm_0/Reshape", "StatefulPartitionedCall/Generator/sequential/ins_norm/moments/mean/reduction_indices"], "attr": {"Tidx": {"type": "DT_INT32"}, "keep_dims": {"b": true}, "T": {"type": "DT_FLOAT"}}}, {"name": "StatefulPartitionedCall/Generator/encoder_down_resblock_3/instance_norm_0/moments/SquaredDifference", "op": "SquaredDifference", "input": ["StatefulPartitionedCall/Generator/encoder_down_resblock_3/instance_norm_0/Reshape", "StatefulPartitionedCall/Generator/encoder_down_resblock_3/instance_norm_0/moments/mean"], "attr": {"T": {"type": "DT_FLOAT"}}}, {"name": "StatefulPartitionedCall/Generator/encoder_down_resblock_3/instance_norm_0/moments/variance", "op": "Mean", "input": ["StatefulPartitionedCall/Generator/encoder_down_resblock_3/instance_norm_0/moments/SquaredDifference", "StatefulPartitionedCall/Generator/sequential/ins_norm/moments/mean/reduction_indices"], "attr": {"T": {"type": "DT_FLOAT"}, "Tidx": {"type": "DT_INT32"}, "keep_dims": {"b": true}}}, {"name": "StatefulPartitionedCall/Generator/encoder_down_resblock_3/instance_norm_0/batchnorm/add", "op": "AddV2", "input": ["StatefulPartitionedCall/Generator/encoder_down_resblock_3/instance_norm_0/moments/variance", "StatefulPartitionedCall/Generator/sequential/ins_norm/batchnorm/add/y"], "attr": {"T": {"type": "DT_FLOAT"}}}, {"name": "StatefulPartitionedCall/Generator/encoder_down_resblock_3/instance_norm_0/batchnorm/Rsqrt", "op": "Rsqrt", "input": ["StatefulPartitionedCall/Generator/encoder_down_resblock_3/instance_norm_0/batchnorm/add"], "attr": {"T": {"type": "DT_FLOAT"}}}, {"name": "StatefulPartitionedCall/Generator/encoder_down_resblock_3/instance_norm_0/batchnorm/mul", "op": "Mul", "input": ["StatefulPartitionedCall/Generator/encoder_down_resblock_3/instance_norm_0/Reshape_1", "StatefulPartitionedCall/Generator/encoder_down_resblock_3/instance_norm_0/batchnorm/Rsqrt"], "attr": {"T": {"type": "DT_FLOAT"}}}, {"name": "StatefulPartitionedCall/Generator/encoder_down_resblock_3/instance_norm_0/batchnorm/mul_2", "op": "Mul", "input": ["StatefulPartitionedCall/Generator/encoder_down_resblock_3/instance_norm_0/batchnorm/mul", "StatefulPartitionedCall/Generator/encoder_down_resblock_3/instance_norm_0/moments/mean"], "attr": {"T": {"type": "DT_FLOAT"}}}, {"name": "StatefulPartitionedCall/Generator/encoder_down_resblock_3/instance_norm_0/batchnorm/mul_1", "op": "Mul", "input": ["StatefulPartitionedCall/Generator/encoder_down_resblock_3/instance_norm_0/Reshape", "StatefulPartitionedCall/Generator/encoder_down_resblock_3/instance_norm_0/batchnorm/mul"], "attr": {"T": {"type": "DT_FLOAT"}}}, {"name": "StatefulPartitionedCall/Generator/encoder_down_resblock_3/instance_norm_0/batchnorm/sub", "op": "Sub", "input": ["StatefulPartitionedCall/Generator/encoder_down_resblock_3/instance_norm_0/Reshape_2", "StatefulPartitionedCall/Generator/encoder_down_resblock_3/instance_norm_0/batchnorm/mul_2"], "attr": {"T": {"type": "DT_FLOAT"}}}, {"name": "StatefulPartitionedCall/Generator/encoder_down_resblock_3/instance_norm_0/batchnorm/add_1", "op": "AddV2", "input": ["StatefulPartitionedCall/Generator/encoder_down_resblock_3/instance_norm_0/batchnorm/mul_1", "StatefulPartitionedCall/Generator/encoder_down_resblock_3/instance_norm_0/batchnorm/sub"], "attr": {"T": {"type": "DT_FLOAT"}}}, {"name": "StatefulPartitionedCall/Generator/encoder_down_resblock_3/instance_norm_0/Reshape_3", "op": "Reshape", "input": ["StatefulPartitionedCall/Generator/encoder_down_resblock_3/instance_norm_0/batchnorm/add_1", "StatefulPartitionedCall/Generator/encoder_down_resblock_3/instance_norm_0/Shape"], "attr": {"T": {"type": "DT_FLOAT"}, "Tshape": {"type": "DT_INT32"}}}, {"name": "StatefulPartitionedCall/Generator/encoder_down_resblock_3/leaky_relu/LeakyRelu", "op": "LeakyRelu", "input": ["StatefulPartitionedCall/Generator/encoder_down_resblock_3/instance_norm_0/Reshape_3"], "attr": {"alpha": {"f": 0.2}, "T": {"type": "DT_FLOAT"}}}, {"name": "StatefulPartitionedCall/Generator/encoder_down_resblock_3/conv_0/Pad", "op": "Pad", "input": ["StatefulPartitionedCall/Generator/encoder_down_resblock_3/leaky_relu/LeakyRelu", "StatefulPartitionedCall/Generator/decoder_up_adaresblock_0/conv_0/Pad/paddings"], "attr": {"T": {"type": "DT_FLOAT"}, "Tpaddings": {"type": "DT_INT32"}}}, {"name": "StatefulPartitionedCall/Generator/encoder_down_resblock_3/conv_0/conv_0/BiasAdd", "op": "_FusedConv2D", "input": ["StatefulPartitionedCall/Generator/encoder_down_resblock_3/conv_0/Pad", "Func/StatefulPartitionedCall/input/_34", "Func/StatefulPartitionedCall/input/_35"], "device": "/device:CPU:0", "attr": {"epsilon": {"f": 0.0}, "padding": {"s": "VkFMSUQ="}, "fused_ops": {"list": {"s": ["Qmlhc0FkZA=="]}}, "dilations": {"list": {"i": ["1", "1", "1", "1"]}}, "T": {"type": "DT_FLOAT"}, "data_format": {"s": "TkhXQw=="}, "strides": {"list": {"i": ["1", "1", "1", "1"]}}, "use_cudnn_on_gpu": {"b": true}, "explicit_paddings": {"list": {}}, "num_args": {"i": "1"}}}, {"name": "StatefulPartitionedCall/Generator/encoder_down_resblock_3/avg_pool/AvgPool", "op": "AvgPool", "input": ["StatefulPartitionedCall/Generator/encoder_down_resblock_3/conv_0/conv_0/BiasAdd"], "attr": {"padding": {"s": "VkFMSUQ="}, "T": {"type": "DT_FLOAT"}, "data_format": {"s": "TkhXQw=="}, "strides": {"list": {"i": ["1", "2", "2", "1"]}}, "ksize": {"list": {"i": ["1", "2", "2", "1"]}}}}, {"name": "StatefulPartitionedCall/Generator/encoder_down_resblock_3/instance_norm_1/Shape", "op": "Shape", "input": ["StatefulPartitionedCall/Generator/encoder_down_resblock_3/avg_pool/AvgPool"], "attr": {"T": {"type": "DT_FLOAT"}, "out_type": {"type": "DT_INT32"}}}, {"name": "StatefulPartitionedCall/Generator/encoder_down_resblock_3/instance_norm_1/strided_slice", "op": "StridedSlice", "input": ["StatefulPartitionedCall/Generator/encoder_down_resblock_3/instance_norm_1/Shape", "StatefulPartitionedCall/Generator/sequential/ins_norm/strided_slice/stack", "StatefulPartitionedCall/Generator/sequential/ins_norm/strided_slice/stack_1", "StatefulPartitionedCall/Generator/sequential/ins_norm/strided_slice/stack_1"], "attr": {"shrink_axis_mask": {"i": "1"}, "begin_mask": {"i": "0"}, "ellipsis_mask": {"i": "0"}, "new_axis_mask": {"i": "0"}, "end_mask": {"i": "0"}, "T": {"type": "DT_INT32"}, "Index": {"type": "DT_INT32"}}}, {"name": "StatefulPartitionedCall/Generator/encoder_down_resblock_3/instance_norm_1/strided_slice_1", "op": "StridedSlice", "input": ["StatefulPartitionedCall/Generator/encoder_down_resblock_3/instance_norm_1/Shape", "StatefulPartitionedCall/Generator/sequential/ins_norm/strided_slice/stack_1", "StatefulPartitionedCall/Generator/sequential/ins_norm/strided_slice_1/stack_1", "StatefulPartitionedCall/Generator/sequential/ins_norm/strided_slice/stack_1"], "attr": {"Index": {"type": "DT_INT32"}, "T": {"type": "DT_INT32"}, "shrink_axis_mask": {"i": "1"}, "ellipsis_mask": {"i": "0"}, "begin_mask": {"i": "0"}, "new_axis_mask": {"i": "0"}, "end_mask": {"i": "0"}}}, {"name": "StatefulPartitionedCall/Generator/encoder_down_resblock_3/instance_norm_1/strided_slice_2", "op": "StridedSlice", "input": ["StatefulPartitionedCall/Generator/encoder_down_resblock_3/instance_norm_1/Shape", "StatefulPartitionedCall/Generator/sequential/ins_norm/strided_slice_1/stack_1", "StatefulPartitionedCall/Generator/sequential/ins_norm/strided_slice_2/stack_1", "StatefulPartitionedCall/Generator/sequential/ins_norm/strided_slice/stack_1"], "attr": {"new_axis_mask": {"i": "0"}, "end_mask": {"i": "0"}, "Index": {"type": "DT_INT32"}, "T": {"type": "DT_INT32"}, "shrink_axis_mask": {"i": "1"}, "ellipsis_mask": {"i": "0"}, "begin_mask": {"i": "0"}}}, {"name": "StatefulPartitionedCall/Generator/encoder_down_resblock_3/instance_norm_1/stack", "op": "Pack", "input": ["StatefulPartitionedCall/Generator/encoder_down_resblock_3/instance_norm_1/strided_slice", "StatefulPartitionedCall/Generator/encoder_down_resblock_3/instance_norm_1/strided_slice_1", "StatefulPartitionedCall/Generator/encoder_down_resblock_3/instance_norm_1/strided_slice_2", "StatefulPartitionedCall/Generator/encoder_bottleneck_resblock_1/instance_norm_1/stack/3", "StatefulPartitionedCall/Generator/sequential/ins_norm/stack/4"], "attr": {"T": {"type": "DT_INT32"}, "axis": {"i": "0"}, "N": {"i": "5"}}}, {"name": "StatefulPartitionedCall/Generator/encoder_down_resblock_3/instance_norm_1/Reshape", "op": "Reshape", "input": ["StatefulPartitionedCall/Generator/encoder_down_resblock_3/avg_pool/AvgPool", "StatefulPartitionedCall/Generator/encoder_down_resblock_3/instance_norm_1/stack"], "attr": {"T": {"type": "DT_FLOAT"}, "Tshape": {"type": "DT_INT32"}}}, {"name": "StatefulPartitionedCall/Generator/encoder_down_resblock_3/instance_norm_1/moments/mean", "op": "Mean", "input": ["StatefulPartitionedCall/Generator/encoder_down_resblock_3/instance_norm_1/Reshape", "StatefulPartitionedCall/Generator/sequential/ins_norm/moments/mean/reduction_indices"], "attr": {"Tidx": {"type": "DT_INT32"}, "keep_dims": {"b": true}, "T": {"type": "DT_FLOAT"}}}, {"name": "StatefulPartitionedCall/Generator/encoder_down_resblock_3/instance_norm_1/moments/SquaredDifference", "op": "SquaredDifference", "input": ["StatefulPartitionedCall/Generator/encoder_down_resblock_3/instance_norm_1/Reshape", "StatefulPartitionedCall/Generator/encoder_down_resblock_3/instance_norm_1/moments/mean"], "attr": {"T": {"type": "DT_FLOAT"}}}, {"name": "StatefulPartitionedCall/Generator/encoder_down_resblock_3/instance_norm_1/moments/variance", "op": "Mean", "input": ["StatefulPartitionedCall/Generator/encoder_down_resblock_3/instance_norm_1/moments/SquaredDifference", "StatefulPartitionedCall/Generator/sequential/ins_norm/moments/mean/reduction_indices"], "attr": {"Tidx": {"type": "DT_INT32"}, "keep_dims": {"b": true}, "T": {"type": "DT_FLOAT"}}}, {"name": "StatefulPartitionedCall/Generator/encoder_down_resblock_3/instance_norm_1/batchnorm/add", "op": "AddV2", "input": ["StatefulPartitionedCall/Generator/encoder_down_resblock_3/instance_norm_1/moments/variance", "StatefulPartitionedCall/Generator/sequential/ins_norm/batchnorm/add/y"], "attr": {"T": {"type": "DT_FLOAT"}}}, {"name": "StatefulPartitionedCall/Generator/encoder_down_resblock_3/instance_norm_1/batchnorm/Rsqrt", "op": "Rsqrt", "input": ["StatefulPartitionedCall/Generator/encoder_down_resblock_3/instance_norm_1/batchnorm/add"], "attr": {"T": {"type": "DT_FLOAT"}}}, {"name": "StatefulPartitionedCall/Generator/encoder_down_resblock_3/instance_norm_1/batchnorm/mul", "op": "Mul", "input": ["StatefulPartitionedCall/Generator/encoder_down_resblock_3/instance_norm_1/Reshape_1", "StatefulPartitionedCall/Generator/encoder_down_resblock_3/instance_norm_1/batchnorm/Rsqrt"], "attr": {"T": {"type": "DT_FLOAT"}}}, {"name": "StatefulPartitionedCall/Generator/encoder_down_resblock_3/instance_norm_1/batchnorm/mul_2", "op": "Mul", "input": ["StatefulPartitionedCall/Generator/encoder_down_resblock_3/instance_norm_1/batchnorm/mul", "StatefulPartitionedCall/Generator/encoder_down_resblock_3/instance_norm_1/moments/mean"], "attr": {"T": {"type": "DT_FLOAT"}}}, {"name": "StatefulPartitionedCall/Generator/encoder_down_resblock_3/instance_norm_1/batchnorm/mul_1", "op": "Mul", "input": ["StatefulPartitionedCall/Generator/encoder_down_resblock_3/instance_norm_1/Reshape", "StatefulPartitionedCall/Generator/encoder_down_resblock_3/instance_norm_1/batchnorm/mul"], "attr": {"T": {"type": "DT_FLOAT"}}}, {"name": "StatefulPartitionedCall/Generator/encoder_down_resblock_3/instance_norm_1/batchnorm/sub", "op": "Sub", "input": ["StatefulPartitionedCall/Generator/encoder_down_resblock_3/instance_norm_1/Reshape_2", "StatefulPartitionedCall/Generator/encoder_down_resblock_3/instance_norm_1/batchnorm/mul_2"], "attr": {"T": {"type": "DT_FLOAT"}}}, {"name": "StatefulPartitionedCall/Generator/encoder_down_resblock_3/instance_norm_1/batchnorm/add_1", "op": "AddV2", "input": ["StatefulPartitionedCall/Generator/encoder_down_resblock_3/instance_norm_1/batchnorm/mul_1", "StatefulPartitionedCall/Generator/encoder_down_resblock_3/instance_norm_1/batchnorm/sub"], "attr": {"T": {"type": "DT_FLOAT"}}}, {"name": "StatefulPartitionedCall/Generator/encoder_down_resblock_3/instance_norm_1/Reshape_3", "op": "Reshape", "input": ["StatefulPartitionedCall/Generator/encoder_down_resblock_3/instance_norm_1/batchnorm/add_1", "StatefulPartitionedCall/Generator/encoder_down_resblock_3/instance_norm_1/Shape"], "attr": {"Tshape": {"type": "DT_INT32"}, "T": {"type": "DT_FLOAT"}}}, {"name": "StatefulPartitionedCall/Generator/encoder_down_resblock_3/leaky_relu_1/LeakyRelu", "op": "LeakyRelu", "input": ["StatefulPartitionedCall/Generator/encoder_down_resblock_3/instance_norm_1/Reshape_3"], "attr": {"T": {"type": "DT_FLOAT"}, "alpha": {"f": 0.2}}}, {"name": "StatefulPartitionedCall/Generator/encoder_down_resblock_3/conv_1/Pad", "op": "Pad", "input": ["StatefulPartitionedCall/Generator/encoder_down_resblock_3/leaky_relu_1/LeakyRelu", "StatefulPartitionedCall/Generator/decoder_up_adaresblock_0/conv_0/Pad/paddings"], "attr": {"Tpaddings": {"type": "DT_INT32"}, "T": {"type": "DT_FLOAT"}}}, {"name": "StatefulPartitionedCall/Generator/encoder_down_resblock_3/conv_1/conv_1/BiasAdd", "op": "_FusedConv2D", "input": ["StatefulPartitionedCall/Generator/encoder_down_resblock_3/conv_1/Pad", "Func/StatefulPartitionedCall/input/_38", "Func/StatefulPartitionedCall/input/_39"], "device": "/device:CPU:0", "attr": {"dilations": {"list": {"i": ["1", "1", "1", "1"]}}, "T": {"type": "DT_FLOAT"}, "data_format": {"s": "TkhXQw=="}, "strides": {"list": {"i": ["1", "1", "1", "1"]}}, "explicit_paddings": {"list": {}}, "use_cudnn_on_gpu": {"b": true}, "num_args": {"i": "1"}, "epsilon": {"f": 0.0}, "padding": {"s": "VkFMSUQ="}, "fused_ops": {"list": {"s": ["Qmlhc0FkZA=="]}}}}, {"name": "StatefulPartitionedCall/Generator/encoder_down_resblock_3/add", "op": "AddV2", "input": ["StatefulPartitionedCall/Generator/encoder_down_resblock_3/avg_pool_1/AvgPool", "StatefulPartitionedCall/Generator/encoder_down_resblock_3/conv_1/conv_1/BiasAdd"], "attr": {"T": {"type": "DT_FLOAT"}}}, {"name": "StatefulPartitionedCall/Generator/encoder_down_resblock_3/truediv", "op": "Mul", "input": ["ConstantFolding/StatefulPartitionedCall/Generator/encoder_down_resblock_0/truediv_recip", "StatefulPartitionedCall/Generator/encoder_down_resblock_3/add"], "attr": {"T": {"type": "DT_FLOAT"}}}, {"name": "StatefulPartitionedCall/Generator/encoder_bottleneck_resblock_0/instance_norm_0/Shape", "op": "Shape", "input": ["StatefulPartitionedCall/Generator/encoder_down_resblock_3/truediv"], "attr": {"T": {"type": "DT_FLOAT"}, "out_type": {"type": "DT_INT32"}}}, {"name": "StatefulPartitionedCall/Generator/encoder_bottleneck_resblock_0/instance_norm_0/strided_slice", "op": "StridedSlice", "input": ["StatefulPartitionedCall/Generator/encoder_bottleneck_resblock_0/instance_norm_0/Shape", "StatefulPartitionedCall/Generator/sequential/ins_norm/strided_slice/stack", "StatefulPartitionedCall/Generator/sequential/ins_norm/strided_slice/stack_1", "StatefulPartitionedCall/Generator/sequential/ins_norm/strided_slice/stack_1"], "attr": {"end_mask": {"i": "0"}, "T": {"type": "DT_INT32"}, "Index": {"type": "DT_INT32"}, "shrink_axis_mask": {"i": "1"}, "ellipsis_mask": {"i": "0"}, "begin_mask": {"i": "0"}, "new_axis_mask": {"i": "0"}}}, {"name": "StatefulPartitionedCall/Generator/encoder_bottleneck_resblock_0/instance_norm_0/strided_slice_1", "op": "StridedSlice", "input": ["StatefulPartitionedCall/Generator/encoder_bottleneck_resblock_0/instance_norm_0/Shape", "StatefulPartitionedCall/Generator/sequential/ins_norm/strided_slice/stack_1", "StatefulPartitionedCall/Generator/sequential/ins_norm/strided_slice_1/stack_1", "StatefulPartitionedCall/Generator/sequential/ins_norm/s…
"i": ["1", "1", "1", "1"]}}, "data_format": {"s": "TkhXQw=="}, "use_cudnn_on_gpu": {"b": true}, "explicit_paddings": {"list": {}}, "padding": {"s": "VkFMSUQ="}}}, {"name": "StatefulPartitionedCall/Generator/decoder_up_adaresblock_0/adain_0/moments/SquaredDifference", "op": "SquaredDifference", "input": ["StatefulPartitionedCall/Generator/decoder_up_adaresblock_0/adain_0/moments/mean", "StatefulPartitionedCall/Generator/decoder_up_adaresblock_1/truediv"], "attr": {"T": {"type": "DT_FLOAT"}}}, {"name": "StatefulPartitionedCall/Generator/decoder_up_adaresblock_0/adain_0/sub", "op": "Sub", "input": ["StatefulPartitionedCall/Generator/decoder_up_adaresblock_1/truediv", "StatefulPartitionedCall/Generator/decoder_up_adaresblock_0/adain_0/moments/mean"], "attr": {"T": {"type": "DT_FLOAT"}}}, {"name": "StatefulPartitionedCall/Generator/decoder_up_adaresblock_0/adain_0/moments/variance", "op": "Mean", "input": ["StatefulPartitionedCall/Generator/decoder_up_adaresblock_0/adain_0/moments/SquaredDifference", "StatefulPartitionedCall/Generator/decoder_up_adaresblock_0/adain_0/moments/mean/reduction_indices"], "attr": {"Tidx": {"type": "DT_INT32"}, "keep_dims": {"b": true}, "T": {"type": "DT_FLOAT"}}}, {"name": "StatefulPartitionedCall/Generator/decoder_up_adaresblock_0/adain_0/add", "op": "AddV2", "input": ["StatefulPartitionedCall/Generator/decoder_up_adaresblock_0/adain_0/moments/variance", "StatefulPartitionedCall/Generator/sequential/ins_norm/batchnorm/add/y"], "attr": {"T": {"type": "DT_FLOAT"}}}, {"name": "StatefulPartitionedCall/Generator/decoder_up_adaresblock_0/adain_0/Sqrt", "op": "Rsqrt", "input": ["StatefulPartitionedCall/Generator/decoder_up_adaresblock_0/adain_0/add"], "attr": {"T": {"type": "DT_FLOAT"}}}, {"name": "StatefulPartitionedCall/Generator/decoder_up_adaresblock_0/adain_0/truediv", "op": "Mul", "input": ["StatefulPartitionedCall/Generator/decoder_up_adaresblock_0/adain_0/Sqrt", "StatefulPartitionedCall/Generator/decoder_up_adaresblock_0/adain_0/sub"], "attr": {"T": {"type": "DT_FLOAT"}}}, {"name": "StatefulPartitionedCall/Generator/decoder_up_adaresblock_0/adain_0/mul", "op": "Mul", "input": ["StatefulPartitionedCall/Generator/decoder_up_adaresblock_0/adain_0/add_1", "StatefulPartitionedCall/Generator/decoder_up_adaresblock_0/adain_0/truediv"], "attr": {"T": {"type": "DT_FLOAT"}}}, {"name": "StatefulPartitionedCall/Generator/decoder_up_adaresblock_0/adain_0/add_2", "op": "AddV2", "input": ["StatefulPartitionedCall/Generator/decoder_up_adaresblock_0/adain_0/Reshape_1", "StatefulPartitionedCall/Generator/decoder_up_adaresblock_0/adain_0/mul"], "attr": {"T": {"type": "DT_FLOAT"}}}, {"name": "StatefulPartitionedCall/Generator/decoder_up_adaresblock_0/leaky_relu/LeakyRelu", "op": "LeakyRelu", "input": ["StatefulPartitionedCall/Generator/decoder_up_adaresblock_0/adain_0/add_2"], "attr": {"T": {"type": "DT_FLOAT"}, "alpha": {"f": 0.2}}}, {"name": "StatefulPartitionedCall/Generator/decoder_up_adaresblock_0/resize/ResizeNearestNeighbor", "op": "ResizeNearestNeighbor", "input": ["StatefulPartitionedCall/Generator/decoder_up_adaresblock_0/leaky_relu/LeakyRelu", "StatefulPartitionedCall/Generator/decoder_up_adaresblock_0/resize/size"], "attr": {"align_corners": {"b": false}, "half_pixel_centers": {"b": true}, "T": {"type": "DT_FLOAT"}}}, {"name": "StatefulPartitionedCall/Generator/decoder_up_adaresblock_0/conv_0/Pad", "op": "Pad", "input": ["StatefulPartitionedCall/Generator/decoder_up_adaresblock_0/resize/ResizeNearestNeighbor", "StatefulPartitionedCall/Generator/decoder_up_adaresblock_0/conv_0/Pad/paddings"], "attr": {"T": {"type": "DT_FLOAT"}, "Tpaddings": {"type": "DT_INT32"}}}, {"name": "StatefulPartitionedCall/Generator/decoder_up_adaresblock_0/conv_0/conv_0/BiasAdd", "op": "_FusedConv2D", "input": ["StatefulPartitionedCall/Generator/decoder_up_adaresblock_0/conv_0/Pad", "Func/StatefulPartitionedCall/input/_122", "Func/StatefulPartitionedCall/input/_123"], "device": "/device:CPU:0", "attr": {"epsilon": {"f": 0.0}, "padding": {"s": "VkFMSUQ="}, "fused_ops": {"list": {"s": ["Qmlhc0FkZA=="]}}, "dilations": {"list": {"i": ["1", "1", "1", "1"]}}, "T": {"type": "DT_FLOAT"}, "strides": {"list": {"i": ["1", "1", "1", "1"]}}, "data_format": {"s": "TkhXQw=="}, "use_cudnn_on_gpu": {"b": true}, "explicit_paddings": {"list": {}}, "num_args": {"i": "1"}}}, {"name": "StatefulPartitionedCall/Generator/decoder_up_adaresblock_0/adain_1/moments/mean", "op": "Mean", "input": ["StatefulPartitionedCall/Generator/decoder_up_adaresblock_0/conv_0/conv_0/BiasAdd", "StatefulPartitionedCall/Generator/decoder_up_adaresblock_0/adain_0/moments/mean/reduction_indices"], "attr": {"Tidx": {"type": "DT_INT32"}, "keep_dims": {"b": true}, "T": {"type": "DT_FLOAT"}}}, {"name": "StatefulPartitionedCall/Generator/decoder_up_adaresblock_0/adain_1/moments/SquaredDifference", "op": "SquaredDifference", "input": ["StatefulPartitionedCall/Generator/decoder_up_adaresblock_0/adain_1/moments/mean", "StatefulPartitionedCall/Generator/decoder_up_adaresblock_0/conv_0/conv_0/BiasAdd"], "attr": {"T": {"type": "DT_FLOAT"}}}, {"name": "StatefulPartitionedCall/Generator/decoder_up_adaresblock_0/adain_1/sub", "op": "Sub", "input": ["StatefulPartitionedCall/Generator/decoder_up_adaresblock_0/conv_0/conv_0/BiasAdd", "StatefulPartitionedCall/Generator/decoder_up_adaresblock_0/adain_1/moments/mean"], "attr": {"T": {"type": "DT_FLOAT"}}}, {"name": "StatefulPartitionedCall/Generator/decoder_up_adaresblock_0/adain_1/moments/variance", "op": "Mean", "input": ["StatefulPartitionedCall/Generator/decoder_up_adaresblock_0/adain_1/moments/SquaredDifference", "StatefulPartitionedCall/Generator/decoder_up_adaresblock_0/adain_0/moments/mean/reduction_indices"], "attr": {"Tidx": {"type": "DT_INT32"}, "keep_dims": {"b": true}, "T": {"type": "DT_FLOAT"}}}, {"name": "StatefulPartitionedCall/Generator/decoder_up_adaresblock_0/adain_1/add", "op": "AddV2", "input": ["StatefulPartitionedCall/Generator/decoder_up_adaresblock_0/adain_1/moments/variance", "StatefulPartitionedCall/Generator/sequential/ins_norm/batchnorm/add/y"], "attr": {"T": {"type": "DT_FLOAT"}}}, {"name": "StatefulPartitionedCall/Generator/decoder_up_adaresblock_0/adain_1/Sqrt", "op": "Rsqrt", "input": ["StatefulPartitionedCall/Generator/decoder_up_adaresblock_0/adain_1/add"], "attr": {"T": {"type": "DT_FLOAT"}}}, {"name": "StatefulPartitionedCall/Generator/decoder_up_adaresblock_0/adain_1/truediv", "op": "Mul", "input": ["StatefulPartitionedCall/Generator/decoder_up_adaresblock_0/adain_1/Sqrt", "StatefulPartitionedCall/Generator/decoder_up_adaresblock_0/adain_1/sub"], "attr": {"T": {"type": "DT_FLOAT"}}}, {"name": "StatefulPartitionedCall/Generator/decoder_up_adaresblock_0/adain_1/mul", "op": "Mul", "input": ["StatefulPartitionedCall/Generator/decoder_up_adaresblock_0/adain_1/add_1", "StatefulPartitionedCall/Generator/decoder_up_adaresblock_0/adain_1/truediv"], "attr": {"T": {"type": "DT_FLOAT"}}}, {"name": "StatefulPartitionedCall/Generator/decoder_up_adaresblock_0/adain_1/add_2", "op": "AddV2", "input": ["StatefulPartitionedCall/Generator/decoder_up_adaresblock_0/adain_1/Reshape_1", "StatefulPartitionedCall/Generator/decoder_up_adaresblock_0/adain_1/mul"], "attr": {"T": {"type": "DT_FLOAT"}}}, {"name": "StatefulPartitionedCall/Generator/decoder_up_adaresblock_0/leaky_relu_1/LeakyRelu", "op": "LeakyRelu", "input": ["StatefulPartitionedCall/Generator/decoder_up_adaresblock_0/adain_1/add_2"], "attr": {"T": {"type": "DT_FLOAT"}, "alpha": {"f": 0.2}}}, {"name": "StatefulPartitionedCall/Generator/decoder_up_adaresblock_0/conv_1/Pad", "op": "Pad", "input": ["StatefulPartitionedCall/Generator/decoder_up_adaresblock_0/leaky_relu_1/LeakyRelu", "StatefulPartitionedCall/Generator/decoder_up_adaresblock_0/conv_0/Pad/paddings"], "attr": {"T": {"type": "DT_FLOAT"}, "Tpaddings": {"type": "DT_INT32"}}}, {"name": "StatefulPartitionedCall/Generator/decoder_up_adaresblock_0/conv_1/conv_1/BiasAdd", "op": "_FusedConv2D", "input": ["StatefulPartitionedCall/Generator/decoder_up_adaresblock_0/conv_1/Pad", "Func/StatefulPartitionedCall/input/_128", "Func/StatefulPartitionedCall/input/_129"], "device": "/device:CPU:0", "attr": {"num_args": {"i": "1"}, "epsilon": {"f": 0.0}, "padding": {"s": "VkFMSUQ="}, "fused_ops": {"list": {"s": ["Qmlhc0FkZA=="]}}, "dilations": {"list": {"i": ["1", "1", "1", "1"]}}, "T": {"type": "DT_FLOAT"}, "strides": {"list": {"i": ["1", "1", "1", "1"]}}, "data_format": {"s": "TkhXQw=="}, "use_cudnn_on_gpu": {"b": true}, "explicit_paddings": {"list": {}}}}, {"name": "StatefulPartitionedCall/Generator/decoder_up_adaresblock_0/add", "op": "AddV2", "input": ["StatefulPartitionedCall/Generator/decoder_up_adaresblock_0/conv_1/conv_1/BiasAdd", "StatefulPartitionedCall/Generator/decoder_up_adaresblock_0/skip_conv/skip_conv/Conv2D"], "attr": {"T": {"type": "DT_FLOAT"}}}, {"name": "StatefulPartitionedCall/Generator/decoder_up_adaresblock_0/truediv", "op": "Mul", "input": ["ConstantFolding/StatefulPartitionedCall/Generator/encoder_down_resblock_0/truediv_recip", "StatefulPartitionedCall/Generator/decoder_up_adaresblock_0/add"], "attr": {"T": {"type": "DT_FLOAT"}}}, {"name": "StatefulPartitionedCall/Generator/sequential/ins_norm/Shape", "op": "Shape", "input": ["StatefulPartitionedCall/Generator/decoder_up_adaresblock_0/truediv"], "attr": {"T": {"type": "DT_FLOAT"}, "out_type": {"type": "DT_INT32"}}}, {"name": "StatefulPartitionedCall/Generator/sequential/ins_norm/strided_slice", "op": "StridedSlice", "input": ["StatefulPartitionedCall/Generator/sequential/ins_norm/Shape", "StatefulPartitionedCall/Generator/sequential/ins_norm/strided_slice/stack", "StatefulPartitionedCall/Generator/sequential/ins_norm/strided_slice/stack_1", "StatefulPartitionedCall/Generator/sequential/ins_norm/strided_slice/stack_1"], "attr": {"T": {"type": "DT_INT32"}, "Index": {"type": "DT_INT32"}, "shrink_axis_mask": {"i": "1"}, "begin_mask": {"i": "0"}, "ellipsis_mask": {"i": "0"}, "new_axis_mask": {"i": "0"}, "end_mask": {"i": "0"}}}, {"name": "StatefulPartitionedCall/Generator/sequential/ins_norm/strided_slice_1", "op": "StridedSlice", "input": ["StatefulPartitionedCall/Generator/sequential/ins_norm/Shape", "StatefulPartitionedCall/Generator/sequential/ins_norm/strided_slice/stack_1", "StatefulPartitionedCall/Generator/sequential/ins_norm/strided_slice_1/stack_1", "StatefulPartitionedCall/Generator/sequential/ins_norm/strided_slice/stack_1"], "attr": {"Index": {"type": "DT_INT32"}, "T": {"type": "DT_INT32"}, "shrink_axis_mask": {"i": "1"}, "begin_mask": {"i": "0"}, "ellipsis_mask": {"i": "0"}, "new_axis_mask": {"i": "0"}, "end_mask": {"i": "0"}}}, {"name": "StatefulPartitionedCall/Generator/sequential/ins_norm/strided_slice_2", "op": "StridedSlice", "input": ["StatefulPartitionedCall/Generator/sequential/ins_norm/Shape", "StatefulPartitionedCall/Generator/sequential/ins_norm/strided_slice_1/stack_1", "StatefulPartitionedCall/Generator/sequential/ins_norm/strided_slice_2/stack_1", "StatefulPartitionedCall/Generator/sequential/ins_norm/strided_slice/stack_1"], "attr": {"ellipsis_mask": {"i": "0"}, "begin_mask": {"i": "0"}, "new_axis_mask": {"i": "0"}, "end_mask": {"i": "0"}, "T": {"type": "DT_INT32"}, "Index": {"type": "DT_INT32"}, "shrink_axis_mask": {"i": "1"}}}, {"name": "StatefulPartitionedCall/Generator/sequential/ins_norm/stack", "op": "Pack", "input": ["StatefulPartitionedCall/Generator/sequential/ins_norm/strided_slice", "StatefulPartitionedCall/Generator/sequential/ins_norm/strided_slice_1", "StatefulPartitionedCall/Generator/sequential/ins_norm/strided_slice_2", "StatefulPartitionedCall/Generator/sequential/ins_norm/stack/3", "StatefulPartitionedCall/Generator/sequential/ins_norm/stack/4"], "attr": {"T": {"type": "DT_INT32"}, "axis": {"i": "0"}, "N": {"i": "5"}}}, {"name": "StatefulPartitionedCall/Generator/sequential/ins_norm/Reshape", "op": "Reshape", "input": ["StatefulPartitionedCall/Generator/decoder_up_adaresblock_0/truediv", "StatefulPartitionedCall/Generator/sequential/ins_norm/stack"], "attr": {"T": {"type": "DT_FLOAT"}, "Tshape": {"type": "DT_INT32"}}}, {"name": "StatefulPartitionedCall/Generator/sequential/ins_norm/moments/mean", "op": "Mean", "input": ["StatefulPartitionedCall/Generator/sequential/ins_norm/Reshape", "StatefulPartitionedCall/Generator/sequential/ins_norm/moments/mean/reduction_indices"], "attr": {"Tidx": {"type": "DT_INT32"}, "keep_dims": {"b": true}, "T": {"type": "DT_FLOAT"}}}, {"name": "StatefulPartitionedCall/Generator/sequential/ins_norm/moments/SquaredDifference", "op": "SquaredDifference", "input": ["StatefulPartitionedCall/Generator/sequential/ins_norm/Reshape", "StatefulPartitionedCall/Generator/sequential/ins_norm/moments/mean"], "attr": {"T": {"type": "DT_FLOAT"}}}, {"name": "StatefulPartitionedCall/Generator/sequential/ins_norm/moments/variance", "op": "Mean", "input": ["StatefulPartitionedCall/Generator/sequential/ins_norm/moments/SquaredDifference", "StatefulPartitionedCall/Generator/sequential/ins_norm/moments/mean/reduction_indices"], "attr": {"T": {"type": "DT_FLOAT"}, "Tidx": {"type": "DT_INT32"}, "keep_dims": {"b": true}}}, {"name": "StatefulPartitionedCall/Generator/sequential/ins_norm/batchnorm/add", "op": "AddV2", "input": ["StatefulPartitionedCall/Generator/sequential/ins_norm/batchnorm/add/y", "StatefulPartitionedCall/Generator/sequential/ins_norm/moments/variance"], "attr": {"T": {"type": "DT_FLOAT"}}}, {"name": "StatefulPartitionedCall/Generator/sequential/ins_norm/batchnorm/Rsqrt", "op": "Rsqrt", "input": ["StatefulPartitionedCall/Generator/sequential/ins_norm/batchnorm/add"], "attr": {"T": {"type": "DT_FLOAT"}}}, {"name": "StatefulPartitionedCall/Generator/sequential/ins_norm/batchnorm/mul", "op": "Mul", "input": ["StatefulPartitionedCall/Generator/sequential/ins_norm/Reshape_1", "StatefulPartitionedCall/Generator/sequential/ins_norm/batchnorm/Rsqrt"], "attr": {"T": {"type": "DT_FLOAT"}}}, {"name": "StatefulPartitionedCall/Generator/sequential/ins_norm/batchnorm/mul_2", "op": "Mul", "input": ["StatefulPartitionedCall/Generator/sequential/ins_norm/batchnorm/mul", "StatefulPartitionedCall/Generator/sequential/ins_norm/moments/mean"], "attr": {"T": {"type": "DT_FLOAT"}}}, {"name": "StatefulPartitionedCall/Generator/sequential/ins_norm/batchnorm/mul_1", "op": "Mul", "input": ["StatefulPartitionedCall/Generator/sequential/ins_norm/Reshape", "StatefulPartitionedCall/Generator/sequential/ins_norm/batchnorm/mul"], "attr": {"T": {"type": "DT_FLOAT"}}}, {"name": "StatefulPartitionedCall/Generator/sequential/ins_norm/batchnorm/sub", "op": "Sub", "input": ["StatefulPartitionedCall/Generator/sequential/ins_norm/Reshape_2", "StatefulPartitionedCall/Generator/sequential/ins_norm/batchnorm/mul_2"], "attr": {"T": {"type": "DT_FLOAT"}}}, {"name": "StatefulPartitionedCall/Generator/sequential/ins_norm/batchnorm/add_1", "op": "AddV2", "input": ["StatefulPartitionedCall/Generator/sequential/ins_norm/batchnorm/mul_1", "StatefulPartitionedCall/Generator/sequential/ins_norm/batchnorm/sub"], "attr": {"T": {"type": "DT_FLOAT"}}}, {"name": "StatefulPartitionedCall/Generator/sequential/ins_norm/Reshape_3", "op": "Reshape", "input": ["StatefulPartitionedCall/Generator/sequential/ins_norm/batchnorm/add_1", "StatefulPartitionedCall/Generator/sequential/ins_norm/Shape"], "attr": {"T": {"type": "DT_FLOAT"}, "Tshape": {"type": "DT_INT32"}}}, {"name": "StatefulPartitionedCall/Generator/sequential/leaky_relu/LeakyRelu", "op": "LeakyRelu", "input": ["StatefulPartitionedCall/Generator/sequential/ins_norm/Reshape_3"], "attr": {"T": {"type": "DT_FLOAT"}, "alpha": {"f": 0.2}}}, {"name": "StatefulPartitionedCall/Generator/sequential/to_rgb/to_rgb/BiasAdd", "op": "_FusedConv2D", "input": ["StatefulPartitionedCall/Generator/sequential/leaky_relu/LeakyRelu", "Func/StatefulPartitionedCall/input/_133", "Func/StatefulPartitionedCall/input/_134"], "device": "/device:CPU:0", "attr": {"padding": {"s": "VkFMSUQ="}, "fused_ops": {"list": {"s": ["Qmlhc0FkZA=="]}}, "dilations": {"list": {"i": ["1", "1", "1", "1"]}}, "T": {"type": "DT_FLOAT"}, "strides": {"list": {"i": ["1", "1", "1", "1"]}}, "data_format": {"s": "TkhXQw=="}, "use_cudnn_on_gpu": {"b": true}, "explicit_paddings": {"list": {}}, "num_args": {"i": "1"}, "epsilon": {"f": 0.0}}}, {"name": "Identity", "op": "Identity", "input": ["StatefulPartitionedCall/Generator/sequential/to_rgb/to_rgb/BiasAdd"], "attr": {"T": {"type": "DT_FLOAT"}}}], "library": {}, "versions": {"producer": 175}}, "weightsManifest": [{"paths": ["group1-shard1of9.bin", "group1-shard2of9.bin", "group1-shard3of9.bin", "group1-shard4of9.bin", "group1-shard5of9.bin", "group1-shard6of9.bin", "group1-shard7of9.bin", "group1-shard8of9.bin", "group1-shard9of9.bin"], "weights": [{"name": "StatefulPartitionedCall/Generator/sequential/ins_norm/Reshape_2", "shape": [1, 1, 1, 64, 1], "dtype": "float32", "quantization": {"dtype": "uint8", "min": -0.2502590165418737, "scale": 0.0019861826709672518, "original_dtype": "float32"}}, {"name": "StatefulPartitionedCall/Generator/sequential/ins_norm/Reshape_1", "shape": [1, 1, 1, 64, 1], "dtype": "float32", "quantization": {"dtype": "uint8", "min": 0.8658155202865601, "scale": 0.0014115370956121706, "original_dtype": "float32"}}, {"name": "Func/StatefulPartitionedCall/input/_126", "shape": [64, 64], "dtype": "float32", "quantization": {"dtype": "uint8", "min": -0.2540712745750651, "scale": 0.0020656201184964646, "original_dtype": "float32"}}, {"name": "Func/StatefulPartitionedCall/input/_127", "shape": [64], "dtype": "float32", "quantization": {"dtype": "uint8", "min": -0.7816202121622422, "scale": 0.005317144300423416, "original_dtype": "float32"}}, {"name": "Func/StatefulPartitionedCall/input/_124", "shape": [64, 64], "dtype": "float32", "quantization": {"dtype": "uint8", "min": -0.47041628056881474, "scale": 0.00370406520132925, "original_dtype": "float32"}}, {"name": "Func/StatefulPartitionedCall/input/_125", "shape": [64], "dtype": "float32", "quantization": {"dtype": "uint8", "min": -1.0483274263494156, "scale": 0.009195854617100136, "original_dtype": "float32"}}, {"name": "StatefulPartitionedCall/Generator/decoder_up_adaresblock_0/adain_1/Reshape/shape", "shape": [4], "dtype": "int32"}, {"name": "Func/StatefulPartitionedCall/input/_120", "shape": [64, 128], "dtype": "float32", "quantization": {"dtype": "uint8", "min": -0.19759263361201568, "scale": 0.0015934889807420619, "original_dtype": "float32"}}, {"name": "Func/StatefulPartitionedCall/input/_121", "shape": [128], "dtype": "float32", "quantization": {"dtype": "uint8", "min": -0.71392009936127, "scale": 0.004791410062827316, "original_dtype": "float32"}}, {"name": "Func/StatefulPartitionedCall/input/_118", "shape": [64, 128], "dtype": "float32", "quantization": {"dtype": "uint8", "min": -0.38388209600074613, "scale": 0.0028863315488777907, "original_dtype": "float32"}}, {"name": "Func/StatefulPartitionedCall/input/_119", "shape": [128], "dtype": "float32", "quantization": {"dtype": "uint8", "min": -1.198944091796875, "scale": 0.009366750717163086, "original_dtype": "float32"}}, {"name": "Func/StatefulPartitionedCall/input/_122", "shape": [3, 3, 128, 64], "dtype": "float32", "quantization": {"dtype": "uint8", "min": -0.42442580391378965, "scale": 0.0029474014160679836, "original_dtype": "float32"}}, {"name": "Func/StatefulPartitionedCall/input/_123", "shape": [64], "dtype": "float32", "quantization": {"dtype": "uint8", "min": -0.006247552878716412, "scale": 8.330070504955217e-05, "original_dtype": "float32"}}, {"name": "Func/StatefulPartitionedCall/input/_128", "shape": [3, 3, 64, 64], "dtype": "float32", "quantization": {"dtype": "uint8", "min": -0.6391415271104551, "scale": 0.004598140482809029, "original_dtype": "float32"}}, {"name": "Func/StatefulPartitionedCall/input/_129", "shape": [64], "dtype": "float32", "quantization": {"dtype": "uint8", "min": -0.016950240599758484, "scale": 0.00014008463305585525, "original_dtype": "float32"}}, {"name": "Func/StatefulPartitionedCall/input/_113", "shape": [64, 128], "dtype": "float32", "quantization": {"dtype": "uint8", "min": -0.22318220658629548, "scale": 0.00197506377509996, "original_dtype": "float32"}}, {"name": "Func/StatefulPartitionedCall/input/_114", "shape": [128], "dtype": "float32", "quantization": {"dtype": "uint8", "min": -0.5003672043482463, "scale": 0.0029433364961661546, "original_dtype": "float32"}}, {"name": "Func/StatefulPartitionedCall/input/_111", "shape": [64, 128], "dtype": "float32", "quantization": {"dtype": "uint8", "min": -0.4623090192383411, "scale": 0.0035290764827354284, "original_dtype": "float32"}}, {"name": "Func/StatefulPartitionedCall/input/_112", "shape": [128], "dtype": "float32", "quantization": {"dtype": "uint8", "min": -0.7667902076945585, "scale": 0.00730276388280532, "original_dtype": "float32"}}, {"name": "StatefulPartitionedCall/Generator/decoder_up_adaresblock_0/adain_0/Reshape/shape", "shape": [4], "dtype": "int32"}, {"name": "Func/StatefulPartitionedCall/input/_107", "shape": [64, 256], "dtype": "float32", "quantization": {"dtype": "uint8", "min": -0.20179099148395013, "scale": 0.001540389247969085, "original_dtype": "float32"}}, {"name": "Func/StatefulPartitionedCall/input/_108", "shape": [256], "dtype": "float32", "quantization": {"dtype": "uint8", "min": -0.7343633639461854, "scale": 0.003765965968954797, "original_dtype": "float32"}}, {"name": "Func/StatefulPartitionedCall/input/_105", "shape": [64, 256], "dtype": "float32", "quantization": {"dtype": "uint8", "min": -0.32053249980889115, "scale": 0.0024468129756403906, "original_dtype": "float32"}}, {"name": "Func/StatefulPartitionedCall/input/_106", "shape": [256], "dtype": "float32", "quantization": {"dtype": "uint8", "min": -0.7118036174306682, "scale": 0.007492669657164929, "original_dtype": "float32"}}, {"name": "Func/StatefulPartitionedCall/input/_109", "shape": [3, 3, 256, 128], "dtype": "float32", "quantization": {"dtype": "uint8", "min": -0.34955364711144393, "scale": 0.002709718194662356, "original_dtype": "float32"}}, {"name": "Func/StatefulPartitionedCall/input/_110", "shape": [128], "dtype": "float32", "quantization": {"dtype": "uint8", "min": -0.011702300597201374, "scale": 6.126858951414332e-05, "original_dtype": "float32"}}, {"name": "Func/StatefulPartitionedCall/input/_115", "shape": [3, 3, 128, 128], "dtype": "float32", "quantization": {"dtype": "uint8", "min": -0.5329077727654401, "scale": 0.0037794877501095042, "original_dtype": "float32"}}, {"name": "Func/StatefulPartitionedCall/input/_116", "shape": [128], "dtype": "float32", "quantization": {"dtype": "uint8", "min": -0.017802433143643773, "scale": 0.00015086807748850654, "original_dtype": "float32"}}, {"name": "Func/StatefulPartitionedCall/input/_100", "shape": [64, 256], "dtype": "float32", "quantization": {"dtype": "uint8", "min": -0.18233352548935836, "scale": 0.001519446045744653, "original_dtype": "float32"}}, {"name": "Func/StatefulPartitionedCall/input/_101", "shape": [256], "dtype": "float32", "quantization": {"dtype": "uint8", "min": -1.0163998516166912, "scale": 0.004641095212861604, "original_dtype": "float32"}}, {"name": "Func/StatefulPartitionedCall/input/_98", "shape": [64, 256], "dtype": "float32", "quantization": {"dtype": "uint8", "min": -0.34064972938275806, "scale": 0.0028152870196922154, "original_dtype": "float32"}}, {"name": "Func/StatefulPartitionedCall/input/_99", "shape": [256], "dtype": "float32", "quantization": {"dtype": "uint8", "min": -1.052654539603813, "scale": 0.007914695786494834, "original_dtype": "float32"}}, {"name": "StatefulPartitionedCall/Generator/decoder_up_adaresblock_1/adain_0/Reshape/shape", "shape": [4], "dtype": "int32"}, {"name": "Func/StatefulPartitionedCall/input/_94", "shape": [64, 512], "dtype": "float32", "quantization": {"dtype": "uint8", "min": -0.2658101187032812, "scale": 0.002060543555839389, "original_dtype": "float32"}}, {"name": "Func/StatefulPartitionedCall/input/_95", "shape": [512], "dtype": "float32", "quantization": {"dtype": "uint8", "min": -1.1332089098060831, "scale": 0.0056378552726670805, "original_dtype": "float32"}}, {"name": "Func/StatefulPartitionedCall/input/_92", "shape": [64, 512], "dtype": "float32", "quantization": {"dtype": "uint8", "min": -0.28677216324151733, "scale": 0.002430272569843367, "original_dtype": "float32"}}, {"name": "Func/StatefulPartitionedCall/input/_93", "shape": [512], "dtype": "float32", "quantization": {"dtype": "uint8", "min": -0.7281556508120368, "scale": 0.005919964640748267, "original_dtype": "float32"}}, {"name": "Func/StatefulPartitionedCall/input/_96", "shape": [3, 3, 512, 256], "dtype": "float32", "quantization": {"dtype": "uint8", "min": -0.46471694263757446, "scale": 0.003468036885355033, "original_dtype": "float32"}}, {"name": "Func/StatefulPartitionedCall/input/_97", "shape": [256], "dtype": "float32", "quantization": {"dtype": "uint8", "min": -0.007725609619827831, "scale": 4.389550920356722e-05, "original_dtype": "float32"}}, {"name": "Func/StatefulPartitionedCall/input/_102", "shape": [3, 3, 256, 256], "dtype": "float32", "quantization": {"dtype": "uint8", "min": -0.4309459101920034, "scale": 0.0034753702434838986, "original_dtype": "float32"}}, {"name": "Func/StatefulPartitionedCall/input/_103", "shape": [256], "dtype": "float32", "quantization": {"dtype": "uint8", "min": -0.0176219516159857, "scale": 0.00011747967743990467, "original_dtype": "float32"}}, {"name": "Func/StatefulPartitionedCall/input/_88", "shape": [64, 512], "dtype": "float32", "quantization": {"dtype": "uint8", "min": -0.21192147451288562, "scale": 0.0016054657160067091, "original_dtype": "float32"}}, {"name": "Func/StatefulPartitionedCall/input/_89", "shape": [512], "dtype": "float32", "quantization": {"dtype": "uint8", "min": -0.9538906232983458, "scale": 0.0047222308084076525, "original_dtype": "float32"}}, {"name": "Func/StatefulPartitionedCall/input/_86", "shape": [64, 512], "dtype": "float32", "quantization": {"dtype": "uint8", "min": -0.33788563223446116, "scale": 0.0024484466103946462, "original_dtype": "float32"}}, {"name": "Func/StatefulPartitionedCall/input/_87", "shape": [512], "dtype": "float32", "quantization": {"dtype": "uint8", "min": -0.8318088007908241, "scale": 0.006498506256178313, "original_dtype": "float32"}}, {"name": "Func/StatefulPartitionedCall/input/_82", "shape": [64, 512], "dtype": "float32", "quantization": {"dtype": "uint8", "min": -0.20545109685729532, "scale": 0.0015683289836434756, "original_dtype": "float32"}}, {"name": "Func/StatefulPartitionedCall/input/_83", "shape": [512], "dtype": "float32", "quantization": {"dtype": "uint8", "min": -0.9315075527219212, "scale": 0.005447412589017083, "original_dtype": "float32"}}, {"name": "Func/StatefulPartitionedCall/input/_80", "shape": [64, 512], "dtype": "float32", "quantization": {"dtype": "uint8", "min": -0.2536335321033702, "scale": 0.002078963377896477, "original_dtype": "float32"}}, {"name": "Func/StatefulPartitionedCall/input/_81", "shape": [512], "dtype": "float32", "quantization": {"dtype": "uint8", "min": -0.32858808321111344, "scale": 0.003820791665245505, "original_dtype": "float32"}}, {"name": "Func/StatefulPartitionedCall/input/_84", "shape": [3, 3, 512, 512], "dtype": "float32", "quantization": {"dtype": "uint8", "min": -0.42211054002537446, "scale": 0.0033768843202029958, "original_dtype": "float32"}}, {"name": "Func/StatefulPartitionedCall/input/_85", "shape": [512], "dtype": "float32", "quantization": {"dtype": "uint8", "min": -0.003129953565075994, "scale": 2.1006399765610696e-05, "original_dtype": "float32"}}, {"name": "Func/StatefulPartitionedCall/input/_90", "shape": [3, 3, 512, 512], "dtype": "float32", "quantization": {"dtype": "uint8", "min": -0.5553808886630862, "scale": 0.0038837824382034003, "original_dtype": "float32"}}, {"name": "Func/StatefulPartitionedCall/input/_91", "shape": [512], "dtype": "float32", "quantization": {"dtype": "uint8", "min": -0.009540197844890987, "scale": 8.594772833235124e-05, "original_dtype": "float32"}}, {"name": "Func/StatefulPartitionedCall/input/_76", "shape": [64, 512], "dtype": "float32", "quantization": {"dtype": "uint8", "min": -0.16008754384283924, "scale": 0.0013121929823183545, "original_dtype": "float32"}}, {"name": "Func/StatefulPartitionedCall/input/_77", "shape": [512], "dtype": "float32", "quantization": {"dtype": "uint8", "min": -0.6369185557260233, "scale": 0.0028307491365601035, "original_dtype": "float32"}}, {"name": "Func/StatefulPartitionedCall/input/_74", "shape": [64, 512], "dtype": "float32", "quantization": {"dtype": "uint8", "min": -0.30869241146480336, "scale": 0.0026383966791863533, "original_dtype": "float32"}}, {"name": "Func/StatefulPartitionedCall/input/_75", "shape": [512], "dtype": "float32", "quantization": {"dtype": "uint8", "min": -0.35006307258325464, "scale": 0.0031537213746239156, "original_dtype": "float32"}}, {"name": "Func/StatefulPartitionedCall/input/_70", "shape": [64, 512], "dtype": "float32", "quantization": {"dtype": "uint8", "min": -0.14846607627821903, "scale": 0.0010681012681886262, "original_dtype": "float32"}}, {"name": "Func/StatefulPartitionedCall/input/_71", "shape": [512], "dtype": "float32", "quantization": {"dtype": "uint8", "min": -0.7531666868749787, "scale": 0.0033774290891254648, "original_dtype": "float32"}}, {"name": "Func/StatefulPartitionedCall/input/_68", "shape": [64, 512], "dtype": "float32", "quantization": {"dtype": "uint8", "min": -0.21110653678576152, "scale": 0.0017740045108047187, "original_dtype": "float32"}}, {"name": "Func/StatefulPartitionedCall/input/_69", "shape": [512], "dtype": "float32", "quantization": {"dtype": "uint8", "min": -0.2473130132637772, "scale": 0.003091412665797215, "original_dtype": "float32"}}, {"name": "Func/StatefulPartitionedCall/input/_72", "shape": [3, 3, 512, 512], "dtype": "float32", "quantization": {"dtype": "uint8", "min": -0.3899429300252129, "scale": 0.0025996195335014193, "original_dtype": "float32"}}, {"name": "Func/StatefulPartitionedCall/input/_73", "shape": [512], "dtype": "float32", "quantization": {"dtype": "uint8", "min": -0.0017255216170394536, "scale": 1.527010280565888e-05, "original_dtype": "float32"}}, {"name": "Func/StatefulPartitionedCall/input/_78", "shape": [3, 3, 512, 512], "dtype": "float32", "quantization": {"dtype": "uint8", "min": -0.3587075738345875, "scale": 0.0025440253463445924, "original_dtype": "float32"}}, {"name": "Func/StatefulPartitionedCall/input/_79", "shape": [512], "dtype": "float32", "quantization": {"dtype": "uint8", "min": -0.007769508243483655, "scale": 6.640605336310816e-05, "original_dtype": "float32"}}, {"name": "Func/StatefulPartitionedCall/input/_64", "shape": [64, 512], "dtype": "float32", "quantization": {"dtype": "uint8", "min": -0.18325179762700025, "scale": 0.0013778330648646635, "original_dtype": "float32"}}, {"name": "Func/StatefulPartitionedCall/input/_65", "shape": [512], "dtype": "float32", "quantization": {"dtype": "uint8", "min": -0.5405215095655591, "scale": 0.0023198348050023996, "original_dtype": "float32"}}, {"name": "Func/StatefulPartitionedCall/input/_62", "shape": [64, 512], "dtype": "float32", "quantization": {"dtype": "uint8", "min": -0.412314610154021, "scale": 0.003585344436121922, "original_dtype": "float32"}}, {"name": "Func/StatefulPartitionedCall/input/_63", "shape": [512], "dtype": "float32", "quantization": {"dtype": "uint8", "min": -0.24901408763492808, "scale": 0.002797911097021664, "original_dtype": "float32"}}, {"name": "Func/StatefulPartitionedCall/input/_58", "shape": [64, 512], "dtype": "float32", "quantization": {"dtype": "uint8", "min": -0.19745209620279425, "scale": 0.0012188401000172485, "original_dtype": "float32"}}, {"name": "Func/StatefulPartitionedCall/input/_59", "shape": [512], "dtype": "float32", "quantization": {"dtype": "uint8", "min": -0.4613893039086286, "scale": 0.0029201854677761304, "original_dtype": "float32"}}, {"name": "StatefulPartitionedCall/Generator/decoder_up_adaresblock_0/adain_1/FullyConnected/flatten/Const", "shape": [2], "dtype": "int32"}, {"name": "StatefulPartitionedCall/Generator/decoder_up_adaresblock_0/resize/size", "shape": [2], "dtype": "int32"}, {"name": "Func/StatefulPartitionedCall/input/_134", "shape": [3], "dtype": "float32", "quantization": {"dtype": "uint8", "min": -0.06053592404898476, "scale": 0.0004233281402026906, "original_dtype": "float32"}}, {"name": "Func/StatefulPartitionedCall/input/_56", "shape": [64, 512], "dtype": "float32", "quantization": {"dtype": "uint8", "min": -0.24118203345467062, "scale": 0.001827136617080838, "original_dtype": "float32"}}, {"name": "Func/StatefulPartitionedCall/input/_130", "shape": [1, 1, 128, 64], "dtype": "float32", "quantization": {"dtype": "uint8", "min": -0.48210871523501825, "scale": 0.003597826233097151, "original_dtype": "float32"}}, {"name": "Func/StatefulPartitionedCall/input/_57", "shape": [512], "dtype": "float32", "quantization": {"dtype": "uint8", "min": -0.26211341619491574, "scale": 0.0033604284127553303, "original_dtype": "float32"}}, {"name": "StatefulPartitionedCall/Generator/decoder_up_adaresblock_2/adain_0/Reshape/shape", "shape": [4], "dtype": "int32"}, {"name": "StatefulPartitionedCall/Generator/decoder_up_adaresblock_0/adain_1/add_1/x", "shape": [], "dtype": "float32", "quantization": {"dtype": "uint8", "min": 1.0, "scale": 1.0, "original_dtype": "float32"}}, {"name": "Func/StatefulPartitionedCall/input/_60", "shape": [3, 3, 512, 512], "dtype": "float32", "quantization": {"dtype": "uint8", "min": -0.2039250075817108, "scale": 0.0017888158559799193, "original_dtype": "float32"}}, {"name": "Func/StatefulPartitionedCall/input/_61", "shape": [512], "dtype": "float32", "quantization": {"dtype": "uint8", "min": -0.0014846180099993944, "scale": 1.4555078529405828e-05, "original_dtype": "float32"}}, {"name": "StatefulPartitionedCall/Generator/decoder_up_adaresblock_0/adain_0/moments/mean/reduction_indices", "shape": [2], "dtype": "int32"}, {"name": "Func/StatefulPartitionedCall/input/_66", "shape": [3, 3, 512, 512], "dtype": "float32", "quantization": {"dtype": "uint8", "min": -0.3220369154331731, "scale": 0.0024032605629341276, "original_dtype": "float32"}}, {"name": "Func/StatefulPartitionedCall/input/_67", "shape": [512], "dtype": "float32", "quantization": {"dtype": "uint8", "min": -0.005865063731942107, "scale": 5.0128749845659033e-05, "original_dtype": "float32"}}, {"name": "StatefulPartitionedCall/Generator/encoder_bottleneck_resblock_1/instance_norm_1/Reshape_2", "shape": [1, 1, 1, 512, 1], "dtype": "float32", "quantization": {"dtype": "uint8", "min": -0.9705474907568857, "scale": 0.004010526821309445, "original_dtype": "float32"}}, {"name": "StatefulPartitionedCall/Generator/encoder_bottleneck_resblock_1/instance_norm_1/Reshape_1", "shape": [1, 1, 1, 512, 1], "dtype": "float32", "quantization": {"dtype": "uint8", "min": -0.005344186219222406, "scale": 0.005344186219222406, "original_dtype": "float32"}}, {"name": "StatefulPartitionedCall/Generator/encoder_bottleneck_resblock_1/instance_norm_0/Reshape_2", "shape": [1, 1, 1, 512, 1], "dtype": "float32", "quantization": {"dtype": "uint8", "min": -0.8891359740612553, "scale": 0.004401663237927006, "original_dtype": "float32"}}, {"name": "StatefulPartitionedCall/Generator/encoder_bottleneck_resblock_1/instance_norm_0/Reshape_1", "shape": [1, 1, 1, 512, 1], "dtype": "float32", "quantization": {"dtype": "uint8", "min": -0.006248286980039933, "scale": 0.006248286980039933, "original_dtype": "float32"}}, {"name": "StatefulPartitionedCall/Generator/encoder_bottleneck_resblock_0/instance_norm_1/Reshape_2", "shape": [1, 1, 1, 512, 1], "dtype": "float32", "quantization": {"dtype": "uint8", "min": -1.023388985244959, "scale": 0.004077246953167167, "original_dtype": "float32"}}, {"name": "StatefulPartitionedCall/Generator/encoder_bottleneck_resblock_0/instance_norm_1/Reshape_1", "shape": [1, 1, 1, 512, 1], "dtype": "float32", "quantization": {"dtype": "uint8", "min": -0.0, "scale": 0.0054197241214341395, "original_dtype": "float32"}}, {"name": "StatefulPartitionedCall/Generator/encoder_bottleneck_resblock_0/instance_norm_0/Reshape_2", "shape": [1, 1, 1, 512, 1], "dtype": "float32", "quantization": {"dtype": "uint8", "min": -0.9122129748849308, "scale": 0.0060814198325662054, "original_dtype": "float32"}}, {"name": "StatefulPartitionedCall/Generator/encoder_bottleneck_resblock_0/instance_norm_0/Reshape_1", "shape": [1, 1, 1, 512, 1], "dtype": "float32", "quantization": {"dtype": "uint8", "min": -0.006434604989401266, "scale": 0.006434604989401266, "original_dtype": "float32"}}, {"name": "Func/StatefulPartitionedCall/input/_42", "shape": [3, 3, 512, 512], "dtype": "float32", "quantization": {"dtype": "uint8", "min": -0.16700225320516848, "scale": 0.0017041046245425354, "original_dtype": "float32"}}, {"name": "Func/StatefulPartitionedCall/input/_43", "shape": [512], "dtype": "float32", "quantization": {"dtype": "uint8", "min": -0.007115496508777142, "scale": 4.392281795541446e-05, "original_dtype": "float32"}}, {"name": "Func/StatefulPartitionedCall/input/_46", "shape": [3, 3, 512, 512], "dtype": "float32", "quantization": {"dtype": "uint8", "min": -0.24163092573483785, "scale": 0.002392385403315226, "original_dtype": "float32"}}, {"name": "Func/StatefulPartitionedCall/input/_47", "shape": [512], "dtype": "float32", "quantization": {"dtype": "uint8", "min": -0.006464024158377273, "scale": 4.2808107009121014e-05, "original_dtype": "float32"}}, {"name": "StatefulPartitionedCall/Generator/encoder_down_resblock_3/instance_norm_1/Reshape_2", "shape": [1, 1, 1, 512, 1], "dtype": "float32", "quantization": {"dtype": "uint8", "min": -1.018172021005668, "scale": 0.006363575131285424, "original_dtype": "float32"}}, {"name": "StatefulPartitionedCall/Generator/encoder_down_resblock_3/instance_norm_1/Reshape_1", "shape": [1, 1, 1, 512, 1], "dtype": "float32", "quantization": {"dtype": "uint8", "min": -0.0059524329424854, "scale": 0.0059524329424854, "original_dtype": "float32"}}, {"name": "StatefulPartitionedCall/Generator/encoder_down_resblock_3/instance_norm_0/Reshape_2", "shape": [1, 1, 1, 512, 1], "dtype": "float32", "quantization": {"dtype": "uint8", "min": -1.07071696730221, "scale": 0.005547756307265337, "original_dtype": "float32"}}, {"name": "StatefulPartitionedCall/Generator/encoder_down_resblock_3/instance_norm_0/Reshape_1", "shape": [1, 1, 1, 512, 1], "dtype": "float32", "quantization": {"dtype": "uint8", "min": -0.006820413766100126, "scale": 0.006820413766100126, "original_dtype": "float32"}}, {"name": "StatefulPartitionedCall/Generator/encoder_bottleneck_resblock_1/instance_norm_1/stack/3", "shape": [], "dtype": "int32"}, {"name": "Func/StatefulPartitionedCall/input/_31", "shape": [1, 1, 256, 512], "dtype": "float32", "quantization": {"dtype": "uint8", "min": -0.38701228113735425, "scale": 0.0031464413100597906, "original_dtype": "float32"}}, {"name": "StatefulPartitionedCall/Generator/encoder_down_resblock_2/instance_norm_1/Reshape_2", "shape": [1, 1, 1, 256, 1], "dtype": "float32", "quantization": {"dtype": "uint8", "min": -0.8837060776411318, "scale": 0.0060945246733871165, "original_dtype": "float32"}}, {"name": "StatefulPartitionedCall/Generator/encoder_down_resblock_2/instance_norm_1/Reshape_1", "shape": [1, 1, 1, 256, 1], "dtype": "float32", "quantization": {"dtype": "uint8", "min": -0.0, "scale": 0.008383462398185158, "original_dtype": "float32"}}, {"name": "StatefulPartitionedCall/Generator/encoder_down_resblock_2/instance_norm_0/Reshape_2", "shape": [1, 1, 1, 256, 1], "dtype": "float32", "quantization": {"dtype": "uint8", "min": -0.7009118894735972, "scale": 0.0031859631339708964, "original_dtype": "float32"}}, {"name": "StatefulPartitionedCall/Generator/encoder_down_resblock_2/instance_norm_0/Reshape_1", "shape": [1, 1, 1, 256, 1], "dtype": "float32", "quantization": {"dtype": "uint8", "min": -0.0, "scale": 0.0062274155261762, "original_dtype": "float32"}}, {"name": "StatefulPartitionedCall/Generator/encoder_down_resblock_2/instance_norm_1/stack/3", "shape": [], "dtype": "int32"}, {"name": "Func/StatefulPartitionedCall/input/_22", "shape": [1, 1, 128, 256], "dtype": "float32", "quantization": {"dtype": "uint8", "min": -0.2725200379596037, "scale": 0.0022156100647122254, "original_dtype": "float32"}}, {"name": "StatefulPartitionedCall/Generator/encoder_down_resblock_1/instance_norm_1/Reshape_2", "shape": [1, 1, 1, 128, 1], "dtype": "float32", "quantization": {"dtype": "uint8", "min": -0.35635966413161335, "scale": 0.0033939015631582223, "original_dtype": "float32"}}, {"name": "StatefulPartitionedCall/Generator/encoder_down_resblock_1/instance_norm_1/Reshape_1", "shape": [1, 1, 1, 128, 1], "dtype": "float32", "quantization": {"dtype": "uint8", "min": 0.9925128817558289, "scale": 0.002612339982799455, "original_dtype": "float32"}}, {"name": "StatefulPartitionedCall/Generator/encoder_down_resblock_1/instance_norm_0/Reshape_2", "shape": [1, 1, 1, 128, 1], "dtype": "float32", "quantization": {"dtype": "uint8", "min": -0.5001407958128873, "scale": 0.002439711199087255, "original_dtype": "float32"}}, {"name": "StatefulPartitionedCall/Generator/encoder_down_resblock_1/instance_norm_0/Reshape_1", "shape": [1, 1, 1, 128, 1], "dtype": "float32", "quantization": {"dtype": "uint8", "min": 0.10010996460914612, "scale": 0.005145576771567849, "original_dtype": "float32"}}, {"name": "StatefulPartitionedCall/Generator/encoder_down_resblock_1/instance_norm_1/stack/3", "shape": [], "dtype": "int32"}, {"name": "ConstantFolding/StatefulPartitionedCall/Generator/encoder_down_resblock_0/truediv_recip", "shape": [], "dtype": "float32", "quantization": {"dtype": "uint8", "min": 0.7071067690849304, "scale": 1.0, "original_dtype": "float32"}}, {"name": "Func/StatefulPartitionedCall/input/_13", "shape": [1, 1, 64, 128], "dtype": "float32", "quantization": {"dtype": "uint8", "min": -0.2997590900636187, "scale": 0.0022538277448392384, "original_dtype": "float32"}}, {"name": "StatefulPartitionedCall/Generator/encoder_down_resblock_0/instance_norm_1/Reshape_2", "shape": [1, 1, 1, 64, 1], "dtype": "float32", "quantization": {"dtype": "uint8", "min": -0.19044939957413018, "scale": 0.004645107306686102, "original_dtype": "float32"}}, {"name": "StatefulPartitionedCall/Generator/encoder_down_resblock_0/instance_norm_1/Reshape_1", "shape": [1, 1, 1, 64, 1], "dtype": "float32", "quantization": {"dtype": "uint8", "min": 0.8684932589530945, "scale": 0.0037642607501908844, "original_dtype": "float32"}}, {"name": "StatefulPartitionedCall/Generator/encoder_down_resblock_0/instance_norm_0/Reshape_2", "shape": [1, 1, 1, 64, 1], "dtype": "float32", "quantization": {"dtype": "uint8", "min": -0.4905657221289242, "scale": 0.005005772674784941, "original_dtype": "float32"}}, {"name": "StatefulPartitionedCall/Generator/encoder_down_resblock_0/instance_norm_0/Reshape_1", "shape": [1, 1, 1, 64, 1], "dtype": "float32", "quantization": {"dtype": "uint8", "min": 0.564137876033783, "scale": 0.0035552424543044145, "original_dtype": "float32"}}, {"name": "StatefulPartitionedCall/Generator/sequential/ins_norm/batchnorm/add/y", "shape": [], "dtype": "float32", "quantization": {"dtype": "uint8", "min": 9.999999747378752e-06, "scale": 1.0, "original_dtype": "float32"}}, {"name": "StatefulPartitionedCall/Generator/sequential/ins_norm/strided_slice/stack", "shape": [1], "dtype": "int32"}, {"name": "StatefulPartitionedCall/Generator/sequential/ins_norm/strided_slice_1/stack_1", "shape": [1], "dtype": "int32"}, {"name": "StatefulPartitionedCall/Generator/sequential/ins_norm/strided_slice_2/stack_1", "shape": [1], "dtype": "int32"}, {"name": "StatefulPartitionedCall/Generator/sequential/ins_norm/strided_slice/stack_1", "shape": [1], "dtype": "int32"}, {"name": "StatefulPartitionedCall/Generator/sequential/ins_norm/stack/3", "shape": [], "dtype": "int32"}, {"name": "StatefulPartitionedCall/Generator/sequential/ins_norm/stack/4", "shape": [], "dtype": "int32"}, {"name": "StatefulPartitionedCall/Generator/sequential/ins_norm/moments/mean/reduction_indices", "shape": [3], "dtype": "int32"}, {"name": "Func/StatefulPartitionedCall/input/_3", "shape": [3, 3, 3, 64], "dtype": "float32", "quantization": {"dtype": "uint8", "min": -0.8452905846577065, "scale": 0.006081227227753284, "original_dtype": "float32"}}, {"name": "Func/StatefulPartitionedCall/input/_4", "shape": [64], "dtype": "float32", "quantization": {"dtype": "uint8", "min": -0.04464980761210124, "scale": 0.0003283074089125091, "original_dtype": "float32"}}, {"name": "Func/StatefulPartitionedCall/input/_7", "shape": [3, 3, 64, 64], "dtype": "float32", "quantization": {"dtype": "uint8", "min": -0.1510577307027929, "scale": 0.0012281116317300236, "original_dtype": "float32"}}, {"name": "Func/StatefulPartitionedCall/input/_8", "shape": [64], "dtype": "float32", "quantization": {"dtype": "uint8", "min": -0.013067617245456752, "scale": 0.00010052013265735963, "original_dtype": "float32"}}, {"name": "Func/StatefulPartitionedCall/input/_11", "shape": [3, 3, 64, 128], "dtype": "float32", "quantization": {"dtype": "uint8", "min": -0.1358358372075885, "scale": 0.001086686697660708, "original_dtype": "float32"}}, {"name": "Func/StatefulPartitionedCall/input/_12", "shape": [128], "dtype": "float32", "quantization": {"dtype": "uint8", "min": -0.009364344017105359, "scale": 6.28479464235259e-05, "original_dtype": "float32"}}, {"name": "Func/StatefulPartitionedCall/input/_16", "shape": [3, 3, 128, 128], "dtype": "float32", "quantization": {"dtype": "uint8", "min": -0.08633037665311027, "scale": 0.00081443751559538, "original_dtype": "float32"}}, {"name": "Func/StatefulPartitionedCall/input/_17", "shape": [128], "dtype": "float32", "quantization": {"dtype": "uint8", "min": -0.032012318629844515, "scale": 0.00025009623929566027, "original_dtype": "float32"}}, {"name": "Func/StatefulPartitionedCall/input/_20", "shape": [3, 3, 128, 256], "dtype": "float32", "quantization": {"dtype": "uint8", "min": -0.09719120684792013, "scale": 0.0008999185819251864, "original_dtype": "float32"}}, {"name": "Func/StatefulPartitionedCall/input/_21", "shape": [256], "dtype": "float32", "quantization": {"dtype": "uint8", "min": -0.021087780039684444, "scale": 0.00013873539499792398, "original_dtype": "float32"}}, {"name": "Func/StatefulPartitionedCall/input/_25", "shape": [3, 3, 256, 256], "dtype": "float32", "quantization": {"dtype": "uint8", "min": -0.09488291255399293, "scale": 0.0009681929852448258, "original_dtype": "float32"}}, {"name": "Func/StatefulPartitionedCall/input/_26", "shape": [256], "dtype": "float32", "quantization": {"dtype": "uint8", "min": -0.0067892570048570635, "scale": 5.705257987274843e-05, "original_dtype": "float32"}}, {"name": "Func/StatefulPartitionedCall/input/_29", "shape": [3, 3, 256, 512], "dtype": "float32", "quantization": {"dtype": "uint8", "min": -0.11598685287377412, "scale": 0.0010449266024664336, "original_dtype": "float32"}}, {"name": "Func/StatefulPartitionedCall/input/_30", "shape": [512], "dtype": "float32", "quantization": {"dtype": "uint8", "min": -0.00423967535150986, "scale": 2.9856868672604653e-05, "original_dtype": "float32"}}, {"name": "Func/StatefulPartitionedCall/input/_34", "shape": [3, 3, 512, 512], "dtype": "float32", "quantization": {"dtype": "uint8", "min": -0.07570192334698696, "scale": 0.0008505834083931119, "original_dtype": "float32"}}, {"name": "Func/StatefulPartitionedCall/input/_35", "shape": [512], "dtype": "float32", "quantization": {"dtype": "uint8", "min": -0.006205572534863856, "scale": 3.715911697523267e-05, "original_dtype": "float32"}}, {"name": "Func/StatefulPartitionedCall/input/_38", "shape": [3, 3, 512, 512], "dtype": "float32", "quantization": {"dtype": "uint8", "min": -0.21268834787256577, "scale": 0.001772402898938048, "original_dtype": "float32"}}, {"name": "Func/StatefulPartitionedCall/input/_39", "shape": [512], "dtype": "float32", "quantization": {"dtype": "uint8", "min": -0.0056440383195877075, "scale": 3.7626922130584715e-05, "original_dtype": "float32"}}, {"name": "Func/StatefulPartitionedCall/input/_50", "shape": [3, 3, 512, 512], "dtype": "float32", "quantization": {"dtype": "uint8", "min": -0.2104215076156691, "scale": 0.001930472546932744, "original_dtype": "float32"}}, {"name": "Func/StatefulPartitionedCall/input/_51", "shape": [512], "dtype": "float32", "quantization": {"dtype": "uint8", "min": -0.005292739746544291, "scale": 4.2341917972354326e-05, "original_dtype": "float32"}}, {"name": "StatefulPartitionedCall/Generator/decoder_up_adaresblock_0/conv_0/Pad/paddings", "shape": [4, 2], "dtype": "int32"}, {"name": "Func/StatefulPartitionedCall/input/_54", "shape": [3, 3, 512, 512], "dtype": "float32", "quantization": {"dtype": "uint8", "min": -0.30578816556463057, "scale": 0.0020944394901687025, "original_dtype": "float32"}}, {"name": "Func/StatefulPartitionedCall/input/_55", "shape": [512], "dtype": "float32", "quantization": {"dtype": "uint8", "min": -0.0035320103351099822, "scale": 3.604092178683655e-05, "original_dtype": "float32"}}, {"name": "StatefulPartitionedCall/Generator/decoder_up_adaresblock_3/resize/size", "shape": [2], "dtype": "int32"}, {"name": "StatefulPartitionedCall/Generator/decoder_up_adaresblock_2/resize/size", "shape": [2], "dtype": "int32"}, {"name": "Func/StatefulPartitionedCall/input/_104", "shape": [1, 1, 512, 256], "dtype": "float32", "quantization": {"dtype": "uint8", "min": -0.19150514024145465, "scale": 0.0014185565943811455, "original_dtype": "float32"}}, {"name": "StatefulPartitionedCall/Generator/decoder_up_adaresblock_1/resize/size", "shape": [2], "dtype": "int32"}, {"name": "Func/StatefulPartitionedCall/input/_133", "shape": [1, 1, 64, 3], "dtype": "float32", "quantization": {"dtype": "uint8", "min": -0.5080075733801898, "scale": 0.0036812142998564478, "original_dtype": "float32"}}, {"name": "Func/StatefulPartitionedCall/input/_117", "shape": [1, 1, 256, 128], "dtype": "float32", "quantization": {"dtype": "uint8", "min": -0.22979018267463236, "scale": 0.0019149181889552697, "original_dtype": "float32"}}]}]}