{"format": "graph-model", "generatedBy": "2.5.0", "convertedBy": "TensorFlow.js Converter v3.8.0", "signature": {"inputs": {"input_1": {"name": "input_1:0", "dtype": "DT_FLOAT", "tensorShape": {"dim": [{"size": "-1"}, {"size": "512"}, {"size": "512"}, {"size": "3"}]}}}, "outputs": {"conv2d_23": {"name": "Identity:0", "dtype": "DT_FLOAT", "tensorShape": {"dim": [{"size": "-1"}, {"size": "512"}, {"size": "512"}, {"size": "3"}]}}}}, "modelTopology": {"node": [{"name": "StatefulPartitionedCall/model_1/instance_normalization_26/Reshape_1", "op": "Const", "attr": {"value": {"tensor": {"dtype": "DT_FLOAT", "tensorShape": {"dim": [{"size": "1"}, {"size": "1"}, {"size": "1"}, {"size": "64"}]}}}, "dtype": {"type": "DT_FLOAT"}}}, {"name": "StatefulPartitionedCall/model_1/conv2d_transpose_3/strided_slice/stack", "op": "Const", "attr": {"value": {"tensor": {"dtype": "DT_INT32", "tensorShape": {"dim": [{"size": "1"}]}}}, "dtype": {"type": "DT_INT32"}}}, {"name": "StatefulPartitionedCall/model_1/conv2d_transpose_3/strided_slice/stack_1", "op": "Const", "attr": {"dtype": {"type": "DT_INT32"}, "value": {"tensor": {"dtype": "DT_INT32", "tensorShape": {"dim": [{"size": "1"}]}}}}}, {"name": "StatefulPartitionedCall/model_1/conv2d_transpose_3/strided_slice/stack_2", "op": "Const", "attr": {"value": {"tensor": {"dtype": "DT_INT32", "tensorShape": {"dim": [{"size": "1"}]}}}, "dtype": {"type": "DT_INT32"}}}, {"name": "StatefulPartitionedCall/model_1/conv2d_transpose_3/stack/1", "op": "Const", "attr": {"value": {"tensor": {"dtype": "DT_INT32", "tensorShape": {}}}, "dtype": {"type": "DT_INT32"}}}, {"name": "StatefulPartitionedCall/model_1/conv2d_transpose_3/stack/2", "op": "Const", "attr": {"dtype": {"type": "DT_INT32"}, "value": {"tensor": {"dtype": "DT_INT32", "tensorShape": {}}}}}, {"name": "StatefulPartitionedCall/model_1/conv2d_transpose_3/stack/3", "op": "Const", "attr": {"dtype": {"type": "DT_INT32"}, "value": {"tensor": {"dtype": "DT_INT32", "tensorShape": {}}}}}, {"name": "StatefulPartitionedCall/model_1/conv2d_transpose_3/conv2d_transpose/ReadVariableOp", "op": "Const", "attr": {"dtype": {"type": "DT_FLOAT"}, "value": {"tensor": {"dtype": "DT_FLOAT", "tensorShape": {"dim": [{"size": "3"}, {"size": "3"}, {"size": "64"}, {"size": "128"}]}}}}}, {"name": "StatefulPartitionedCall/model_1/instance_normalization_25/Reshape_1", "op": "Const", "attr": {"dtype": {"type": "DT_FLOAT"}, "value": {"tensor": {"dtype": "DT_FLOAT", "tensorShape": {"dim": [{"size": "1"}, {"size": "1"}, {"size": "1"}, {"size": "128"}]}}}}}, {"name": "StatefulPartitionedCall/model_1/conv2d_transpose_2/strided_slice/stack", "op": "Const", "attr": {"value": {"tensor": {"dtype": "DT_INT32", "tensorShape": {"dim": [{"size": "1"}]}}}, "dtype": {"type": "DT_INT32"}}}, {"name": "StatefulPartitionedCall/model_1/conv2d_transpose_2/strided_slice/stack_1", "op": "Const", "attr": {"value": {"tensor": {"dtype": "DT_INT32", "tensorShape": {"dim": [{"size": "1"}]}}}, "dtype": {"type": "DT_INT32"}}}, {"name": "StatefulPartitionedCall/model_1/conv2d_transpose_2/strided_slice/stack_2", "op": "Const", "attr": {"value": {"tensor": {"dtype": "DT_INT32", "tensorShape": {"dim": [{"size": "1"}]}}}, "dtype": {"type": "DT_INT32"}}}, {"name": "StatefulPartitionedCall/model_1/conv2d_transpose_2/stack/1", "op": "Const", "attr": {"value": {"tensor": {"dtype": "DT_INT32", "tensorShape": {}}}, "dtype": {"type": "DT_INT32"}}}, {"name": "StatefulPartitionedCall/model_1/conv2d_transpose_2/stack/2", "op": "Const", "attr": {"dtype": {"type": "DT_INT32"}, "value": {"tensor": {"dtype": "DT_INT32", "tensorShape": {}}}}}, {"name": "StatefulPartitionedCall/model_1/conv2d_transpose_2/stack/3", "op": "Const", "attr": {"dtype": {"type": "DT_INT32"}, "value": {"tensor": {"dtype": "DT_INT32", "tensorShape": {}}}}}, {"name": "StatefulPartitionedCall/model_1/conv2d_transpose_2/conv2d_transpose/ReadVariableOp", "op": "Const", "attr": {"dtype": {"type": "DT_FLOAT"}, "value": {"tensor": {"dtype": "DT_FLOAT", "tensorShape": {"dim": [{"size": "3"}, {"size": "3"}, {"size": "128"}, {"size": "256"}]}}}}}, {"name": "StatefulPartitionedCall/model_1/instance_normalization_24/Reshape_1", "op": "Const", "attr": {"dtype": {"type": "DT_FLOAT"}, "value": {"tensor": {"dtype": "DT_FLOAT", "tensorShape": {"dim": [{"size": "1"}, {"size": "1"}, {"size": "1"}, {"size": "256"}]}}}}}, {"name": "StatefulPartitionedCall/model_1/conv2d_transpose_1/strided_slice/stack", "op": "Const", "attr": {"value": {"tensor": {"dtype": "DT_INT32", "tensorShape": {"dim": [{"size": "1"}]}}}, "dtype": {"type": "DT_INT32"}}}, {"name": "StatefulPartitionedCall/model_1/conv2d_transpose_1/strided_slice/stack_1", "op": "Const", "attr": {"dtype": {"type": "DT_INT32"}, "value": {"tensor": {"dtype": "DT_INT32", "tensorShape": {"dim": [{"size": "1"}]}}}}}, {"name": "StatefulPartitionedCall/model_1/conv2d_transpose_1/strided_slice/stack_2", "op": "Const", "attr": {"value": {"tensor": {"dtype": "DT_INT32", "tensorShape": {"dim": [{"size": "1"}]}}}, "dtype": {"type": "DT_INT32"}}}, {"name": "StatefulPartitionedCall/model_1/conv2d_transpose_1/stack/1", "op": "Const", "attr": {"dtype": {"type": "DT_INT32"}, "value": {"tensor": {"dtype": "DT_INT32", "tensorShape": {}}}}}, {"name": "StatefulPartitionedCall/model_1/conv2d_transpose_1/stack/2", "op": "Const", "attr": {"value": {"tensor": {"dtype": "DT_INT32", "tensorShape": {}}}, "dtype": {"type": "DT_INT32"}}}, {"name": "StatefulPartitionedCall/model_1/conv2d_transpose_1/stack/3", "op": "Const", "attr": {"dtype": {"type": "DT_INT32"}, "value": {"tensor": {"dtype": "DT_INT32", "tensorShape": {}}}}}, {"name": "StatefulPartitionedCall/model_1/conv2d_transpose_1/conv2d_transpose/ReadVariableOp", "op": "Const", "attr": {"dtype": {"type": "DT_FLOAT"}, "value": {"tensor": {"dtype": "DT_FLOAT", "tensorShape": {"dim": [{"size": "3"}, {"size": "3"}, {"size": "256"}, {"size": "512"}]}}}}}, {"name": "StatefulPartitionedCall/model_1/instance_normalization_23/Reshape_1", "op": "Const", "attr": {"dtype": {"type": "DT_FLOAT"}, "value": {"tensor": {"dtype": "DT_FLOAT", "tensorShape": {"dim": [{"size": "1"}, {"size": "1"}, {"size": "1"}, {"size": "512"}]}}}}}, {"name": "StatefulPartitionedCall/model_1/conv2d_transpose/strided_slice/stack", "op": "Const", "attr": {"dtype": {"type": "DT_INT32"}, "value": {"tensor": {"dtype": "DT_INT32", "tensorShape": {"dim": [{"size": "1"}]}}}}}, {"name": "StatefulPartitionedCall/model_1/conv2d_transpose/strided_slice/stack_1", "op": "Const", "attr": {"value": {"tensor": {"dtype": "DT_INT32", "tensorShape": {"dim": [{"size": "1"}]}}}, "dtype": {"type": "DT_INT32"}}}, {"name": "StatefulPartitionedCall/model_1/conv2d_transpose/strided_slice/stack_2", "op": "Const", "attr": {"value": {"tensor": {"dtype": "DT_INT32", "tensorShape": {"dim": [{"size": "1"}]}}}, "dtype": {"type": "DT_INT32"}}}, {"name": "StatefulPartitionedCall/model_1/conv2d_transpose/stack/1", "op": "Const", "attr": {"dtype": {"type": "DT_INT32"}, "value": {"tensor": {"dtype": "DT_INT32", "tensorShape": {}}}}}, {"name": "StatefulPartitionedCall/model_1/conv2d_transpose/stack/2", "op": "Const", "attr": {"dtype": {"type": "DT_INT32"}, "value": {"tensor": {"dtype": "DT_INT32", "tensorShape": {}}}}}, {"name": "StatefulPartitionedCall/model_1/conv2d_transpose/stack/3", "op": "Const", "attr": {"value": {"tensor": {"dtype": "DT_INT32", "tensorShape": {}}}, "dtype": {"type": "DT_INT32"}}}, {"name": "StatefulPartitionedCall/model_1/conv2d_transpose/conv2d_transpose/ReadVariableOp", "op": "Const", "attr": {"value": {"tensor": {"dtype": "DT_FLOAT", "tensorShape": {"dim": [{"size": "3"}, {"size": "3"}, {"size": "512"}, {"size": "1024"}]}}}, "dtype": {"type": "DT_FLOAT"}}}, {"name": "StatefulPartitionedCall/model_1/resnet_block_8/instance_normalization_22/Reshape_1", "op": "Const", "attr": {"dtype": {"type": "DT_FLOAT"}, "value": {"tensor": {"dtype": "DT_FLOAT", "tensorShape": {"dim": [{"size": "1"}, {"size": "1"}, {"size": "1"}, {"size": "1024"}]}}}}}, {"name": "StatefulPartitionedCall/model_1/resnet_block_8/instance_normalization_21/Reshape_1", "op": "Const", "attr": {"value": {"tensor": {"dtype": "DT_FLOAT", "tensorShape": {"dim": [{"size": "1"}, {"size": "1"}, {"size": "1"}, {"size": "1024"}]}}}, "dtype": {"type": "DT_FLOAT"}}}, {"name": "StatefulPartitionedCall/model_1/resnet_block_7/instance_normalization_20/Reshape_1", "op": "Const", "attr": {"dtype": {"type": "DT_FLOAT"}, "value": {"tensor": {"dtype": "DT_FLOAT", "tensorShape": {"dim": [{"size": "1"}, {"size": "1"}, {"size": "1"}, {"size": "1024"}]}}}}}, {"name": "StatefulPartitionedCall/model_1/resnet_block_7/instance_normalization_19/Reshape_1", "op": "Const", "attr": {"dtype": {"type": "DT_FLOAT"}, "value": {"tensor": {"dtype": "DT_FLOAT", "tensorShape": {"dim": [{"size": "1"}, {"size": "1"}, {"size": "1"}, {"size": "1024"}]}}}}}, {"name": "StatefulPartitionedCall/model_1/resnet_block_6/instance_normalization_18/Reshape_1", "op": "Const", "attr": {"value": {"tensor": {"dtype": "DT_FLOAT", "tensorShape": {"dim": [{"size": "1"}, {"size": "1"}, {"size": "1"}, {"size": "1024"}]}}}, "dtype": {"type": "DT_FLOAT"}}}, {"name": "StatefulPartitionedCall/model_1/resnet_block_6/instance_normalization_17/Reshape_1", "op": "Const", "attr": {"value": {"tensor": {"dtype": "DT_FLOAT", "tensorShape": {"dim": [{"size": "1"}, {"size": "1"}, {"size": "1"}, {"size": "1024"}]}}}, "dtype": {"type": "DT_FLOAT"}}}, {"name": "StatefulPartitionedCall/model_1/resnet_block_5/instance_normalization_16/Reshape_1", "op": "Const", "attr": {"value": {"tensor": {"dtype": "DT_FLOAT", "tensorShape": {"dim": [{"size": "1"}, {"size": "1"}, {"size": "1"}, {"size": "1024"}]}}}, "dtype": {"type": "DT_FLOAT"}}}, {"name": "StatefulPartitionedCall/model_1/resnet_block_5/instance_normalization_15/Reshape_1", "op": "Const", "attr": {"value": {"tensor": {"dtype": "DT_FLOAT", "tensorShape": {"dim": [{"size": "1"}, {"size": "1"}, {"size": "1"}, {"size": "1024"}]}}}, "dtype": {"type": "DT_FLOAT"}}}, {"name": "StatefulPartitionedCall/model_1/resnet_block_4/instance_normalization_14/Reshape_1", "op": "Const", "attr": {"value": {"tensor": {"dtype": "DT_FLOAT", "tensorShape": {"dim": [{"size": "1"}, {"size": "1"}, {"size": "1"}, {"size": "1024"}]}}}, "dtype": {"type": "DT_FLOAT"}}}, {"name": "StatefulPartitionedCall/model_1/resnet_block_4/instance_normalization_13/Reshape_1", "op": "Const", "attr": {"dtype": {"type": "DT_FLOAT"}, "value": {"tensor": {"dtype": "DT_FLOAT", "tensorShape": {"dim": [{"size": "1"}, {"size": "1"}, {"size": "1"}, {"size": "1024"}]}}}}}, {"name": "StatefulPartitionedCall/model_1/resnet_block_3/instance_normalization_12/Reshape_1", "op": "Const", "attr": {"value": {"tensor": {"dtype": "DT_FLOAT", "tensorShape": {"dim": [{"size": "1"}, {"size": "1"}, {"size": "1"}, {"size": "1024"}]}}}, "dtype": {"type": "DT_FLOAT"}}}, {"name": "StatefulPartitionedCall/model_1/resnet_block_3/instance_normalization_11/Reshape_1", "op": "Const", "attr": {"value": {"tensor": {"dtype": "DT_FLOAT", "tensorShape": {"dim": [{"size": "1"}, {"size": "1"}, {"size": "1"}, {"size": "1024"}]}}}, "dtype": {"type": "DT_FLOAT"}}}, {"name": "StatefulPartitionedCall/model_1/resnet_block_2/instance_normalization_10/Reshape_1", "op": "Const", "attr": {"dtype": {"type": "DT_FLOAT"}, "value": {"tensor": {"dtype": "DT_FLOAT", "tensorShape": {"dim": [{"size": "1"}, {"size": "1"}, {"size": "1"}, {"size": "1024"}]}}}}}, {"name": "StatefulPartitionedCall/model_1/resnet_block_2/instance_normalization_9/Reshape_1", "op": "Const", "attr": {"dtype": {"type": "DT_FLOAT"}, "value": {"tensor": {"dtype": "DT_FLOAT", "tensorShape": {"dim": [{"size": "1"}, {"size": "1"}, {"size": "1"}, {"size": "1024"}]}}}}}, {"name": "StatefulPartitionedCall/model_1/resnet_block_1/instance_normalization_8/Reshape_1", "op": "Const", "attr": {"dtype": {"type": "DT_FLOAT"}, "value": {"tensor": {"dtype": "DT_FLOAT", "tensorShape": {"dim": [{"size": "1"}, {"size": "1"}, {"size": "1"}, {"size": "1024"}]}}}}}, {"name": "StatefulPartitionedCall/model_1/resnet_block_1/instance_normalization_7/Reshape_1", "op": "Const", "attr": {"value": {"tensor": {"dtype": "DT_FLOAT", "tensorShape": {"dim": [{"size": "1"}, {"size": "1"}, {"size": "1"}, {"size": "1024"}]}}}, "dtype": {"type": "DT_FLOAT"}}}, {"name": "StatefulPartitionedCall/model_1/resnet_block/instance_normalization_6/Reshape_1", "op": "Const", "attr": {"dtype": {"type": "DT_FLOAT"}, "value": {"tensor": {"dtype": "DT_FLOAT", "tensorShape": {"dim": [{"size": "1"}, {"size": "1"}, {"size": "1"}, {"size": "1024"}]}}}}}, {"name": "StatefulPartitionedCall/model_1/resnet_block/instance_normalization_5/Reshape_1", "op": "Const", "attr": {"value": {"tensor": {"dtype": "DT_FLOAT", "tensorShape": {"dim": [{"size": "1"}, {"size": "1"}, {"size": "1"}, {"size": "1024"}]}}}, "dtype": {"type": "DT_FLOAT"}}}, {"name": "StatefulPartitionedCall/model_1/instance_normalization_4/Reshape_1", "op": "Const", "attr": {"value": {"tensor": {"dtype": "DT_FLOAT", "tensorShape": {"dim": [{"size": "1"}, {"size": "1"}, {"size": "1"}, {"size": "1024"}]}}}, "dtype": {"type": "DT_FLOAT"}}}, {"name": "StatefulPartitionedCall/model_1/instance_normalization_3/Reshape_1", "op": "Const", "attr": {"value": {"tensor": {"dtype": "DT_FLOAT", "tensorShape": {"dim": [{"size": "1"}, {"size": "1"}, {"size": "1"}, {"size": "512"}]}}}, "dtype": {"type": "DT_FLOAT"}}}, {"name": "StatefulPartitionedCall/model_1/instance_normalization_2/Reshape_1", "op": "Const", "attr": {"value": {"tensor": {"dtype": "DT_FLOAT", "tensorShape": {"dim": [{"size": "1"}, {"size": "1"}, {"size": "1"}, {"size": "256"}]}}}, "dtype": {"type": "DT_FLOAT"}}}, {"name": "StatefulPartitionedCall/model_1/instance_normalization_1/Reshape_1", "op": "Const", "attr": {"dtype": {"type": "DT_FLOAT"}, "value": {"tensor": {"dtype": "DT_FLOAT", "tensorShape": {"dim": [{"size": "1"}, {"size": "1"}, {"size": "1"}, {"size": "128"}]}}}}}, {"name": "StatefulPartitionedCall/model_1/instance_normalization/Reshape_1", "op": "Const", "attr": {"dtype": {"type": "DT_FLOAT"}, "value": {"tensor": {"dtype": "DT_FLOAT", "tensorShape": {"dim": [{"size": "1"}, {"size": "1"}, {"size": "1"}, {"size": "64"}]}}}}}, {"name": "StatefulPartitionedCall/model_1/conv2d/Conv2D/ReadVariableOp", "op": "Const", "attr": {"value": {"tensor": {"dtype": "DT_FLOAT", "tensorShape": {"dim": [{"size": "7"}, {"size": "7"}, {"size": "3"}, {"size": "64"}]}}}, "dtype": {"type": "DT_FLOAT"}}}, {"name": "StatefulPartitionedCall/model_1/conv2d/BiasAdd/ReadVariableOp", "op": "Const", "attr": {"value": {"tensor": {"dtype": "DT_FLOAT", "tensorShape": {"dim": [{"size": "64"}]}}}, "dtype": {"type": "DT_FLOAT"}}}, {"name": "StatefulPartitionedCall/model_1/instance_normalization/moments/mean/reduction_indices", "op": "Const", "attr": {"dtype": {"type": "DT_INT32"}, "value": {"tensor": {"dtype": "DT_INT32", "tensorShape": {"dim": [{"size": "2"}]}}}}}, {"name": "StatefulPartitionedCall/model_1/instance_normalization/moments/variance/reduction_indices", "op": "Const", "attr": {"value": {"tensor": {"dtype": "DT_INT32", "tensorShape": {"dim": [{"size": "2"}]}}}, "dtype": {"type": "DT_INT32"}}}, {"name": "StatefulPartitionedCall/model_1/instance_normalization/batchnorm/add/y", "op": "Const", "attr": {"value": {"tensor": {"dtype": "DT_FLOAT", "tensorShape": {}}}, "dtype": {"type": "DT_FLOAT"}}}, {"name": "StatefulPartitionedCall/model_1/instance_normalization/Reshape", "op": "Const", "attr": {"dtype": {"type": "DT_FLOAT"}, "value": {"tensor": {"dtype": "DT_FLOAT", "tensorShape": {"dim": [{"size": "1"}, {"size": "1"}, {"size": "1"}, {"size": "64"}]}}}}}, {"name": "StatefulPartitionedCall/model_1/conv2d_1/Conv2D/ReadVariableOp", "op": "Const", "attr": {"dtype": {"type": "DT_FLOAT"}, "value": {"tensor": {"dtype": "DT_FLOAT", "tensorShape": {"dim": [{"size": "3"}, {"size": "3"}, {"size": "64"}, {"size": "128"}]}}}}}, {"name": "StatefulPartitionedCall/model_1/conv2d_1/BiasAdd/ReadVariableOp", "op": "Const", "attr": {"value": {"tensor": {"dtype": "DT_FLOAT", "tensorShape": {"dim": [{"size": "128"}]}}}, "dtype": {"type": "DT_FLOAT"}}}, {"name": "StatefulPartitionedCall/model_1/instance_normalization_1/moments/mean/reduction_indices", "op": "Const", "attr": {"value": {"tensor": {"dtype": "DT_INT32", "tensorShape": {"dim": [{"size": "2"}]}}}, "dtype": {"type": "DT_INT32"}}}, {"name": "StatefulPartitionedCall/model_1/instance_normalization_1/moments/variance/reduction_indices", "op": "Const", "attr": {"dtype": {"type": "DT_INT32"}, "value": {"tensor": {"dtype": "DT_INT32", "tensorShape": {"dim": [{"size": "2"}]}}}}}, {"name": "StatefulPartitionedCall/model_1/instance_normalization_1/batchnorm/add/y", "op": "Const", "attr": {"dtype": {"type": "DT_FLOAT"}, "value": {"tensor": {"dtype": "DT_FLOAT", "tensorShape": {}}}}}, {"name": "StatefulPartitionedCall/model_1/instance_normalization_1/Reshape", "op": "Const", "attr": {"value": {"tensor": {"dtype": "DT_FLOAT", "tensorShape": {"dim": [{"size": "1"}, {"size": "1"}, {"size": "1"}, {"size": "128"}]}}}, "dtype": {"type": "DT_FLOAT"}}}, {"name": "StatefulPartitionedCall/model_1/conv2d_2/Conv2D/ReadVariableOp", "op": "Const", "attr": {"dtype": {"type": "DT_FLOAT"}, "value": {"tensor": {"dtype": "DT_FLOAT", "tensorShape": {"dim": [{"size": "3"}, {"size": "3"}, {"size": "128"}, {"size": "256"}]}}}}}, {"name": "StatefulPartitionedCall/model_1/conv2d_2/BiasAdd/ReadVariableOp", "op": "Const", "attr": {"dtype": {"type": "DT_FLOAT"}, "value": {"tensor": {"dtype": "DT_FLOAT", "tensorShape": {"dim": [{"size": "256"}]}}}}}, {"name": "StatefulPartitionedCall/model_1/instance_normalization_2/moments/mean/reduction_indices", "op": "Const", "attr": {"dtype": {"type": "DT_INT32"}, "value": {"tensor": {"dtype": "DT_INT32", "tensorShape": {"dim": [{"size": "2"}]}}}}}, {"name": "StatefulPartitionedCall/model_1/instance_normalization_2/moments/variance/reduction_indices", "op": "Const", "attr": {"value": {"tensor": {"dtype": "DT_INT32", "tensorShape": {"dim": [{"size": "2"}]}}}, "dtype": {"type": "DT_INT32"}}}, {"name": "StatefulPartitionedCall/model_1/instance_normalization_2/batchnorm/add/y", "op": "Const", "attr": {"dtype": {"type": "DT_FLOAT"}, "value": {"tensor": {"dtype": "DT_FLOAT", "tensorShape": {}}}}}, {"name": "StatefulPartitionedCall/model_1/instance_normalization_2/Reshape", "op": "Const", "attr": {"value": {"tensor": {"dtype": "DT_FLOAT", "tensorShape": {"dim": [{"size": "1"}, {"size": "1"}, {"size": "1"}, {"size": "256"}]}}}, "dtype": {"type": "DT_FLOAT"}}}, {"name": "StatefulPartitionedCall/model_1/conv2d_3/Conv2D/ReadVariableOp", "op": "Const", "attr": {"value": {"tensor": {"dtype": "DT_FLOAT", "tensorShape": {"dim": [{"size": "3"}, {"size": "3"}, {"size": "256"}, {"size": "512"}]}}}, "dtype": {"type": "DT_FLOAT"}}}, {"name": "StatefulPartitionedCall/model_1/conv2d_3/BiasAdd/ReadVariableOp", "op": "Const", "attr": {"value": {"tensor": {"dtype": "DT_FLOAT", "tensorShape": {"dim": [{"size": "512"}]}}}, "dtype": {"type": "DT_FLOAT"}}}, {"name": "StatefulPartitionedCall/model_1/instance_normalization_3/moments/mean/reduction_indices", "op": "Const", "attr": {"dtype": {"type": "DT_INT32"}, "value": {"tensor": {"dtype": "DT_INT32", "tensorShape": {"dim": [{"size": "2"}]}}}}}, {"name": "StatefulPartitionedCall/model_1/instance_normalization_3/moments/variance/reduction_indices", "op": "Const", "attr": {"dtype": {"type": "DT_INT32"}, "value": {"tensor": {"dtype": "DT_INT32", "tensorShape": {"dim": [{"size": "2"}]}}}}}, {"name": "StatefulPartitionedCall/model_1/instance_normalization_3/batchnorm/add/y", "op": "Const", "attr": {"value": {"tensor": {"dtype": "DT_FLOAT", "tensorShape": {}}}, "dtype": {"type": "DT_FLOAT"}}}, {"name": "StatefulPartitionedCall/model_1/instance_normalization_3/Reshape", "op": "Const", "attr": {"value": {"tensor": {"dtype": "DT_FLOAT", "tensorShape": {"dim": [{"size": "1"}, {"size": "1"}, {"size": "1"}, {"size": "512"}]}}}, "dtype": {"type": "DT_FLOAT"}}}, {"name": "StatefulPartitionedCall/model_1/conv2d_4/Conv2D/ReadVariableOp", "op": "Const", "attr": {"dtype": {"type": "DT_FLOAT"}, "value": {"tensor": {"dtype": "DT_FLOAT", "tensorShape": {"dim": [{"size": "3"}, {"size": "3"}, {"size": "512"}, {"size": "1024"}]}}}}}, {"name": "StatefulPartitionedCall/model_1/conv2d_4/BiasAdd/ReadVariableOp", "op": "Const", "attr": {"value": {"tensor": {"dtype": "DT_FLOAT", "tensorShape": {"dim": [{"size": "1024"}]}}}, "dtype": {"type": "DT_FLOAT"}}}, {"name": "StatefulPartitionedCall/model_1/instance_normalization_4/moments/mean/reduction_indices", "op": "Const", "attr": {"dtype": {"type": "DT_INT32"}, "value": {"tensor": {"dtype": "DT_INT32", "tensorShape": {"dim": [{"size": "2"}]}}}}}, {"name": "StatefulPartitionedCall/model_1/instance_normalization_4/moments/variance/reduction_indices", "op": "Const", "attr": {"value": {"tensor": {"dtype": "DT_INT32", "tensorShape": {"dim": [{"size": "2"}]}}}, "dtype": {"type": "DT_INT32"}}}, {"name": "StatefulPartitionedCall/model_1/instance_normalization_4/batchnorm/add/y", "op": "Const", "attr": {"value": {"tensor": {"dtype": "DT_FLOAT", "tensorShape": {}}}, "dtype": {"type": "DT_FLOAT"}}}, {"name": "StatefulPartitionedCall/model_1/instance_normalization_4/Reshape", "op": "Const", "attr": {"value": {"tensor": {"dtype": "DT_FLOAT", "tensorShape": {"dim": [{"size": "1"}, {"size": "1"}, {"size": "1"}, {"size": "1024"}]}}}, "dtype": {"type": "DT_FLOAT"}}}, {"name": "StatefulPartitionedCall/model_1/resnet_block/conv2d_5/Conv2D/ReadVariableOp", "op": "Const", "attr": {"value": {"tensor": {"dtype": "DT_FLOAT", "tensorShape": {"dim": [{"size": "3"}, {"size": "3"}, {"size": "1024"}, {"size": "1024"}]}}}, "dtype": {"type": "DT_FLOAT"}}}, {"name": "StatefulPartitionedCall/model_1/resnet_block/conv2d_5/BiasAdd/ReadVariableOp", "op": "Const", "attr": {"dtype": {"type": "DT_FLOAT"}, "value": {"tensor": {"dtype": "DT_FLOAT", "tensorShape": {"dim": [{"size": "1024"}]}}}}}, {"name": "StatefulPartitionedCall/model_1/resnet_block/instance_normalization_5/moments/mean/reduction_indices", "op": "Const", "attr": {"dtype": {"type": "DT_INT32"}, "value": {"tensor": {"dtype": "DT_INT32", "tensorShape": {"dim": [{"size": "2"}]}}}}}, {"name": "StatefulPartitionedCall/model_1/resnet_block/instance_normalization_5/moments/variance/reduction_indices", "op": "Const", "attr": {"dtype": {"type": "DT_INT32"}, "value": {"tensor": {"dtype": "DT_INT32", "tensorShape": {"dim": [{"size": "2"}]}}}}}, {"name": "StatefulPartitionedCall/model_1/resnet_block/instance_normalization_5/batchnorm/add/y", "op": "Const", "attr": {"dtype": {"type": "DT_FLOAT"}, "value": {"tensor": {"dtype": "DT_FLOAT", "tensorShape": {}}}}}, {"name": "StatefulPartitionedCall/model_1/resnet_block/instance_normalization_5/Reshape", "op": "Const", "attr": {"dtype": {"type": "DT_FLOAT"}, "value": {"tensor": {"dtype": "DT_FLOAT", "tensorShape": {"dim": [{"size": "1"}, {"size": "1"}, {"size": "1"}, {"size": "1024"}]}}}}}, {"name": "StatefulPartitionedCall/model_1/resnet_block/conv2d_6/Conv2D/ReadVariableOp", "op": "Const", "attr": {"dtype": {"type": "DT_FLOAT"}, "value": {"tensor": {"dtype": "DT_FLOAT", "tensorShape": {"dim": [{"size": "3"}, {"size": "3"}, {"size": "1024"}, {"size": "1024"}]}}}}}, {"name": "StatefulPartitionedCall/model_1/resnet_block/conv2d_6/BiasAdd/ReadVariableOp", "op": "Const", "attr": {"value": {"tensor": {"dtype": "DT_FLOAT", "tensorShape": {"dim": [{"size": "1024"}]}}}, "dtype": {"type": "DT_FLOAT"}}}, {"name": "unknown_22", "op": "Const", "attr": {"value": {"tensor": {"dtype": "DT_INT32", "tensorShape": {"dim": [{"size": "4"}, {"size": "2"}]}}}, "dtype": {"type": "DT_INT32"}}}, {"name": "StatefulPartitionedCall/model_1/resnet_block/instance_normalization_6/moments/mean/reduction_indices", "op": "Const", "attr": {"dtype": {"type": "DT_INT32"}, "value": {"tensor": {"dtype": "DT_INT32", "tensorShape": {"dim": [{"size": "2"}]}}}}}, {"name": "StatefulPartitionedCall/model_1/resnet_block/instance_normalization_6/moments/variance/reduction_indices", "op": "Const", "attr": {"value": {"tensor": {"dtype": "DT_INT32", "tensorShape": {"dim": [{"size": "2"}]}}}, "dtype": {"type": "DT_INT32"}}}, {"name": "StatefulPartitionedCall/model_1/resnet_block/instance_normalization_6/batchnorm/add/y", "op": "Const", "attr": {"dtype": {"type": "DT_FLOAT"}, "value": {"tensor": {"dtype": "DT_FLOAT", "tensorShape": {}}}}}, {"name": "StatefulPartitionedCall/model_1/resnet_block/instance_normalization_6/Reshape", "op": "Const", "attr": {"value": {"tensor": {"dtype": "DT_FLOAT", "tensorShape": {"dim": [{"size": "1"}, {"size": "1"}, {"size": "1"}, {"size": "1024"}]}}}, "dtype": {"type": "DT_FLOAT"}}}, {"name": "StatefulPartitionedCall/model_1/resnet_block_1/conv2d_7/Conv2D/ReadVariableOp", "op": "Const", "attr": {"value": {"tensor": {"dtype": "DT_FLOAT", "tensorShape": {"dim": [{"size": "3"}, {"size": "3"}, {"size": "1024"}, {"size": "1024"}]}}}, "dtype": {"type": "DT_FLOAT"}}}, {"name": "StatefulPartitionedCall/model_1/resnet_block_1/conv2d_7/BiasAdd/ReadVariableOp", "op": "Const", "attr": {"value": {"tensor": {"dtype": "DT_FLOAT", "tensorShape": {"dim": [{"size": "1024"}]}}}, "dtype": {"type": "DT_FLOAT"}}}, {"name": "StatefulPartitionedCall/model_1/resnet_block_1/instance_normalization_7/moments/mean/reduction_indices", "op": "Const", "attr": {"value": {"tensor": {"dtype": "DT_INT32", "tensorShape": {"dim": [{"size": "2"}]}}}, "dtype": {"type": "DT_INT32"}}}, {"name": "StatefulPartitionedCall/model_1/resnet_block_1/instance_normalization_7/moments/variance/reduction_indices", "op": "Const", "attr": {"value": {"tensor": {"dtype": "DT_INT32", "tensorShape": {"dim": [{"size": "2"}]}}}, "dtype": {"type": "DT_INT32"}}}, {"name": "StatefulPartitionedCall/model_1/resnet_block_1/instance_normalization_7/batchnorm/add/y", "op": "Const", "attr": {"dtype": {"type": "DT_FLOAT"}, "value": {"tensor": {"dtype": "DT_FLOAT", "tensorShape": {}}}}}, {"name": "StatefulPartitionedCall/model_1/resnet_block_1/instance_normalization_7/Reshape", "op": "Const", "attr": {"dtype": {"type": "DT_FLOAT"}, "value": {"tensor": {"dtype": "DT_FLOAT", "tensorShape": {"dim": [{"size": "1"}, {"size": "1"}, {"size": "1"}, {"size": "1024"}]}}}}}, {"name": "StatefulPartitionedCall/model_1/resnet_block_1/conv2d_8/Conv2D/ReadVariableOp", "op": "Const", "attr": {"value": {"tensor": {"dtype": "DT_FLOAT", "tensorShape": {"dim": [{"size": "3"}, {"size": "3"}, {"size": "1024"}, {"size": "1024"}]}}}, "dtype": {"type": "DT_FLOAT"}}}, {"name": "StatefulPartitionedCall/model_1/resnet_block_1/conv2d_8/BiasAdd/ReadVariableOp", "op": "Const", "attr": {"dtype": {"type": "DT_FLOAT"}, "value": {"tensor": {"dtype": "DT_FLOAT", "tensorShape": {"dim": [{"size": "1024"}]}}}}}, {"name": "unknown_31", "op": "Const", "attr": {"dtype": {"type": "DT_INT32"}, "value": {"tensor": {"dtype": "DT_INT32", "tensorShape": {"dim": [{"size": "4"}, {"size": "2"}]}}}}}, {"name": "StatefulPartitionedCall/model_1/resnet_block_1/instance_normalization_8/moments/mean/reduction_indices", "op": "Const", "attr": {"value": {"tensor": {"dtype": "DT_INT32", "tensorShape": {"dim": [{"size": "2"}]}}}, "dtype": {"type": "DT_INT32"}}}, {"name": "StatefulPartitionedCall/model_1/resnet_block_1/instance_normalization_8/moments/variance/reduction_indices", "op": "Const", "attr": {"value": {"tensor": {"dtype": "DT_INT32", "tensorShape": {"dim": [{"size": "2"}]}}}, "dtype": {"type": "DT_INT32"}}}, {"name": "StatefulPartitionedCall/model_1/resnet_block_1/instance_normalization_8/batchnorm/add/y", "op": "Const", "attr": {"value": {"tensor": {"dtype": "DT_FLOAT", "tensorShape": {}}}, "dtype": {"type": "DT_FLOAT"}}}, {"name": "StatefulPartitionedCall/model_1/resnet_block_1/instance_normalization_8/Reshape", "op": "Const", "attr": {"dtype": {"type": "DT_FLOAT"}, "value": {"tensor": {"dtype": "DT_FLOAT", "tensorShape": {"dim": [{"size": "1"}, {"size": "1"}, {"size": "1"}, {"size": "1024"}]}}}}}, {"name": "StatefulPartitionedCall/model_1/resnet_block_2/conv2d_9/Conv2D/ReadVariableOp", "op": "Const", "attr": {"dtype": {"type": "DT_FLOAT"}, "value": {"tensor": {"dtype": "DT_FLOAT", "tensorShape": {"dim": [{"size": "3"}, {"size": "3"}, {"size": "1024"}, {"size": "1024"}]}}}}}, {"name": "StatefulPartitionedCall/model_1/resnet_block_2/conv2d_9/BiasAdd/ReadVariableOp", "op": "Const", "attr": {"dtype": {"type": "DT_FLOAT"}, "value": {"tensor": {"dtype": "DT_FLOAT", "tensorShape": {"dim": [{"size": "1024"}]}}}}}, {"name": "StatefulPartitionedCall/model_1/resnet_block_2/instance_normalization_9/moments/mean/reduction_indices", "op": "Const", "attr": {"dtype": {"type": "DT_INT32"}, "value": {"tensor": {"dtype": "DT_INT32", "tensorShape": {"dim": [{"size": "2"}]}}}}}, {"name": "StatefulPartitionedCall/model_1/resnet_block_2/instance_normalization_9/moments/variance/reduction_indices", "op": "Const", "attr": {"value": {"tensor": {"dtype": "DT_INT32", "tensorShape": {"dim": [{"size": "2"}]}}}, "dtype": {"type": "DT_INT32"}}}, {"name": "StatefulPartitionedCall/model_1/resnet_block_2/instance_normalization_9/batchnorm/add/y", "op": "Const", "attr": {"dtype": {"type": "DT_FLOAT"}, "value": {"tensor": {"dtype": "DT_FLOAT", "tensorShape": {}}}}}, {"name": "StatefulPartitionedCall/model_1/resnet_block_2/instance_normalization_9/Reshape", "op": "Const", "attr": {"dtype": {"type": "DT_FLOAT"}, "value": {"tensor": {"dtype": "DT_FLOAT", "tensorShape": {"dim": [{"size": "1"}, {"size": "1"}, {"size": "1"}, {"size": "1024"}]}}}}}, {"name": "StatefulPartitionedCall/model_1/resnet_block_2/conv2d_10/Conv2D/ReadVariableOp", "op": "Const", "attr": {"value": {"tensor": {"dtype": "DT_FLOAT", "tensorShape": {"dim": [{"size": "3"}, {"size": "3"}, {"size": "1024"}, {"size": "1024"}]}}}, "dtype": {"type": "DT_FLOAT"}}}, {"name": "StatefulPartitionedCall/model_1/resnet_block_2/conv2d_10/BiasAdd/ReadVariableOp", "op": "Const", "attr": {"value": {"tensor": {"dtype": "DT_FLOAT", "tensorShape": {"dim": [{"size": "1024"}]}}}, "dtype": {"type": "DT_FLOAT"}}}, {"name": "unknown_40", "op": "Const", "attr": {"value": {"tensor": {"dtype": "DT_INT32", "tensorShape": {"dim": [{"size": "4"}, {"size": "2"}]}}}, "dtype": {"type": "DT_INT32"}}}, {"name": "StatefulPartitionedCall/model_1/resnet_block_2/instance_normalization_10/moments/mean/reduction_indices", "op": "Const", "attr": {"value": {"tensor": {"dtype": "DT_INT32", "tensorShape": {"dim": [{"size": "2"}]}}}, "dtype": {"type": "DT_INT32"}}}, {"name": "StatefulPartitionedCall/model_1/resnet_block_2/instance_normalization_10/moments/variance/reduction_indices", "op": "Const", "attr": {"value": {"tensor": {"dtype": "DT_INT32", "tensorShape": {"dim": [{"size": "2"}]}}}, "dtype": {"type": "DT_INT32"}}}, {"name": "StatefulPartitionedCall/model_1/resnet_block_2/instance_normalization_10/batchnorm/add/y", "op": "Const", "attr": {"value": {"tensor": {"dtype": "DT_FLOAT", "tensorShape": {}}}, "dtype": {"type": "DT_FLOAT"}}}, {"name": "StatefulPartitionedCall/model_1/resnet_block_2/instance_normalization_10/Reshape", "op": "Const", "attr": {"value": {"tensor": {"dtype": "DT_FLOAT", "tensorShape": {"dim": [{"size": "1"}, {"size": "1"}, {"size": "1"}, {"size": "1024"}]}}}, "dtype": {"type": "DT_FLOAT"}}}, {"name": "StatefulPartitionedCall/model_1/resnet_block_3/conv2d_11/Conv2D/ReadVariableOp", "op": "Const", "attr": {"dtype": {"type": "DT_FLOAT"}, "value": {"tensor": {"dtype": "DT_FLOAT", "tensorShape": {"dim": [{"size": "3"}, {"size": "3"}, {"size": "1024"}, {"size": "1024"}]}}}}}, {"name": "StatefulPartitionedCall/model_1/resnet_block_3/conv2d_11/BiasAdd/ReadVariableOp", "op": "Const", "attr": {"value": {"tensor": {"dtype": "DT_FLOAT", "tensorShape": {"dim": [{"size": "1024"}]}}}, "dtype": {"type": "DT_FLOAT"}}}, {"name": "StatefulPartitionedCall/model_1/resnet_block_3/instance_normalization_11/moments/mean/reduction_indices", "op": "Const", "attr": {"dtype": {"type": "DT_INT32"}, "value": {"tensor": {"dtype": "DT_INT32", "tensorShape": {"dim": [{"size": "2"}]}}}}}, {"name": "StatefulPartitionedCall/model_1/resnet_block_3/instance_normalization_11/moments/variance/reduction_indices", "op": "Const", "attr": {"value": {"tensor": {"dtype": "DT_INT32", "tensorShape": {"dim": [{"size": "2"}]}}}, "dtype": {"type": "DT_INT32"}}}, {"name": "StatefulPartitionedCall/model_1/resnet_block_3/instance_normalization_11/batchnorm/add/y", "op": "Const", "attr": {"value": {"tensor": {"dtype": "DT_FLOAT", "tensorShape": {}}}, "dtype": {"type": "DT_FLOAT"}}}, {"name": "StatefulPartitionedCall/model_1/resnet_block_3/instance_normalization_11/Reshape", "op": "Const", "attr": {"dtype": {"type": "DT_FLOAT"}, "value": {"tensor": {"dtype": "DT_FLOAT", "tensorShape": {"dim": [{"size": "1"}, {"size": "1"}, {"size": "1"}, {"size": "1024"}]}}}}}, {"name": "StatefulPartitionedCall/model_1/resnet_block_3/conv2d_12/Conv2D/ReadVariableOp", "op": "Const", "attr": {"value": {"tensor": {"dtype": "DT_FLOAT", "tensorShape": {"dim": [{"size": "3"}, {"size": "3"}, {"size": "1024"}, {"size": "1024"}]}}}, "dtype": {"type": "DT_FLOAT"}}}, {"name": "StatefulPartitionedCall/model_1/resnet_block_3/conv2d_12/BiasAdd/ReadVariableOp", "op": "Const", "attr": {"value": {"tensor": {"dtype": "DT_FLOAT", "tensorShape": {"dim": [{"size": "1024"}]}}}, "dtype": {"type": "DT_FLOAT"}}}, {"name": "unknown_49", "op": "Const", "attr": {"value": {"tensor": {"dtype": "DT_INT32", "tensorShape": {"dim": [{"size": "4"}, {"size": "2"}]}}}, "dtype": {"type": "DT_INT32"}}}, {"name": "StatefulPartitionedCall/model_1/resnet_block_3/instance_normalization_12/moments/mean/reduction_indices", "op": "Const", "attr": {"value": {"tensor": {"dtype": "DT_INT32", "tensorShape": {"dim": [{"size": "2"}]}}}, "dtype": {"type": "DT_INT32"}}}, {"name": "StatefulPartitionedCall/model_1/resnet_block_3/instance_normalization_12/moments/variance/reduction_indices", "op": "Const", "attr": {"value": {"tensor": {"dtype": "DT_INT32", "tensorShape": {"dim": [{"size": "2"}]}}}, "dtype": {"type": "DT_INT32"}}}, {"name": "StatefulPartitionedCall/model_1/resnet_block_3/instance_normalization_12/batchnorm/add/y", "op": "Const", "attr": {"value": {"tensor": {"dtype": "DT_FLOAT", "tensorShape": {}}}, "dtype": {"type": "DT_FLOAT"}}}, {"name": "StatefulPartitionedCall/model_1/resnet_block_3/instance_normalization_12/Reshape", "op": "Const", "attr": {"dtype": {"type": "DT_FLOAT"}, "value": {"tensor": {"dtype": "DT_FLOAT", "tensorShape": {"dim": [{"size": "1"}, {"size": "1"}, {"size": "1"}, {"size": "1024"}]}}}}}, {"name": "StatefulPartitionedCall/model_1/resnet_block_4/conv2d_13/Conv2D/ReadVariableOp", "op": "Const", "attr": {"dtype": {"type": "DT_FLOAT"}, "value": {"tensor": {"dtype": "DT_FLOAT", "tensorShape": {"dim": [{"size": "3"}, {"size": "3"}, {"size": "1024"}, {"size": "1024"}]}}}}}, {"name": "StatefulPartitionedCall/model_1/resnet_block_4/conv2d_13/BiasAdd/ReadVariableOp", "op": "Const", "attr": {"dtype": {"type": "DT_FLOAT"}, "value": {"tensor": {"dtype": "DT_FLOAT", "tensorShape": {"dim": [{"size": "1024"}]}}}}}, {"name": "StatefulPartitionedCall/model_1/resnet_block_4/instance_normalization_13/moments/mean/reduction_indices", "op": "Const", "attr": {"dtype": {"type": "DT_INT32"}, "value": {"tensor": {"dtype": "DT_INT32", "tensorShape": {"dim": [{"size": "2"}]}}}}}, {"name": "StatefulPartitionedCall/model_1/resnet_block_4/instance_normalization_13/moments/variance/reduction_indices", "op": "Const", "attr": {"dtype": {"type": "DT_INT32"}, "value": {"tensor": {"dtype": "DT_INT32", "tensorShape": {"dim": [{"size": "2"}]}}}}}, {"name": "StatefulPartitionedCall/model_1/resnet_block_4/instance_normalization_13/batchnorm/add/y", "op": "Const", "attr": {"dtype": {"type": "DT_FLOAT"}, "value": {"tensor": {"dtype": "DT_FLOAT", "tensorShape": {}}}}}, {"name": "StatefulPartitionedCall/model_1/resnet_block_4/instance_normalization_13/Reshape", "op": "Const", "attr": {"dtype": {"type": "DT_FLOAT"}, "value": {"tensor": {"dtype": "DT_FLOAT", "tensorShape": {"dim": [{"size": "1"}, {"size": "1"}, {"size": "1"}, {"size": "1024"}]}}}}}, {"name": "StatefulPartitionedCall/model_1/resnet_block_4/conv2d_14/Conv2D/ReadVariableOp", "op": "Const", "attr": {"value": {"tensor": {"dtype": "DT_FLOAT", "tensorShape": {"dim": [{"size": "3"}, {"size": "3"}, {"size": "1024"}, {"size": "1024"}]}}}, "dtype": {"type": "DT_FLOAT"}}}, {"name": "StatefulPartitionedCall/model_1/resnet_block_4/conv2d_14/BiasAdd/ReadVariableOp", "op": "Const", "attr": {"dtype": {"type": "DT_FLOAT"}, "value": {"tensor": {"dtype": "DT_FLOAT", "tensorShape": {"dim": [{"size": "1024"}]}}}}}, {"name": "unknown_58", "op": "Const", "attr": {"dtype": {"type": "DT_INT32"}, "value": {"tensor": {"dtype": "DT_INT32", "tensorShape": {"dim": [{"size": "4"}, {"size": "2"}]}}}}}, {"name": "StatefulPartitionedCall/model_1/resnet_block_4/instance_normalization_14/moments/mean/reduction_indices", "op": "Const", "attr": {"value": {"tensor": {"dtype": "DT_INT32", "tensorShape": {"dim": [{"size": "2"}]}}}, "dtype": {"type": "DT_INT32"}}}, {"name": "StatefulPartitionedCall/model_1/resnet_block_4/instance_normalization_14/moments/variance/reduction_indices", "op": "Const", "attr": {"dtype": {"type": "DT_INT32"}, "value": {"tensor": {"dtype": "DT_INT32", "tensorShape": {"dim": [{"size": "2"}]}}}}}, {"name": "StatefulPartitionedCall/model_1/resnet_block_4/instance_normalization_14/batchnorm/add/y", "op": "Const", "attr": {"value": {"tensor": {"dtype": "DT_FLOAT", "tensorShape": {}}}, "dtype": {"type": "DT_FLOAT"}}}, {"name": "StatefulPartitionedCall/model_1/resnet_block_4/instance_normalization_14/Reshape", "op": "Const", "attr": {"value": {"tensor": {"dtype": "DT_FLOAT", "tensorShape": {"dim": [{"size": "1"}, {"size": "1"}, {"size": "1"}, {"size": "1024"}]}}}, "dtype": {"type": "DT_FLOAT"}}}, {"name": "StatefulPartitionedCall/model_1/resnet_block_5/conv2d_15/Conv2D/ReadVariableOp", "op": "Const", "attr": {"dtype": {"type": "DT_FLOAT"}, "value": {"tensor": {"dtype": "DT_FLOAT", "tensorShape": {"dim": [{"size": "3"}, {"size": "3"}, {"size": "1024"}, {"size": "1024"}]}}}}}, {"name": "StatefulPartitionedCall/model_1/resnet_block_5/conv2d_15/BiasAdd/ReadVariableOp", "op": "Const", "attr": {"dtype": {"type": "DT_FLOAT"}, "value": {"tensor": {"dtype": "DT_FLOAT", "tensorShape": {"dim": [{"size": "1024"}]}}}}}, {"name": "StatefulPartitionedCall/model_1/resnet_block_5/instance_normalization_15/moments/mean/reduction_indices", "op": "Const", "attr": {"value": {"tensor": {"dtype": "DT_INT32", "tensorShape": {"dim": [{"size": "2"}]}}}, "dtype": {"type": "DT_INT32"}}}, {"name": "StatefulPartitionedCall/model_1/resnet_block_5/instance_normalization_15/moments/variance/reduction_indices", "op": "Const", "attr": {"dtype": {"type": "DT_INT32"}, "value": {"tensor": {"dtype": "DT_INT32", "tensorShape": {"dim": [{"size": "2"}]}}}}}, {"name": "StatefulPartitionedCall/model_1/resnet_block_5/instance_normalization_15/batchnorm/add/y", "op": "Const", "attr": {"value": {"tensor": {"dtype": "DT_FLOAT", "tensorShape": {}}}, "dtype": {"type": "DT_FLOAT"}}}, {"name": "StatefulPartitionedCall/model_1/resnet_block_5/instance_normalization_15/Reshape", "op": "Const", "attr": {"dtype": {"type": "DT_FLOAT"}, "value": {"tensor": {"dtype": "DT_FLOAT", "tensorShape": {"dim": [{"size": "1"}, {"size": "1"}, {"size": "1"}, {"size": "1024"}]}}}}}, {"name": "StatefulPartitionedCall/model_1/resnet_block_5/conv2d_16/Conv2D/ReadVariableOp", "op": "Const", "attr": {"value": {"tensor": {"dtype": "DT_FLOAT", "tensorShape": {"dim": [{"size": "3"}, {"size": "3"}, {"size": "1024"}, {"size": "1024"}]}}}, "dtype": {"type": "DT_FLOAT"}}}, {"name": "StatefulPartitionedCall/model_1/resnet_block_5/conv2d_16/BiasAdd/ReadVariableOp", "op": "Const", "attr": {"dtype": {"type": "DT_FLOAT"}, "value": {"tensor": {"dtype": "DT_FLOAT", "tensorShape": {"dim": [{"size": "1024"}]}}}}}, {"name": "unknown_67", "op": "Const", "attr": {"value": {"tensor": {"dtype": "DT_INT32", "tensorShape": {"dim": [{"size": "4"}, {"size": "2"}]}}}, "dtype": {"type": "DT_INT32"}}}, {"name": "StatefulPartitionedCall/model_1/resnet_block_5/instance_normalization_16/moments/mean/reduction_indices", "op": "Const", "attr": {"dtype": {"type": "DT_INT32"}, "value": {"tensor": {"dtype": "DT_INT32", "tensorShape": {"dim": [{"size": "2"}]}}}}}, {"name": "StatefulPartitionedCall/model_1/resnet_block_5/instance_normalization_16/moments/variance/reduction_indices", "op": "Const", "attr": {"value": {"tensor": {"dtype": "DT_INT32", "tensorShape": {"dim": [{"size": "2"}]}}}, "dtype": {"type": "DT_INT32"}}}, {"name": "StatefulPartitionedCall/model_1/resnet_block_5/instance_normalization_16/batchnorm/add/y", "op": "Const", "attr": {"value": {"tensor": {"dtype": "DT_FLOAT", "tensorShape": {}}}, "dtype": {"type": "DT_FLOAT"}}}, {"name": "StatefulPartitionedCall/model_1/resnet_block_5/instance_normalization_16/Reshape", "op": "Const", "attr": {"dtype": {"type": "DT_FLOAT"}, "value": {"tensor": {"dtype": "DT_FLOAT", "tensorShape": {"dim": [{"size": "1"}, {"size": "1"}, {"size": "1"}, {"size": "1024"}]}}}}}, {"name": "StatefulPartitionedCall/model_1/resnet_block_6/conv2d_17/Conv2D/ReadVariableOp", "op": "Const", "attr": {"dtype": {"type": "DT_FLOAT"}, "value": {"tensor": {"dtype": "DT_FLOAT", "tensorShape": {"dim": [{"size": "3"}, {"size": "3"}, {"size": "1024"}, {"size": "1024"}]}}}}}, {"name": "StatefulPartitionedCall/model_1/resnet_block_6/conv2d_17/BiasAdd/ReadVariableOp", "op": "Const", "attr": {"dtype": {"type": "DT_FLOAT"}, "value": {"tensor": {"dtype": "DT_FLOAT", "tensorShape": {"dim": [{"size": "1024"}]}}}}}, {"name": "StatefulPartitionedCall/model_1/resnet_block_6/instance_normalization_17/moments/mean/reduction_indices", "op": "Const", "attr": {"value": {"tensor": {"dtype": "DT_INT32", "tensorShape": {"dim": [{"size": "2"}]}}}, "dtype": {"type": "DT_INT32"}}}, {"name": "StatefulPartitionedCall/model_1/resnet_block_6/instance_normalization_17/moments/variance/reduction_indices", "op": "Const", "attr": {"value": {"tensor": {"dtype": "DT_INT32", "tensorShape": {"dim": [{"size": "2"}]}}}, "dtype": {"type": "DT_INT32"}}}, {"name": "StatefulPartitionedCall/model_1/resnet_block_6/instance_normalization_17/batchnorm/add/y", "op": "Const", "attr": {"value": {"tensor": {"dtype": "DT_FLOAT", "tensorShape": {}}}, "dtype": {"type": "DT_FLOAT"}}}, {"name": "StatefulPartitionedCall/model_1/resnet_block_6/instance_normalization_17/Reshape", "op": "Const", "attr": {"value": {"tensor": {"dtype": "DT_FLOAT", "tensorShape": {"dim": [{"size": "1"}, {"size": "1"}, {"size": "1"}, {"size": "1024"}]}}}, "dtype": {"type": "DT_FLOAT"}}}, {"name": "StatefulPartitionedCall/model_1/resnet_block_6/conv2d_18/Conv2D/ReadVariableOp", "op": "Const", "attr": {"dtype": {"type": "DT_FLOAT"}, "value": {"tensor": {"dtype": "DT_FLOAT", "tensorShape": {"dim": [{"size": "3"}, {"size": "3"}, {"size": "1024"}, {"size": "1024"}]}}}}}, {"name": "StatefulPartitionedCall/model_1/resnet_block_6/conv2d_18/BiasAdd/ReadVariableOp", "op": "Const", "attr": {"dtype": {"type": "DT_FLOAT"}, "value": {"tensor": {"dtype": "DT_FLOAT", "tensorShape": {"dim": [{"size": "1024"}]}}}}}, {"name": "unknown_76", "op": "Const", "attr": {"value": {"tensor": {"dtype": "DT_INT32", "tensorShape": {"dim": [{"size": "4"}, {"size": "2"}]}}}, "dtype": {"type": "DT_INT32"}}}, {"name": "StatefulPartitionedCall/model_1/resnet_block_6/instance_normalization_18/moments/mean/reduction_indices", "op": "Const", "attr": {"value": {"tensor": {"dtype": "DT_INT32", "tensorShape": {"dim": [{"size": "2"}]}}}, "dtype": {"type": "DT_INT32"}}}, {"name": "StatefulPartitionedCall/model_1/resnet_block_6/instance_normalization_18/moments/variance/reduction_indices", "op": "Const", "attr": {"dtype": {"type": "DT_INT32"}, "value": {"tensor": {"dtype": "DT_INT32", "tensorShape": {"dim": [{"size": "2"}]}}}}}, {"name": "StatefulPartitionedCall/model_1/resnet_block_6/instance_normalization_18/batchnorm/add/y", "op": "Const", "attr": {"dtype": {"type": "DT_FLOAT"}, "value": {"tensor": {"dtype": "DT_FLOAT", "tensorShape": {}}}}}, {"name": "StatefulPartitionedCall/model_1/resnet_block_6/instance_normalization_18/Reshape", "op": "Const", "attr": {"dtype": {"type": "DT_FLOAT"}, "value": {"tensor": {"dtype": "DT_FLOAT", "tensorShape": {"dim": [{"size": "1"}, {"size": "1"}, {"size": "1"}, {"size": "1024"}]}}}}}, {"name": "StatefulPartitionedCall/model_1/resnet_block_7/conv2d_19/Conv2D/ReadVariableOp", "op": "Const", "attr": {"value": {"tensor": {"dtype": "DT_FLOAT", "tensorShape": {"dim": [{"size": "3"}, {"size": "3"}, {"size": "1024"}, {"size": "1024"}]}}}, "dtype": {"type": "DT_FLOAT"}}}, {"name": "StatefulPartitionedCall/model_1/resnet_block_7/conv2d_19/BiasAdd/ReadVariableOp", "op": "Const", "attr": {"value": {"tensor": {"dtype": "DT_FLOAT", "tensorShape": {"dim": [{"size": "1024"}]}}}, "dtype": {"type": "DT_FLOAT"}}}, {"name": "StatefulPartitionedCall/model_1/resnet_block_7/instance_normalization_19/moments/mean/reduction_indices", "op": "Const", "attr": {"value": {"tensor": {"dtype": "DT_INT32", "tensorShape": {"dim": [{"size": "2"}]}}}, "dtype": {"type": "DT_INT32"}}}, {"name": "StatefulPartitionedCall/model_1/resnet_block_7/instance_normalization_19/moments/variance/reduction_indices", "op": "Const", "attr": {"dtype": {"type": "DT_INT32"}, "value": {"tensor": {"dtype": "DT_INT32", "tensorShape": {"dim": [{"size": "2"}]}}}}}, {"name": "StatefulPartitionedCall/model_1/resnet_block_7/instance_normalization_19/batchnorm/add/y", "op": "Const", "attr": {"value": {"tensor": {"dtype": "DT_FLOAT", "tensorShape": {}}}, "dtype": {"type": "DT_FLOAT"}}}, {"name": "StatefulPartitionedCall/model_1/resnet_block_7/instance_normalization_19/Reshape", "op": "Const", "attr": {"value": {"tensor": {"dtype": "DT_FLOAT", "tensorShape": {"dim": [{"size": "1"}, {"size": "1"}, {"size": "1"}, {"size": "1024"}]}}}, "dtype": {"type": "DT_FLOAT"}}}, {"name": "StatefulPartitionedCall/model_1/resnet_block_7/conv2d_20/Conv2D/ReadVariableOp", "op": "Const", "attr": {"value": {"tensor": {"dtype": "DT_FLOAT", "tensorShape": {"dim": [{"size": "3"}, {"size": "3"}, {"size": "1024"}, {"size": "1024"}]}}}, "dtype": {"type": "DT_FLOAT"}}}, {"name": "StatefulPartitionedCall/model_1/resnet_block_7/conv2d_20/BiasAdd/ReadVariableOp", "op": "Const", "attr": {"dtype": {"type": "DT_FLOAT"}, "value": {"tensor": {"dtype": "DT_FLOAT", "tensorShape": {"dim": [{"size": "1024"}]}}}}}, {"name": "unknown_85", "op": "Const", "attr": {"value": {"tensor": {"dtype": "DT_INT32", "tensorShape": {"dim": [{"size": "4"}, {"size": "2"}]}}}, "dtype": {"type": "DT_INT32"}}}, {"name": "StatefulPartitionedCall/model_1/resnet_block_7/instance_normalization_20/moments/mean/reduction_indices", "op": "Const", "attr": {"value": {"tensor": {"dtype": "DT_INT32", "tensorShape": {"dim": [{"size": "2"}]}}}, "dtype": {"type": "DT_INT32"}}}, {"name": "StatefulPartitionedCall/model_1/resnet_block_7/instance_normalization_20/moments/variance/reduction_indices", "op": "Const", "attr": {"dtype": {"type": "DT_INT32"}, "value": {"tensor": {"dtype": "DT_INT32", "tensorShape": {"dim": [{"size": "2"}]}}}}}, {"name": "StatefulPartitionedCall/model_1/resnet_block_7/instance_normalization_20/batchnorm/add/y", "op": "Const", "attr": {"value": {"tensor": {"dtype": "DT_FLOAT", "tensorShape": {}}}, "dtype": {"type": "DT_FLOAT"}}}, {"name": "StatefulPartitionedCall/model_1/resnet_block_7/instance_normalization_20/Reshape", "op": "Const", "attr": {"dtype": {"type": "DT_FLOAT"}, "value": {"tensor": {"dtype": "DT_FLOAT", "tensorShape": {"dim": [{"size": "1"}, {"size": "1"}, {"size": "1"}, {"size": "1024"}]}}}}}, {"name": "StatefulPartitionedCall/model_1/resnet_block_8/conv2d_21/Conv2D/ReadVariableOp", "op": "Const", "attr": {"dtype": {"type": "DT_FLOAT"}, "value": {"tensor": {"dtype": "DT_FLOAT", "tensorShape": {"dim": [{"size": "3"}, {"size": "3"}, {"size": "1024"}, {"size": "1024"}]}}}}}, {"name": "StatefulPartitionedCall/model_1/resnet_block_8/conv2d_21/BiasAdd/ReadVariableOp", "op": "Const", "attr": {"value": {"tensor": {"dtype": "DT_FLOAT", "tensorShape": {"dim": [{"size": "1024"}]}}}, "dtype": {"type": "DT_FLOAT"}}}, {"name": "StatefulPartitionedCall/model_1/resnet_block_8/instance_normalization_21/moments/mean/reduction_indices", "op": "Const", "attr": {"dtype": {"type": "DT_INT32"}, "value": {"tensor": {"dtype": "DT_INT32", "tensorShape": {"dim": [{"size": "2"}]}}}}}, {"name": "StatefulPartitionedCall/model_1/resnet_block_8/instance_normalization_21/moments/variance/reduction_indices", "op": "Const", "attr": {"value": {"tensor": {"dtype": "DT_INT32", "tensorShape": {"dim": [{"size": "2"}]}}}, "dtype": {"type": "DT_INT32"}}}, {"name": "StatefulPartitionedCall/model_1/resnet_block_8/instance_normalization_21/batchnorm/add/y", "op": "Const", "attr": {"dtype": {"type": "DT_FLOAT"}, "value": {"tensor": {"dtype": "DT_FLOAT", "tensorShape": {}}}}}, {"name": "StatefulPartitionedCall/model_1/resnet_block_8/instance_normalization_21/Reshape", "op": "Const", "attr": {"dtype": {"type": "DT_FLOAT"}, "value": {"tensor": {"dtype": "DT_FLOAT", "tensorShape": {"dim": [{"size": "1"}, {"size": "1"}, {"size": "1"}, {"size": "1024"}]}}}}}, {"name": "StatefulPartitionedCall/model_1/resnet_block_8/conv2d_22/Conv2D/ReadVariableOp", "op": "Const", "attr": {"value": {"tensor": {"dtype": "DT_FLOAT", "tensorShape": {"dim": [{"size": "3"}, {"size": "3"}, {"size": "1024"}, {"size": "1024"}]}}}, "dtype": {"type": "DT_FLOAT"}}}, {"name": "StatefulPartitionedCall/model_1/resnet_block_8/conv2d_22/BiasAdd/ReadVariableOp", "op": "Const", "attr": {"value": {"tensor": {"dtype": "DT_FLOAT", "tensorShape": {"dim": [{"size": "1024"}]}}}, "dtype": {"type": "DT_FLOAT"}}}, {"name": "unknown_94", "op": "Const", "attr": {"dtype": {"type": "DT_INT32"}, "value": {"tensor": {"dtype": "DT_INT32", "tensorShape": {"dim": [{"size": "4"}, {"size": "2"}]}}}}}, {"name": "StatefulPartitionedCall/model_1/resnet_block_8/instance_normalization_22/moments/mean/reduction_indices", "op": "Const", "attr": {"value": {"tensor": {"dtype": "DT_INT32", "tensorShape": {"dim": [{"size": "2"}]}}}, "dtype": {"type": "DT_INT32"}}}, {"name": "StatefulPartitionedCall/model_1/resnet_block_8/instance_normalization_22/moments/variance/reduction_indices", "op": "Const", "attr": {"dtype": {"type": "DT_INT32"}, "value": {"tensor": {"dtype": "DT_INT32", "tensorShape": {"dim": [{"size": "2"}]}}}}}, {"name": "StatefulPartitionedCall/model_1/resnet_block_8/instance_normalization_22/batchnorm/add/y", "op": "Const", "attr": {"value": {"tensor": {"dtype": "DT_FLOAT", "tensorShape": {}}}, "dtype": {"type": "DT_FLOAT"}}}, {"name": "StatefulPartitionedCall/model_1/resnet_block_8/instance_normalization_22/Reshape", "op": "Const", "attr": {"value": {"tensor": {"dtype": "DT_FLOAT", "tensorShape": {"dim": [{"size": "1"}, {"size": "1"}, {"size": "1"}, {"size": "1024"}]}}}, "dtype": {"type": "DT_FLOAT"}}}, {"name": "StatefulPartitionedCall/model_1/conv2d_transpose/BiasAdd/ReadVariableOp", "op": "Const", "attr": {"value": {"tensor": {"dtype": "DT_FLOAT", "tensorShape": {"dim": [{"size": "512"}]}}}, "dtype": {"type": "DT_FLOAT"}}}, {"name": "StatefulPartitionedCall/model_1/instance_normalization_23/moments/mean/reduction_indices", "op": "Const", "attr": {"dtype": {"type": "DT_INT32"}, "value": {"tensor": {"dtype": "DT_INT32", "tensorShape": {"dim": [{"size": "2"}]}}}}}, {"name": "StatefulPartitionedCall/model_1/instance_normalization_23/moments/variance/reduction_indices", "op": "Const", "attr": {"dtype": {"type": "DT_INT32"}, "value": {"tensor": {"dtype": "DT_INT32", "tensorShape": {"dim": [{"size": "2"}]}}}}}, {"name": "StatefulPartitionedCall/model_1/instance_normalization_23/batchnorm/add/y", "op": "Const", "attr": {"dtype": {"type": "DT_FLOAT"}, "value": {"tensor": {"dtype": "DT_FLOAT", "tensorShape": {}}}}}, {"name": "StatefulPartitionedCall/model_1/instance_normalization_23/Reshape", "op": "Const", "attr": {"dtype": {"type": "DT_FLOAT"}, "value": {"tensor": {"dtype": "DT_FLOAT", "tensorShape": {"dim": [{"size": "1"}, {"size": "1"}, {"size": "1"}, {"size": "512"}]}}}}}, {"name": "StatefulPartitionedCall/model_1/conv2d_transpose_1/BiasAdd/ReadVariableOp", "op": "Const", "attr": {"dtype": {"type": "DT_FLOAT"}, "value": {"tensor": {"dtype": "DT_FLOAT", "tensorShape": {"dim": [{"size": "256"}]}}}}}, {"name": "StatefulPartitionedCall/model_1/instance_normalization_24/moments/mean/reduction_indices", "op": "Const", "attr": {"dtype": {"type": "DT_INT32"}, "value": {"tensor": {"dtype": "DT_INT32", "tensorShape": {"dim": [{"size": "2"}]}}}}}, {"name": "StatefulPartitionedCall/model_1/instance_normalization_24/moments/variance/reduction_indices", "op": "Const", "attr": {"dtype": {"type": "DT_INT32"}, "value": {"tensor": {"dtype": "DT_INT32", "tensorShape": {"dim": [{"size": "2"}]}}}}}, {"name": "StatefulPartitionedCall/model_1/instance_normalization_24/batchnorm/add/y", "op": "Const", "attr": {"dtype": {"type": "DT_FLOAT"}, "value": {"tensor": {"dtype": "DT_FLOAT", "tensorShape": {}}}}}, {"name": "StatefulPartitionedCall/model_1/instance_normalization_24/Reshape", "op": "Const", "attr": {"value": {"tensor": {"dtype": "DT_FLOAT", "tensorShape": {"dim": [{"size": "1"}, {"size": "1"}, {"size": "1"}, {"size": "256"}]}}}, "dtype": {"type": "DT_FLOAT"}}}, {"name": "StatefulPartitionedCall/model_1/conv2d_transpose_2/BiasAdd/ReadVariableOp", "op": "Const", "attr": {"value": {"tensor": {"dtype": "DT_FLOAT", "tensorShape": {"dim": [{"size": "128"}]}}}, "dtype": {"type": "DT_FLOAT"}}}, {"name": "StatefulPartitionedCall/model_1/instance_normalization_25/moments/mean/reduction_indices", "op": "Const", "attr": {"value": {"tensor": {"dtype": "DT_INT32", "tensorShape": {"dim": [{"size": "2"}]}}}, "dtype": {"type": "DT_INT32"}}}, {"name": "StatefulPartitionedCall/model_1/instance_normalization_25/moments/variance/reduction_indices", "op": "Const", "attr": {"value": {"tensor": {"dtype": "DT_INT32", "tensorShape": {"dim": [{"size": "2"}]}}}, "dtype": {"type": "DT_INT32"}}}, {"name": "StatefulPartitionedCall/model_1/instance_normalization_25/batchnorm/add/y", "op": "Const", "attr": {"value": {"tensor": {"dtype": "DT_FLOAT", "tensorShape": {}}}, "dtype": {"type": "DT_FLOAT"}}}, {"name": "StatefulPartitionedCall/model_1/instance_normalization_25/Reshape", "op": "Const", "attr": {"dtype": {"type": "DT_FLOAT"}, "value": {"tensor": {"dtype": "DT_FLOAT", "tensorShape": {"dim": [{"size": "1"}, {"size": "1"}, {"size": "1"}, {"size": "128"}]}}}}}, {"name": "StatefulPartitionedCall/model_1/conv2d_transpose_3/BiasAdd/ReadVariableOp", "op": "Const", "attr": {"dtype": {"type": "DT_FLOAT"}, "value": {"tensor": {"dtype": "DT_FLOAT", "tensorShape": {"dim": [{"size": "64"}]}}}}}, {"name": "StatefulPartitionedCall/model_1/instance_normalization_26/moments/mean/reduction_indices", "op": "Const", "attr": {"dtype": {"type": "DT_INT32"}, "value": {"tensor": {"dtype": "DT_INT32", "tensorShape": {"dim": [{"size": "2"}]}}}}}, {"name": "StatefulPartitionedCall/model_1/instance_normalization_26/moments/variance/reduction_indices", "op": "Const", "attr": {"value": {"tensor": {"dtype": "DT_INT32", "tensorShape": {"dim": [{"size": "2"}]}}}, "dtype": {"type": "DT_INT32"}}}, {"name": "StatefulPartitionedCall/model_1/instance_normalization_26/batchnorm/add/y", "op": "Const", "attr": {"dtype": {"type": "DT_FLOAT"}, "value": {"tensor": {"dtype": "DT_FLOAT", "tensorShape": {}}}}}, {"name": "StatefulPartitionedCall/model_1/instance_normalization_26/Reshape", "op": "Const", "attr": {"value": {"tensor": {"dtype": "DT_FLOAT", "tensorShape": {"dim": [{"size": "1"}, {"size": "1"}, {"size": "1"}, {"size": "64"}]}}}, "dtype": {"type": "DT_FLOAT"}}}, {"name": "unknown", "op": "Const", "attr": {"dtype": {"type": "DT_INT32"}, "value": {"tensor": {"dtype": "DT_INT32", "tensorShape": {"dim": [{"size": "4"}, {"size": "2"}]}}}}}, {"name": "StatefulPartitionedCall/model_1/conv2d_23/Conv2D/ReadVariableOp", "op": "Const", "attr": {"value": {"tensor": {"dtype": "DT_FLOAT", "tensorShape": {"dim": [{"size": "7"}, {"size": "7"}, {"size": "64"}, {"size": "3"}]}}}, "dtype": {"type": "DT_FLOAT"}}}, {"name": "StatefulPartitionedCall/model_1/conv2d_23/BiasAdd/ReadVariableOp", "op": "Const", "attr": {"value": {"tensor": {"dtype": "DT_FLOAT", "tensorShape": {"dim": [{"size": "3"}]}}}, "dtype": {"type": "DT_FLOAT"}}}, {"name": "input_1", "op": "Placeholder", "attr": {"shape": {"shape": {"dim": [{"size": "-1"}, {"size": "512"}, {"size": "512"}, {"size": "3"}]}}, "dtype": {"type": "DT_FLOAT"}}}, {"name": "StatefulPartitionedCall/model_1/tf.compat.v1.pad/MirrorPad", "op": "MirrorPad", "input": ["input_1", "unknown"], "attr": {"Tpaddings": {"type": "DT_INT32"}, "T": {"type": "DT_FLOAT"}, "mode": {"s": "UkVGTEVDVA=="}}}, {"name": "StatefulPartitionedCall/model_1/conv2d/BiasAdd", "op": "_FusedConv2D", "input": ["StatefulPartitionedCall/model_1/tf.compat.v1.pad/MirrorPad", "StatefulPartitionedCall/model_1/conv2d/Conv2D/ReadVariableOp", "StatefulPartitionedCall/model_1/conv2d/BiasAdd/ReadVariableOp"], "device": "/device:CPU:0", "attr": {"data_format": {"s": "TkhXQw=="}, "dilations": {"list": {"i": ["1", "1", "1", "1"]}}, "num_args": {"i": "1"}, "fused_ops": {"list": {"s": ["Qmlhc0FkZA=="]}}, "T": {"type": "DT_FLOAT"}, "padding": {"s": "VkFMSUQ="}, "strides": {"list": {"i": ["1", "1", "1", "1"]}}, "use_cudnn_on_gpu": {"b": true}, "epsilon": {"f": 0.0}, "explicit_paddings": {"list": {}}}}, {"name": "StatefulPartitionedCall/model_1/instance_normalization/moments/mean", "op": "Mean", "input": ["StatefulPartitionedCall/model_1/conv2d/BiasAdd", "StatefulPartitionedCall/model_1/instance_normalization/moments/mean/reduction_indices"], "attr": {"T": {"type": "DT_FLOAT"}, "Tidx": {"type": "DT_INT32"}, "keep_dims": {"b": true}}}, {"name": "StatefulPartitionedCall/model_1/instance_normalization/moments/SquaredDifference", "op": "SquaredDifference", "input": ["StatefulPartitionedCall/model_1/conv2d/BiasAdd", "StatefulPartitionedCall/model_1/instance_normalization/moments/mean"], "attr": {"T": {"type": "DT_FLOAT"}}}, {"name": "StatefulPartitionedCall/model_1/instance_normalization/moments/variance", "op": "Mean", "input": ["StatefulPartitionedCall/model_1/instance_normalization/moments/SquaredDifference", "StatefulPartitionedCall/model_1/instance_normalization/moments/variance/reduction_indices"], "attr": {"keep_dims": {"b": true}, "Tidx": {"type": "DT_INT32"}, "T": {"type": "DT_FLOAT"}}}, {"name": "StatefulPartitionedCall/model_1/instance_normalization/batchnorm/add", "op": "AddV2", "input": ["StatefulPartitionedCall/model_1/instance_normalization/moments/variance", "StatefulPartitionedCall/model_1/instance_normalization/batchnorm/add/y"], "attr": {"T": {"type": "DT_FLOAT"}}}, {"name": "StatefulPartitionedCall/model_1/instance_normalization/batchnorm/Rsqrt", "op": "Rsqrt", "input": ["StatefulPartitionedCall/model_1/instance_normalization/batchnorm/add"], "attr": {"T": {"type": "DT_FLOAT"}}}, {"name": "StatefulPartitionedCall/model_1/instance_normalization/batchnorm/mul", "op": "Mul", "input": ["StatefulPartitionedCall/model_1/instance_normalization/batchnorm/Rsqrt", "StatefulPartitionedCall/model_1/instance_normalization/Reshape"], "attr": {"T": {"type": "DT_FLOAT"}}}, {"name": "StatefulPartitionedCall/model_1/instance_normalization/batchnorm/mul_2", "op": "Mul", "input": ["StatefulPartitionedCall/model_1/instance_normalization/moments/mean", "StatefulPartitionedCall/model_1/instance_normalization/batchnorm/mul"], "attr": {"T": {"type": "DT_FLOAT"}}}, {"name": "StatefulPartitionedCall/model_1/instance_normalization/batchnorm/mul_1", "op": "Mul", "input": ["StatefulPartitionedCall/model_1/conv2d/BiasAdd", "StatefulPartitionedCall/model_1/instance_normalization/batchnorm/mul"], "attr": {"T": {"type": "DT_FLOAT"}}}, {"name": "StatefulPartitionedCall/model_1/instance_normalization/batchnorm/sub", "op": "Sub", "input": ["StatefulPartitionedCall/model_1/instance_normalization/Reshape_1", "StatefulPartitionedCall/model_1/instance_normalization/batchnorm/mul_2"], "attr": {"T": {"type": "DT_FLOAT"}}}, {"name": "StatefulPartitionedCall/model_1/instance_normalization/batchnorm/add_1", "op": "AddV2", "input": ["StatefulPartitionedCall/model_1/instance_normalization/batchnorm/mul_1", "StatefulPartitionedCall/model_1/instance_normalization/batchnorm/sub"], "attr": {"T": {"type": "DT_FLOAT"}}}, {"name": "StatefulPartitionedCall/model_1/re_lu/Relu", "op": "Relu", "input": ["StatefulPartitionedCall/model_1/instance_normalization/batchnorm/add_1"], "attr": {"T": {"type": "DT_FLOAT"}}}, {"name": "StatefulPartitionedCall/model_1/conv2d_1/BiasAdd", "op": "_FusedConv2D", "input": ["StatefulPartitionedCall/model_1/re_lu/Relu", "StatefulPartitionedCall/model_1/conv2d_1/Conv2D/ReadVariableOp", "StatefulPartitionedCall/model_1/conv2d_1/BiasAdd/ReadVariableOp"], "device": "/device:CPU:0", "attr": {"strides": {"list": {"i": ["1", "2", "2", "1"]}}, "data_format": {"s": "TkhXQw=="}, "epsilon": {"f": 0.0}, "num_args": {"i": "1"}, "fused_ops": {"list": {"s": ["Qmlhc0FkZA=="]}}, "padding": {"s": "U0FNRQ=="}, "use_cudnn_on_gpu": {"b": true}, "dilations": {"list": {"i": ["1", "1", "1", "1"]}}, "explicit_paddings": {"list": {}}, "T": {"type": "DT_FLOAT"}}}, {"name": "StatefulPartitionedCall/model_1/instance_normalization_1/moments/mean", "op": "Mean", "input": ["StatefulPartitionedCall/model_1/conv2d_1/BiasAdd", "StatefulPartitionedCall/model_1/instance_normalization_1/moments/mean/reduction_indices"], "attr": {"Tidx": {"type": "DT_INT32"}, "keep_dims": {"b": true}, "T": {"type": "DT_FLOAT"}}}, {"name": "StatefulPartitionedCall/model_1/instance_normalization_1/moments/SquaredDifference", "op": "SquaredDifference", "input": ["StatefulPartitionedCall/model_1/conv2d_1/BiasAdd", "StatefulPartitionedCall/model_1/instance_normalization_1/moments/mean"], "attr": {"T": {"type": "DT_FLOAT"}}}, {"name": "StatefulPartitionedCall/model_1/instance_normalization_1/moments/variance", "op": "Mean", "input": ["StatefulPartitionedCall/model_1/instance_normalization_1/moments/SquaredDifference", "StatefulPartitionedCall/model_1/instance_normalization_1/moments/variance/reduction_indices"], "attr": {"Tidx": {"type": "DT_INT32"}, "keep_dims": {"b": true}, "T": {"type": "DT_FLOAT"}}}, {"name": "StatefulPartitionedCall/model_1/instance_normalization_1/batchnorm/add", "op": "AddV2", "input": ["StatefulPartitionedCall/model_1/instance_normalization_1/moments/variance", "StatefulPartitionedCall/model_1/instance_normalization_1/batchnorm/add/y"], "attr": {"T": {"type": "DT_FLOAT"}}}, {"name": "StatefulPartitionedCall/model_1/instance_normalization_1/batchnorm/Rsqrt", "op": "Rsqrt", "input": ["StatefulPartitionedCall/model_1/instance_normalization_1/batchnorm/add"], "attr": {"T": {"type": "DT_FLOAT"}}}, {"name": "StatefulPartitionedCall/model_1/instance_normalization_1/batchnorm/mul", "op": "Mul", "input": ["StatefulPartitionedCall/model_1/instance_normalization_1/batchnorm/Rsqrt", "StatefulPartitionedCall/model_1/instance_normalization_1/Reshape"], "attr": {"T": {"type": "DT_FLOAT"}}}, {"name": "StatefulPartitionedCall/model_1/instance_normalization_1/batchnorm/mul_2", "op": "Mul", "input": ["StatefulPartitionedCall/model_1/instance_normalization_1/moments/mean", "StatefulPartitionedCall/model_1/instance_normalization_1/batchnorm/mul"], "attr": {"T": {"type": "DT_FLOAT"}}}, {"name": "StatefulPartitionedCall/model_1/instance_normalization_1/batchnorm/mul_1", "op": "Mul", "input": ["StatefulPartitionedCall/model_1/conv2d_1/BiasAdd", "StatefulPartitionedCall/model_1/instance_normalization_1/batchnorm/mul"], "attr": {"T": {"type": "DT_FLOAT"}}}, {"name": "StatefulPartitionedCall/model_1/instance_normalization_1/batchnorm/sub", "op": "Sub", "input": ["StatefulPartitionedCall/model_1/instance_normalization_1/Reshape_1", "StatefulPartitionedCall/model_1/instance_normalization_1/batchnorm/mul_2"], "attr": {"T": {"type": "DT_FLOAT"}}}, {"name": "StatefulPartitionedCall/model_1/instance_normalization_1/batchnorm/add_1", "op": "AddV2", "input": ["StatefulPartitionedCall/model_1/instance_normalization_1/batchnorm/mul_1", "StatefulPartitionedCall/model_1/instance_normalization_1/batchnorm/sub"], "attr": {"T": {"type": "DT_FLOAT"}}}, {"name": "StatefulPartitionedCall/model_1/re_lu_1/Relu", "op": "Relu", "input": ["StatefulPartitionedCall/model_1/instance_normalization_1/batchnorm/add_1"], "attr": {"T": {"type": "DT_FLOAT"}}}, {"name": "StatefulPartitionedCall/model_1/conv2d_2/BiasAdd", "op": "_FusedConv2D", "input": ["StatefulPartitionedCall/model_1/re_lu_1/Relu", "StatefulPartitionedCall/model_1/conv2d_2/Conv2D/ReadVariableOp", "StatefulPartitionedCall/model_1/conv2d_2/BiasAdd/ReadVariableOp"], "device": "/device:CPU:0", "attr": {"use_cudnn_on_gpu": {"b": true}, "T": {"type": "DT_FLOAT"}, "padding": {"s": "U0FNRQ=="}, "explicit_paddings": {"list": {}}, "dilations": {"list": {"i": ["1", "1", "1", "1"]}}, "strides": {"list": {"i": ["1", "2", "2", "1"]}}, "num_args": {"i": "1"}, "fused_ops": {"list": {"s": ["Qmlhc0FkZA=="]}}, "epsilon": {"f": 0.0}, "data_format": {"s": "TkhXQw=="}}}, {"name": "StatefulPartitionedCall/model_1/instance_normalization_2/moments/mean", "op": "Mean", "input": ["StatefulPartitionedCall/model_1/conv2d_2/BiasAdd", "StatefulPartitionedCall/model_1/instance_normalization_2/moments/mean/reduction_indices"], "attr": {"keep_dims": {"b": true}, "Tidx": {"type": "DT_INT32"}, "T": {"type": "DT_FLOAT"}}}, {"name": "StatefulPartitionedCall/model_1/instance_normalization_2/moments/SquaredDifference", "op": "SquaredDifference", "input": ["StatefulPartitionedCall/model_1/conv2d_2/BiasAdd", "StatefulPartitionedCall/model_1/instance_normalization_2/moments/mean"], "attr": {"T": {"type": "DT_FLOAT"}}}, {"name": "StatefulPartitionedCall/model_1/instance_normalization_2/moments/variance", "op": "Mean", "input": ["StatefulPartitionedCall/model_1/instance_normalization_2/moments/SquaredDifference", "StatefulPartitionedCall/model_1/instance_normalization_2/moments/variance/reduction_indices"], "attr": {"keep_dims": {"b": true}, "T": {"type": "DT_FLOAT"}, "Tidx": {"type": "DT_INT32"}}}, {"name": "StatefulPartitionedCall/model_1/instance_normalization_2/batchnorm/add", "op": "AddV2", "input": ["StatefulPartitionedCall/model_1/instance_normalization_2/moments/variance", "StatefulPartitionedCall/model_1/instance_normalization_2/batchnorm/add/y"], "attr": {"T": {"type": "DT_FLOAT"}}}, {"name": "StatefulPartitionedCall/model_1/instance_normalization_2/batchnorm/Rsqrt", "op": "Rsqrt", "input": ["StatefulPartitionedCall/model_1/instance_normalization_2/batchnorm/add"], "attr": {"T": {"type": "DT_FLOAT"}}}, {"name": "StatefulPartitionedCall/model_1/instance_normalization_2/batchnorm/mul", "op": "Mul", "input": ["StatefulPartitionedCall/model_1/instance_normalization_2/batchnorm/Rsqrt", "StatefulPartitionedCall/model_1/instance_normalization_2/Reshape"], "attr": {"T": {"type": "DT_FLOAT"}}}, {"name": "StatefulPartitionedCall/model_1/instance_normalization_2/batchnorm/mul_2", "op": "Mul", "input": ["StatefulPartitionedCall/model_1/instance_normalization_2/moments/mean", "StatefulPartitionedCall/model_1/instance_normalization_2/batchnorm/mul"], "attr": {"T": {"type": "DT_FLOAT"}}}, {"name": "StatefulPartitionedCall/model_1/instance_normalization_2/batchnorm/mul_1", "op": "Mul", "input": ["StatefulPartitionedCall/model_1/conv2d_2/BiasAdd", "StatefulPartitionedCall/model_1/instance_normalization_2/batchnorm/mul"], "attr": {"T": {"type": "DT_FLOAT"}}}, {"name": "StatefulPartitionedCall/model_1/instance_normalization_2/batchnorm/sub", "op": "Sub", "input": ["StatefulPartitionedCall/model_1/instance_normalization_2/Reshape_1", "StatefulPartitionedCall/model_1/instance_normalization_2/batchnorm/mul_2"], "attr": {"T": {"type": "DT_FLOAT"}}}, {"name": "StatefulPartitionedCall/model_1/instance_normalization_2/batchnorm/add_1", "op": "AddV2", "input": ["StatefulPartitionedCall/model_1/instance_normalization_2/batchnorm/mul_1", "StatefulPartitionedCall/model_1/instance_normalization_2/batchnorm/sub"], "attr": {"T": {"type": "DT_FLOAT"}}}, {"name": "StatefulPartitionedCall/model_1/re_lu_2/Relu", "op": "Relu", "input": ["StatefulPartitionedCall/model_1/instance_normalization_2/batchnorm/add_1"], "attr": {"T": {"type": "DT_FLOAT"}}}, {"name": "StatefulPartitionedCall/model_1/conv2d_3/BiasAdd", "op": "_FusedConv2D", "input": ["StatefulPartitionedCall/model_1/re_lu_2/Relu", "StatefulPartitionedCall/model_1/conv2d_3/Conv2D/ReadVariableOp", "StatefulPartitionedCall/model_1/conv2d_3/BiasAdd/ReadVariableOp"], "device": "/device:CPU:0", "attr": {"explicit_paddings": {"list": {}}, "strides": {"list": {"i": ["1", "2", "2", "1"]}}, "fused_ops": {"list": {"s": ["Qmlhc0FkZA=="]}}, "padding": {"s": "U0FNRQ=="}, "T": {"type": "DT_FLOAT"}, "use_cudnn_on_gpu": {"b": true}, "num_args": {"i": "1"}, "dilations": {"list": {"i": ["1", "1", "1", "1"]}}, "epsilon": {"f": 0.0}, "data_format": {"s": "TkhXQw=="}}}, {"name": "StatefulPartitionedCall/model_1/instance_normalization_3/moments/mean", "op": "Mean", "input": ["StatefulPartitionedCall/model_1/conv2d_3/BiasAdd", "StatefulPartitionedCall/model_1/instance_normalization_3/moments/mean/reduction_indices"], "attr": {"keep_dims": {"b": true}, "Tidx": {"type": "DT_INT32"}, "T": {"type": "DT_FLOAT"}}}, {"name": "StatefulPartitionedCall/model_1/instance_normalization_3/moments/SquaredDifference", "op": "SquaredDifference", "input": ["StatefulPartitionedCall/model_1/conv2d_3/BiasAdd", "StatefulPartitionedCall/model_1/instance_normalization_3/moments/mean"], "attr": {"T": {"type": "DT_FLOAT"}}}, {"name": "StatefulPartitionedCall/model_1/instance_normalization_3/moments/variance", "op": "Mean", "input": ["StatefulPartitionedCall/model_1/instance_normalization_3/moments/SquaredDifference", "StatefulPartitionedCall/model_1/instance_normalization_3/moments/variance/reduction_indices"], "attr": {"T": {"type": "DT_FLOAT"}, "keep_dims": {"b": true}, "Tidx": {"type": "DT_INT32"}}}, {"name": "StatefulPartitionedCall/model_1/instance_normalization_3/batchnorm/add", "op": "AddV2", "input": ["StatefulPartitionedCall/model_1/instance_normalization_3/moments/variance", "StatefulPartitionedCall/model_1/instance_normalization_3/batchnorm/add/y"], "attr": {"T": {"type": "DT_FLOAT"}}}, {"name": "StatefulPartitionedCall/model_1/instance_normalization_3/batchnorm/Rsqrt", "op": "Rsqrt", "input": ["StatefulPartitionedCall/model_1/instance_normalization_3/batchnorm/add"], "attr": {"T": {"type": "DT_FLOAT"}}}, {"name": "StatefulPartitionedCall/model_1/instance_normalization_3/batchnorm/mul", "op": "Mul", "input": ["StatefulPartitionedCall/model_1/instance_normalization_3/batchnorm/Rsqrt", "StatefulPartitionedCall/model_1/instance_normalization_3/Reshape"], "attr": {"T": {"type": "DT_FLOAT"}}}, {"name": "StatefulPartitionedCall/model_1/instance_normalization_3/batchnorm/mul_2", "op": "Mul", "input": ["StatefulPartitionedCall/model_1/instance_normalization_3/moments/mean", "StatefulPartitionedCall/model_1/instance_normalization_3/batchnorm/mul"], "attr": {"T": {"type": "DT_FLOAT"}}}, {"name": "StatefulPartitionedCall/model_1/instance_normalization_3/batchnorm/mul_1", "op": "Mul", "input": ["StatefulPartitionedCall/model_1/conv2d_3/BiasAdd", "StatefulPartitionedCall/model_1/instance_normalization_3/batchnorm/mul"], "attr": {"T": {"type": "DT_FLOAT"}}}, {"name": "StatefulPartitionedCall/model_1/instance_normalization_3/batchnorm/sub", "op": "Sub", "input": ["StatefulPartitionedCall/model_1/instance_normalization_3/Reshape_1", "StatefulPartitionedCall/model_1/instance_normalization_3/batchnorm/mul_2"], "attr": {"T": {"type": "DT_FLOAT"}}}, {"name": "StatefulPartitionedCall/model_1/instance_normalization_3/batchnorm/add_1", "op": "AddV2", "input": ["StatefulPartitionedCall/model_1/instance_normalization_3/batchnorm/mul_1", "StatefulPartitionedCall/model_1/instance_normalization_3/batchnorm/sub"], "attr": {"T": {"type": "DT_FLOAT"}}}, {"name": "StatefulPartitionedCall/model_1/re_lu_3/Relu", "op": "Relu", "input": ["StatefulPartitionedCall/model_1/instance_normalization_3/batchnorm/add_1"], "attr": {"T": {"type": "DT_FLOAT"}}}, {"name": "StatefulPartitionedCall/model_1/conv2d_4/BiasAdd", "op": "_FusedConv2D", "input": ["StatefulPartitionedCall/model_1/re_lu_3/Relu", "StatefulPartitionedCall/model_1/conv2d_4/Conv2D/ReadVariableOp", "StatefulPartitionedCall/model_1/conv2d_4/BiasAdd/ReadVariableOp"], "device": "/device:CPU:0", "attr": {"padding": {"s": "U0FNRQ=="}, "dilations": {"list": {"i": ["1", "1", "1", "1"]}}, "data_format": {"s": "TkhXQw=="}, "use_cudnn_on_gpu": {"b": true}, "num_args": {"i": "1"}, "strides": {"list": {"i": ["1", "2", "2", "1"]}}, "T": {"type": "DT_FLOAT"}, "epsilon": {"f": 0.0}, "explicit_paddings": {"list": {}}, "fused_ops": {"list": {"s": ["Qmlhc0FkZA=="]}}}}, {"name": "StatefulPartitionedCall/model_1/instance_normalization_4/moments/mean", "op": "Mean", "input": ["StatefulPartitionedCall/model_1/conv2d_4/BiasAdd", "StatefulPartitionedCall/model_1/instance_normalization_4/moments/mean/reduction_indices"], "attr": {"keep_dims": {"b": true}, "Tidx": {"type": "DT_INT32"}, "T": {"type": "DT_FLOAT"}}}, {"name": "StatefulPartitionedCall/model_1/instance_normalization_4/moments/SquaredDifference", "op": "SquaredDifference", "input": ["StatefulPartitionedCall/model_1/conv2d_4/BiasAdd", "StatefulPartitionedCall/model_1/instance_normalization_4/moments/mean"], "attr": {"T": {"type": "DT_FLOAT"}}}, {"name": "StatefulPartitionedCall/model_1/instance_normalization_4/moments/variance", "op": "Mean", "input": ["StatefulPartitionedCall/model_1/instance_normalization_4/moments/SquaredDifference", "StatefulPartitionedCall/model_1/instance_normalization_4/moments/variance/reduction_indices"], "attr": {"T": {"type": "DT_FLOAT"}, "keep_dims": {"b": true}, "Tidx": {"type": "DT_INT32"}}}, {"name": "StatefulPartitionedCall/model_1/instance_normalization_4/batchnorm/add", "op": "AddV2", "input": ["StatefulPartitionedCall/model_1/instance_normalization_4/moments/variance", "StatefulPartitionedCall/model_1/instance_normalization_4/batchnorm/add/y"], "attr": {"T": {"type": "DT_FLOAT"}}}, {"name": "StatefulPartitionedCall/model_1/instance_normalization_4/batchnorm/Rsqrt", "op": "Rsqrt", "input": ["StatefulPartitionedCall/model_1/instance_normalization_4/batchnorm/add"], "attr": {"T": {"type": "DT_FLOAT"}}}, {"name": "StatefulPartitionedCall/model_1/instance_normalization_4/batchnorm/mul", "op": "Mul", "input": ["StatefulPartitionedCall/model_1/instance_normalization_4/batchnorm/Rsqrt", "StatefulPartitionedCall/model_1/instance_normalization_4/Reshape"], "attr": {"T": {"type": "DT_FLOAT"}}}, {"name": "StatefulPartitionedCall/model_1/instance_normalization_4/batchnorm/mul_2", "op": "Mul", "input": ["StatefulPartitionedCall/model_1/instance_normalization_4/moments/mean", "StatefulPartitionedCall/model_1/instance_normalization_4/batchnorm/mul"], "attr": {"T": {"type": "DT_FLOAT"}}}, {"name": "StatefulPartitionedCall/model_1/instance_normalization_4/batchnorm/mul_1", "op": "Mul", "input": ["StatefulPartitionedCall/model_1/conv2d_4/BiasAdd", "StatefulPartitionedCall/model_1/instance_normalization_4/batchnorm/mul"], "attr": {"T": {"type": "DT_FLOAT"}}}, {"name": "StatefulPartitionedCall/model_1/instance_normalization_4/batchnorm/sub", "op": "Sub", "input": ["StatefulPartitionedCall/model_1/instance_normalization_4/Reshape_1", "StatefulPartitionedCall/model_1/instance_normalization_4/batchnorm/mul_2"], "attr": {"T": {"type": "DT_FLOAT"}}}, {"name": "StatefulPartitionedCall/model_1/instance_normalization_4/batchnorm/add_1", "op": "AddV2", "input": ["StatefulPartitionedCall/model_1/instance_normalization_4/batchnorm/mul_1", "StatefulPartitionedCall/model_1/instance_normalization_4/batchnorm/sub"], "attr": {"T": {"type": "DT_FLOAT"}}}, {"name": "StatefulPartitionedCall/model_1/re_lu_4/Relu", "op": "Relu", "input": ["StatefulPartitionedCall/model_1/instance_normalization_4/batchnorm/add_1"], "attr": {"T": {"type": "DT_FLOAT"}}}, {"name": "StatefulPartitionedCall/model_1/resnet_block/conv2d_5/BiasAdd", "op": "_FusedConv2D", "input": ["StatefulPartitionedCall/model_1/re_lu_4/Relu", "StatefulPartitionedCall/model_1/resnet_block/conv2d_5/Conv2D/ReadVariableOp", "StatefulPartitionedCall/model_1/resnet_block/conv2d_5/BiasAdd/ReadVariableOp"], "device": "/device:CPU:0", "attr": {"strides": {"list": {"i": ["1", "1", "1", "1"]}}, "explicit_paddings": {"list": {}}, "dilations": {"list": {"i": ["1", "1", "1", "1"]}}, "data_format": {"s": "TkhXQw=="}, "T": {"type": "DT_FLOAT"}, "num_args": {"i": "1"}, "padding": {"s": "VkFMSUQ="}, "fused_ops": {"list": {"s": ["Qmlhc0FkZA=="]}}, "epsilon": {"f": 0.0}, "use_cudnn_on_gpu": {"b": true}}}, {"name": "StatefulPartitionedCall/model_1/resnet_block/MirrorPad", "op": "MirrorPad", "input": ["StatefulPartitionedCall/model_1/resnet_block/conv2d_5/BiasAdd", "unknown_22"], "attr": {"T": {"type": "DT_FLOAT"}, "mode": {"s": "UkVGTEVDVA=="}, "Tpaddings": {"type": "DT_INT32"}}}, {"name": "StatefulPartitionedCall/model_1/resnet_block/instance_normalization_5/moments/mean", "op": "Mean", "input": ["StatefulPartitionedCall/model_1/resnet_block/MirrorPad", "StatefulPartitionedCall/model_1/resnet_block/instance_normalization_5/moments/mean/reduction_indices"], "attr": {"Tidx": {"type": "DT_INT32"}, "keep_dims": {"b": true}, "T": {"type": "DT_FLOAT"}}}, {"name": "StatefulPartitionedCall/model_1/resnet_block/instance_normalization_5/moments/SquaredDifference", "op": "SquaredDifference", "input": ["StatefulPartitionedCall/model_1/resnet_block/MirrorPad", "StatefulPartitionedCall/model_1/resnet_block/instance_normalization_5/moments/mean"], "attr": {"T": {"type": "DT_FLOAT"}}}, {"name": "StatefulPartitionedCall/model_1/resnet_block/instance_normalization_5/moments/variance", "op": "Mean", "input": ["StatefulPartitionedCall/model_1/resnet_block/instance_normalization_5/moments/SquaredDifference", "StatefulPartitionedCall/model_1/resnet_block/instance_normalization_5/moments/variance/reduction_indices"], "attr": {"Tidx": {"type": "DT_INT32"}, "keep_dims": {"b": true}, "T": {"type": "DT_FLOAT"}}}, {"name": "StatefulPartitionedCall/model_1/resnet_block/instance_normalization_5/batchnorm/add", "op": "AddV2", "input": ["StatefulPartitionedCall/model_1/resnet_block/instance_normalization_5/moments/variance", "StatefulPartitionedCall/model_1/resnet_block/instance_normalization_5/batchnorm/add/y"], "attr": {"T": {"type": "DT_FLOAT"}}}, {"name": "StatefulPartitionedCall/model_1/resnet_block/instance_normalization_5/batchnorm/Rsqrt", "op": "Rsqrt", "input": ["StatefulPartitionedCall/model_1/resnet_block/instance_normalization_5/batchnorm/add"], "attr": {"T": {"type": "DT_FLOAT"}}}, {"name": "StatefulPartitionedCall/model_1/resnet_block/instance_normalization_5/batchnorm/mul", "op": "Mul", "input": ["StatefulPartitionedCall/model_1/resnet_block/instance_normalization_5/batchnorm/Rsqrt", "StatefulPartitionedCall/model_1/resnet_block/instance_normalization_5/Reshape"], "attr": {"T": {"type": "DT_FLOAT"}}}, {"name": "StatefulPartitionedCall/model_1/resnet_block/instance_normalization_5/batchnorm/mul_2", "op": "Mul", "input": ["StatefulPartitionedCall/model_1/resnet_block/instance_normalization_5/moments/mean", "StatefulPartitionedCall/model_1/resnet_block/instance_normalization_5/batchnorm/mul"], "attr": {"T": {"type": "DT_FLOAT"}}}, {"name": "StatefulPartitionedCall/model_1/resnet_block/instance_normalization_5/batchnorm/mul_1", "op": "Mul", "input": ["StatefulPartitionedCall/model_1/resnet_block/MirrorPad", "StatefulPartitionedCall/model_1/resnet_block/instance_normalization_5/batchnorm/mul"], "attr": {"T": {"type": "DT_FLOAT"}}}, {"name": "StatefulPartitionedCall/model_1/resnet_block/instance_normalization_5/batchnorm/sub", "op": "Sub", "input": ["StatefulPartitionedCall/model_1/resnet_block/instance_normalization_5/Reshape_1", "StatefulPartitionedCall/model_1/resnet_block/instance_normalization_5/batchnorm/mul_2"], "attr": {"T": {"type": "DT_FLOAT"}}}, {"name": "StatefulPartitionedCall/model_1/resnet_block/instance_normalization_5/batchnorm/add_1", "op": "AddV2", "input": ["StatefulPartitionedCall/model_1/resnet_block/instance_normalization_5/batchnorm/mul_1", "StatefulPartitionedCall/model_1/resnet_block/instance_normalization_5/batchnorm/sub"], "attr": {"T": {"type": "DT_FLOAT"}}}, {"name": "StatefulPartitionedCall/model_1/resnet_block/re_lu_5/Relu", "op": "Relu", "input": ["StatefulPartitionedCall/model_1/resnet_block/instance_normalization_5/batchnorm/add_1"], "attr": {"T": {"type": "DT_FLOAT"}}}, {"name": "StatefulPartitionedCall/model_1/resnet_block/conv2d_6/BiasAdd", "op": "_FusedConv2D", "input": ["StatefulPartitionedCall/model_1/resnet_block/re_lu_5/Relu", "StatefulPartitionedCall/model_1/resnet_block/conv2d_6/Conv2D/ReadVariableOp", "StatefulPartitionedCall/model_1/resnet_block/conv2d_6/BiasAdd/ReadVariableOp"], "device": "/device:CPU:0", "attr": {"num_args": {"i": "1"}, "T": {"type": "DT_FLOAT"}, "strides": {"list": {"i": ["1", "1", "1", "1"]}}, "dilations": {"list": {"i": ["1", "1", "1", "1"]}}, "fused_ops": {"list": {"s": ["Qmlhc0FkZA=="]}}, "data_format": {"s": "TkhXQw=="}, "use_cudnn_on_gpu": {"b": true}, "padding": {"s": "VkFMSUQ="}, "explicit_paddings": {"list": {}}, "epsilon": {"f": 0.0}}}, {"name": "StatefulPartitionedCall/model_1/resnet_block/MirrorPad_1", "op": "MirrorPad", "input": ["StatefulPartitionedCall/model_1/resnet_block/conv2d_6/BiasAdd", "unknown_22"], "attr": {"T": {"type": "DT_FLOAT"}, "Tpaddings": {"type": "DT_INT32"}, "mode": {"s": "UkVGTEVDVA=="}}}, {"name": "StatefulPartitionedCall/model_1/resnet_block/instance_normalization_6/moments/mean", "op": "Mean", "input": ["StatefulPartitionedCall/model_1/resnet_block/MirrorPad_1", "StatefulPartitionedCall/model_1/resnet_block/instance_normalization_6/moments/mean/reduction_indices"], "attr": {"keep_dims": {"b": true}, "T": {"type": "DT_FLOAT"}, "Tidx": {"type": "DT_INT32"}}}, {"name": "StatefulPartitionedCall/model_1/resnet_block/instance_normalization_6/moments/SquaredDifference", "op": "SquaredDifference", "input": ["StatefulPartitionedCall/model_1/resnet_block/MirrorPad_1", "StatefulPartitionedCall/model_1/resnet_block/instance_normalization_6/moments/mean"], "attr": {"T": {"type": "DT_FLOAT"}}}, {"name": "StatefulPartitionedCall/model_1/resnet_block/instance_normalization_6/moments/variance", "op": "Mean", "input": ["StatefulPartitionedCall/model_1/resnet_block/instance_normalization_6/moments/SquaredDifference", "StatefulPartitionedCall/model_1/resnet_block/instance_normalization_6/moments/variance/reduction_indices"], "attr": {"T": {"type": "DT_FLOAT"}, "keep_dims": {"b": true}, "Tidx": {"type": "DT_INT32"}}}, {"name": "StatefulPartitionedCall/model_1/resnet_block/instance_normalization_6/batchnorm/add", "op": "AddV2", "input": ["StatefulPartitionedCall/model_1/resnet_block/instance_normalization_6/moments/variance", "StatefulPartitionedCall/model_1/resnet_block/instance_normalization_6/batchnorm/add/y"], "attr": {"T": {"type": "DT_FLOAT"}}}, {"name": "StatefulPartitionedCall/model_1/resnet_block/instance_normalization_6/batchnorm/Rsqrt", "op": "Rsqrt", "input": ["StatefulPartitionedCall/model_1/resnet_block/instance_normalization_6/batchnorm/add"], "attr": {"T": {"type": "DT_FLOAT"}}}, {"name": "StatefulPartitionedCall/model_1/resnet_block/instance_normalization_6/batchnorm/mul", "op": "Mul", "input": ["StatefulPartitionedCall/model_1/resnet_block/instance_normalization_6/batchnorm/Rsqrt", "StatefulPartitionedCall/model_1/resnet_block/instance_normalization_6/Reshape"], "attr": {"T": {"type": "DT_FLOAT"}}}, {"name": "StatefulPartitionedCall/model_1/resnet_block/instance_normalization_6/batchnorm/mul_2", "op": "Mul", "input": ["StatefulPartitionedCall/model_1/resnet_block/instance_normalization_6/moments/mean", "StatefulPartitionedCall/model_1/resnet_block/instance_normalization_6/batchnorm/mul"], "attr": {"T": {"type": "DT_FLOAT"}}}, {"name": "StatefulPartitionedCall/model_1/resnet_block/instance_normalization_6/batchnorm/mul_1", "op": "Mul", "input": ["StatefulPartitionedCall/model_1/resnet_block/MirrorPad_1", "StatefulPartitionedCall/model_1/resnet_block/instance_normalization_6/batchnorm/mul"], "attr": {"T": {"type": "DT_FLOAT"}}}, {"name": "StatefulPartitionedCall/model_1/resnet_block/instance_normalization_6/batchnorm/sub", "op": "Sub", "input": ["StatefulPartitionedCall/model_1/resnet_block/instance_normalization_6/Reshape_1", "StatefulPartitionedCall/model_1/resnet_block/instance_normalization_6/batchnorm/mul_2"], "attr": {"T": {"type": "DT_FLOAT"}}}, {"name": "StatefulPartitionedCall/model_1/resnet_block/instance_normalization_6/batchnorm/add_1", "op": "AddV2", "input": ["StatefulPartitionedCall/model_1/resnet_block/instance_normalization_6/batchnorm/mul_1", "StatefulPartitionedCall/model_1/resnet_block/instance_normalization_6/batchnorm/sub"], "attr": {"T": {"type": "DT_FLOAT"}}}, {"name": "StatefulPartitionedCall/model_1/resnet_block/add", "op": "AddV2", "input": ["StatefulPartitionedCall/model_1/re_lu_4/Relu", "StatefulPartitionedCall/model_1/resnet_block/instance_normalization_6/batchnorm/add_1"], "attr": {"T": {"type": "DT_FLOAT"}}}, {"name": "StatefulPartitionedCall/model_1/resnet_block_1/conv2d_7/BiasAdd", "op": "_FusedConv2D", "input": ["StatefulPartitionedCall/model_1/resnet_block/add", "StatefulPartitionedCall/model_1/resnet_block_1/conv2d_7/Conv2D/ReadVariableOp", "StatefulPartitionedCall/model_1/resnet_block_1/conv2d_7/BiasAdd/ReadVariableOp"], "device": "/device:CPU:0", "attr": {"padding": {"s": "VkFMSUQ="}, "fused_ops": {"list": {"s": ["Qmlhc0FkZA=="]}}, "T": {"type": "DT_FLOAT"}, "num_args": {"i": "1"}, "strides": {"list": {"i": ["1", "1", "1", "1"]}}, "data_format": {"s": "TkhXQw=="}, "dilations": {"list": {"i": ["1", "1", "1", "1"]}}, "explicit_paddings": {"list": {}}, "use_cudnn_on_gpu": {"b": true}, "epsilon": {"f": 0.0}}}, {"name": "StatefulPartitionedCall/model_1/resnet_block_1/MirrorPad", "op": "MirrorPad", "input": ["StatefulPartitionedCall/model_1/resnet_block_1/conv2d_7/BiasAdd", "unknown_31"], "attr": {"T": {"type": "DT_FLOAT"}, "Tpaddings": {"type": "DT_INT32"}, "mode": {"s": "UkVGTEVDVA=="}}}, {"name": "StatefulPartitionedCall/model_1/resnet_block_1/instance_normalization_7/moments/mean", "op": "Mean", "input": ["StatefulPartitionedCall/model_1/resnet_block_1/MirrorPad", "StatefulPartitionedCall/model_1/resnet_block_1/instance_normalization_7/moments/mean/reduction_indices"], "attr": {"Tidx": {"type": "DT_INT32"}, "keep_dims": {"b": true}, "T": {"type": "DT_FLOAT"}}}, {"name": "StatefulPartitionedCall/model_1/resnet_block_1/instance_normalization_7/moments/SquaredDifference", "op": "SquaredDifference", "input": ["StatefulPartitionedCall/model_1/resnet_block_1/MirrorPad", "StatefulPartitionedCall/model_1/resnet_block_1/instance_normalization_7/moments/mean"], "attr": {"T": {"type": "DT_FLOAT"}}}, {"name": "StatefulPartitionedCall/model_1/resnet_block_1/instance_normalization_7/moments/variance", "op": "Mean", "input": ["StatefulPartitionedCall/model_1/resnet_block_1/instance_normalization_7/moments/SquaredDifference", "StatefulPartitionedCall/model_1/resnet_block_1/instance_normalization_7/moments/variance/reduction_indices"], "attr": {"keep_dims": {"b": true}, "Tidx": {"type": "DT_INT32"}, "T": {"type": "DT_FLOAT"}}}, {"name": "StatefulPartitionedCall/model_1/resnet_block_1/instance_normalization_7/batchnorm/add", "op": "AddV2", "input": ["StatefulPartitionedCall/model_1/resnet_block_1/instance_normalization_7/moments/variance", "StatefulPartitionedCall/model_1/resnet_block_1/instance_normalization_7/batchnorm/add/y"], "attr": {"T": {"type": "DT_FLOAT"}}}, {"name": "StatefulPartitionedCall/model_1/resnet_block_1/instance_normalization_7/batchnorm/Rsqrt", "op": "Rsqrt", "input": ["StatefulPartitionedCall/model_1/resnet_block_1/instance_normalization_7/batchnorm/add"], "attr": {"T": {"type": "DT_FLOAT"}}}, {"name": "StatefulPartitionedCall/model_1/resnet_block_1/instance_normalization_7/batchnorm/mul", "op": "Mul", "input": ["StatefulPartitionedCall/model_1/resnet_block_1/instance_normalization_7/batchnorm/Rsqrt", "StatefulPartitionedCall/model_1/resnet_block_1/instance_normalization_7/Reshape"], "attr": {"T": {"type": "DT_FLOAT"}}}, {"name": "StatefulPartitionedCall/model_1/resnet_block_1/instance_normalization_7/batchnorm/mul_2", "op": "Mul", "input": ["StatefulPartitionedCall/model_1/resnet_block_1/instance_normalization_7/moments/mean", "StatefulPartitionedCall/model_1/resnet_block_1/instance_normalization_7/batchnorm/mul"], "attr": {"T": {"type": "DT_FLOAT"}}}, {"name": "StatefulPartitionedCall/model_1/resnet_block_1/instance_normalization_7/batchnorm/mul_1", "op": "Mul", "input": ["StatefulPartitionedCall/model_1/resnet_block_1/MirrorPad", "StatefulPartitionedCall/model_1/resnet_block_1/instance_normalization_7/batchnorm/mul"], "attr": {"T": {"type": "DT_FLOAT"}}}, {"name": "StatefulPartitionedCall/model_1/resnet_block_1/instance_normalization_7/batchnorm/sub", "op": "Sub", "input": ["StatefulPartitionedCall/model_1/resnet_block_1/instance_normalization_7/Reshape_1", "StatefulPartitionedCall/model_1/resnet_block_1/instance_normalization_7/batchnorm/mul_2"], "attr": {"T": {"type": "DT_FLOAT"}}}, {"name": "StatefulPartitionedCall/model_1/resnet_block_1/instance_normalization_7/batchnorm/add_1", "op": "AddV2", "input": ["StatefulPartitionedCall/model_1/resnet_block_1/instance_normalization_7/batchnorm/mul_1", "StatefulPartitionedCall/model_1/resnet_block_1/instance_normalization_7/batchnorm/sub"], "attr": {"T": {"type": "DT_FLOAT"}}}, {"name": "StatefulPartitionedCall/model_1/resnet_block_1/re_lu_6/Relu", "op": "Relu", "input": ["StatefulPartitionedCall/model_1/resnet_block_1/instance_normalization_7/batchnorm/add_1"], "attr": {"T": {"type": "DT_FLOAT"}}}, {"name": "StatefulPartitionedCall/model_1/resnet_block_1/conv2d_8/BiasAdd", "op": "_FusedConv2D", "input": ["StatefulPartitionedCall/model_1/resnet_block_1/re_lu_6/Relu", "StatefulPartitionedCall/model_1/resnet_block_1/conv2d_8/Conv2D/ReadVariableOp", "StatefulPartitionedCall/model_1/resnet_block_1/conv2d_8/BiasAdd/ReadVariableOp"], "device": "/device:CPU:0", "attr": {"epsilon": {"f": 0.0}, "explicit_paddings": {"list": {}}, "num_args": {"i": "1"}, "use_cudnn_on_gpu": {"b": true}, "data_format": {"s": "TkhXQw=="}, "fused_ops": {"list": {"s": ["Qmlhc0FkZA=="]}}, "dilations": {"list": {"i": ["1", "1", "1", "1"]}}, "padding": {"s": "VkFMSUQ="}, "T": {"type": "DT_FLOAT"}, "strides": {"list": {"i": ["1", "1", "1", "1"]}}}}, {"name": "StatefulPartitionedCall/model_1/resnet_block_1/MirrorPad_1", "op": "MirrorPad", "input": ["StatefulPartitionedCall/model_1/resnet_block_1/conv2d_8/BiasAdd", "unknown_31"], "attr": {"mode": {"s": "UkVGTEVDVA=="}, "Tpaddings": {"type": "DT_INT32"}, "T": {"type": "DT_FLOAT"}}}, {"name": "StatefulPartitionedCall/model_1/resnet_block_1/instance_normalization_8/moments/mean", "op": "Mean", "input": ["StatefulPartitionedCall/model_1/resnet_block_1/MirrorPad_1", "StatefulPartitionedCall/model_1/resnet_block_1/instance_normalization_8/moments/mean/reduction_indices"], "attr": {"keep_dims": {"b": true}, "T": {"type": "DT_FLOAT"}, "Tidx": {"type": "DT_INT32"}}}, {"name": "StatefulPartitionedCall/model_1/resnet_block_1/instance_normalization_8/moments/SquaredDifference", "op": "SquaredDifference", "input": ["StatefulPartitionedCall/model_1/resnet_block_1/MirrorPad_1", "StatefulPartitionedCall/model_1/resnet_block_1/instance_normalization_8/moments/mean"], "attr": {"T": {"type": "DT_FLOAT"}}}, {"name": "StatefulPartitionedCall/model_1/resnet_block_1/instance_normalization_8/moments/variance", "op": "Mean", "input": ["StatefulPartitionedCall/model_1/resnet_block_1/instance_normalization_8/moments/SquaredDifference", "StatefulPartitionedCall/model_1/resnet_block_1/instance_normalization_8/moments/variance/reduction_indices"], "attr": {"T": {"type": "DT_FLOAT"}, "Tidx": {"type": "DT_INT32"}, "keep_dims": {"b": true}}}, {"name": "StatefulPartitionedCall/model_1/resnet_block_1/instance_normalization_8/batchnorm/add", "op": "AddV2", "input": ["StatefulPartitionedCall/model_1/resnet_block_1/instance_normalization_8/moments/variance", "StatefulPartitionedCall/model_1/resnet_block_1/instance_normalization_8/batchnorm/add/y"], "attr": {"T": {"type": "DT_FLOAT"}}}, {"name": "StatefulPartitionedCall/model_1/resnet_block_1/instance_normalization_8/batchnorm/Rsqrt", "op": "Rsqrt", "input": ["StatefulPartitionedCall/model_1/resnet_block_1/instance_normalization_8/batchnorm/add"], "attr": {"T": {"type": "DT_FLOAT"}}}, {"name": "StatefulPartitionedCall/model_1/resnet_block_1/instance_normalization_8/batchnorm/mul", "op": "Mul", "input": ["StatefulPartitionedCall/model_1/resnet_block_1/instance_normalization_8/batchnorm/Rsqrt", "StatefulPartitionedCall/model_1/resnet_block_1/instance_normalization_8/Reshape"], "attr": {"T": {"type": "DT_FLOAT"}}}, {"name": "StatefulPartitionedCall/model_1/resnet_block_1/instance_normalization_8/batchnorm/mul_2", "op": "Mul", "input": ["StatefulPartitionedCall/model_1/resnet_block_1/instance_normalization_8/moments/mean", "StatefulPartitionedCall/model_1/resnet_block_1/instance_normalization_8/batchnorm/mul"], "attr": {"T": {"type": "DT_FLOAT"}}}, {"name": "StatefulPartitionedCall/model_1/resnet_block_1/instance_normalization_8/batchnorm/mul_1", "op": "Mul", "input": ["StatefulPartitionedCall/model_1/resnet_block_1/MirrorPad_1", "StatefulPartitionedCall/model_1/resnet_block_1/instance_normalization_8/batchnorm/mul"], "attr": {"T": {"type": "DT_FLOAT"}}}, {"name": "StatefulPartitionedCall/model_1/resnet_block_1/instance_normalization_8/batchnorm/sub", "op": "Sub", "input": ["StatefulPartitionedCall/model_1/resnet_block_1/instance_normalization_8/Reshape_1", "StatefulPartitionedCall/model_1/resnet_block_1/instance_normalization_8/batchnorm/mul_2"], "attr": {"T": {"type": "DT_FLOAT"}}}, {"name": "StatefulPartitionedCall/model_1/resnet_block_1/instance_normalization_8/batchnorm/add_1", "op": "AddV2", "input": ["StatefulPartitionedCall/model_1/resnet_block_1/instance_normalization_8/batchnorm/mul_1", "StatefulPartitionedCall/model_1/resnet_block_1/instance_normalization_8/batchnorm/sub"], "attr": {"T": {"type": "DT_FLOAT"}}}, {"name": "StatefulPartitionedCall/model_1/resnet_block_1/add", "op": "AddV2", "input": ["StatefulPartitionedCall/model_1/resnet_block/add", "StatefulPartitionedCall/model_1/resnet_block_1/instance_normalization_8/batchnorm/add_1"], "attr": {"T": {"type": "DT_FLOAT"}}}, {"name": "StatefulPartitionedCall/model_1/resnet_block_2/conv2d_9/BiasAdd", "op": "_FusedConv2D", "input": ["StatefulPartitionedCall/model_1/resnet_block_1/add", "StatefulPartitionedCall/model_1/resnet_block_2/conv2d_9/Conv2D/ReadVariableOp", "StatefulPartitionedCall/model_1/resnet_block_2/conv2d_9/BiasAdd/ReadVariableOp"], "device": "/device:CPU:0", "attr": {"dilations": {"list": {"i": ["1", "1", "1", "1"]}}, "fused_ops": {"list": {"s": ["Qmlhc0FkZA=="]}}, "data_format": {"s": "TkhXQw=="}, "T": {"type": "DT_FLOAT"}, "epsilon": {"f": 0.0}, "use_cudnn_on_gpu": {"b": true}, "padding": {"s": "VkFMSUQ="}, "explicit_paddings": {"list": {}}, "strides": {"list": {"i": ["1", "1", "1", "1"]}}, "num_args": {"i": "1"}}}, {"name": "StatefulPartitionedCall/model_1/resnet_block_2/MirrorPad", "op": "MirrorPad", "input": ["StatefulPartitionedCall/model_1/resnet_block_2/conv2d_9/BiasAdd", "unknown_40"], "attr": {"mode": {"s": "UkVGTEVDVA=="}, "Tpaddings": {"type": "DT_INT32"}, "T": {"type": "DT_FLOAT"}}}, {"name": "StatefulPartitionedCall/model_1/resnet_block_2/instance_normalization_9/moments/mean", "op": "Mean", "input": ["StatefulPartitionedCall/model_1/resnet_block_2/MirrorPad", "StatefulPartitionedCall/model_1/resnet_block_2/instance_normalization_9/moments/mean/reduction_indices"], "attr": {"keep_dims": {"b": true}, "Tidx": {"type": "DT_INT32"}, "T": {"type": "DT_FLOAT"}}}, {"name": "StatefulPartitionedCall/model_1/resnet_block_2/instance_normalization_9/moments/SquaredDifference", "op": "SquaredDifference", "input": ["StatefulPartitionedCall/model_1/resnet_block_2/MirrorPad", "StatefulPartitionedCall/model_1/resnet_block_2/instance_normalization_9/moments/mean"], "attr": {"T": {"type": "DT_FLOAT"}}}, {"name": "StatefulPartitionedCall/model_1/resnet_block_2/instance_normalization_9/moments/variance", "op": "Mean", "input": ["StatefulPartitionedCall/model_1/resnet_block_2/instance_normalization_9/moments/SquaredDifference", "StatefulPartitionedCall/model_1/resnet_block_2/instance_normalization_9/moments/variance/reduction_indices"], "attr": {"Tidx": {"type": "DT_INT32"}, "keep_dims": {"b": true}, "T": {"type": "DT_FLOAT"}}}, {"name": "StatefulPartitionedCall/model_1/resnet_block_2/instance_normalization_9/batchnorm/add", "op": "AddV2", "input": ["StatefulPartitionedCall/model_1/resnet_block_2/instance_normalization_9/moments/variance", "StatefulPartitionedCall/model_1/resnet_block_2/instance_normalization_9/batchnorm/add/y"], "attr": {"T": {"type": "DT_FLOAT"}}}, {"name": "StatefulPartitionedCall/model_1/resnet_block_2/instance_normalization_9/batchnorm/Rsqrt", "op": "Rsqrt", "input": ["StatefulPartitionedCall/model_1/resnet_block_2/instance_normalization_9/batchnorm/add"], "attr": {"T": {"type": "DT_FLOAT"}}}, {"name": "StatefulPartitionedCall/model_1/resnet_block_2/instance_normalization_9/batchnorm/mul", "op": "Mul", "input": ["StatefulPartitionedCall/model_1/resnet_block_2/instance_normalization_9/batchnorm/Rsqrt", "StatefulPartitionedCall/model_1/resnet_block_2/instance_normalization_9/Reshape"], "attr": {"T": {"type": "DT_FLOAT"}}}, {"name": "StatefulPartitionedCall/model_1/resnet_block_2/instance_normalization_9/batchnorm/mul_2", "op": "Mul", "input": ["StatefulPartitionedCall/model_1/resnet_block_2/instance_normalization_9/moments/mean", "StatefulPartitionedCall/model_1/resnet_block_2/instance_normalization_9/batchnorm/mul"], "attr": {"T": {"type": "DT_FLOAT"}}}, {"name": "StatefulPartitionedCall/model_1/resnet_block_2/instance_normalization_9/batchnorm/mul_1", "op": "Mul", "input": ["StatefulPartitionedCall/model_1/resnet_block_2/MirrorPad", "StatefulPartitionedCall/model_1/resnet_block_2/instance_normalization_9/batchnorm/mul"], "attr": {"T": {"type": "DT_FLOAT"}}}, {"name": "StatefulPartitionedCall/model_1/resnet_block_2/instance_normalization_9/batchnorm/sub", "op": "Sub", "input": ["StatefulPartitionedCall/model_1/resnet_block_2/instance_normalization_9/Reshape_1", "StatefulPartitionedCall/model_1/resnet_block_2/instance_normalization_9/batchnorm/mul_2"], "attr": {"T": {"type": "DT_FLOAT"}}}, {"name": "StatefulPartitionedCall/model_1/resnet_block_2/instance_normalization_9/batchnorm/add_1", "op": "AddV2", "input": ["StatefulPartitionedCall/model_1/resnet_block_2/instance_normalization_9/batchnorm/mul_1", "StatefulPartitionedCall/model_1/resnet_block_2/instance_normalization_9/batchnorm/sub"], "attr": {"T": {"type": "DT_FLOAT"}}}, {"name": "StatefulPartitionedCall/model_1/resnet_block_2/re_lu_7/Relu", "op": "Relu", "input": ["StatefulPartitionedCall/model_1/resnet_block_2/instance_normalization_9/batchnorm/add_1"], "attr": {"T": {"type": "DT_FLOAT"}}}, {"name": "StatefulPartitionedCall/model_1/resnet_block_2/conv2d_10/BiasAdd", "op": "_FusedConv2D", "input": ["StatefulPartitionedCall/model_1/resnet_block_2/re_lu_7/Relu", "StatefulPartitionedCall/model_1/resnet_block_2/conv2d_10/Conv2D/ReadVariableOp", "StatefulPartitionedCall/model_1/resnet_block_2/conv2d_10/BiasAdd/ReadVariableOp"], "device": "/device:CPU:0", "attr": {"explicit_paddings": {"list": {}}, "num_args": {"i": "1"}, "data_format": {"s": "TkhXQw=="}, "use_cudnn_on_gpu": {"b": true}, "padding": {"s": "VkFMSUQ="}, "T": {"type": "DT_FLOAT"}, "strides": {"list": {"i": ["1", "1", "1", "1"]}}, "fused_ops": {"list": {"s": ["Qmlhc0FkZA=="]}}, "epsilon": {"f": 0.0}, "dilations": {"list": {"i": ["1", "1", "1", "1"]}}}}, {"name": "StatefulPartitionedCall/model_1/resnet_block_2/MirrorPad_1", "op": "MirrorPad", "input": ["StatefulPartitionedCall/model_1/resnet_block_2/conv2d_10/BiasAdd", "unknown_40"], "attr": {"Tpaddings": {"type": "DT_INT32"}, "T": {"type": "DT_FLOAT"}, "mode": {"s": "UkVGTEVDVA=="}}}, {"name": "StatefulPartitionedCall/model_1/resnet_block_2/instance_normalization_10/moments/mean", "op": "Mean", "input": ["StatefulPartitionedCall/model_1/resnet_block_2/MirrorPad_1", "StatefulPartitionedCall/model_1/resnet_block_2/instance_normalization_10/moments/mean/reduction_indices"], "attr": {"T": {"type": "DT_FLOAT"}, "keep_dims": {"b": true}, "Tidx": {"type": "DT_INT32"}}}, {"name": "StatefulPartitionedCall/model_1/resnet_block_2/instance_normalization_10/moments/SquaredDifference", "op": "SquaredDifference", "input": ["StatefulPartitionedCall/model_1/resnet_block_2/MirrorPad_1", "StatefulPartitionedCall/model_1/resnet_block_2/instance_normalization_10/moments/mean"], "attr": {"T": {"type": "DT_FLOAT"}}}, {"name": "StatefulPartitionedCall/model_1/resnet_block_2/instance_normalization_10/moments/variance", "op": "Mean", "input": ["StatefulPartitionedCall/model_1/resnet_block_2/instance_normalization_10/moments/SquaredDifference", "StatefulPartitionedCall/model_1/resnet_block_2/instance_normalization_10/moments/variance/reduction_indices"], "attr": {"keep_dims": {"b": true}, "Tidx": {"type": "DT_INT32"}, "T": {"type": "DT_FLOAT"}}}, {"name": "StatefulPartitionedCall/model_1/resnet_block_2/instance_normalization_10/batchnorm/add", "op": "AddV2", "input": ["StatefulPartitionedCall/model_1/resnet_block_2/instance_normalization_10/moments/variance", "StatefulPartitionedCall/model_1/resnet_block_2/instance_normalization_10/batchnorm/add/y"], "attr": {"T": {"type": "DT_FLOAT"}}}, {"name": "StatefulPartitionedCall/model_1/resnet_block_2/instance_normalization_10/batchnorm/Rsqrt", "op": "Rsqrt", "input": ["StatefulPartitionedCall/model_1/resnet_block_2/instance_normalization_10/batchnorm/add"], "attr": {"T": {"type": "DT_FLOAT"}}}, {"name": "StatefulPartitionedCall/model_1/resnet_block_2/instance_normalization_10/batchnorm/mul", "op": "Mul", "input": ["StatefulPartitionedCall/model_1/resnet_block_2/instance_normalization_10/batchnorm/Rsqrt", "StatefulPartitionedCall/model_1/resnet_block_2/instance_normalization_10/Reshape"], "attr": {"T": {"type": "DT_FLOAT"}}}, {"name": "StatefulPartitionedCall/model_1/resnet_block_2/instance_normalization_10/batchnorm/mul_2", "op": "Mul", "input": ["StatefulPartitionedCall/model_1/resnet_block_2/instance_normalization_10/moments/mean", "StatefulPartitionedCall/model_1/resnet_block_2/instance_normalization_10/batchnorm/mul"], "attr": {"T": {"type": "DT_FLOAT"}}}, {"name": "StatefulPartitionedCall/model_1/resnet_block_2/instance_normalization_10/batchnorm/mul_1", "op": "Mul", "input": ["StatefulPartitionedCall/model_1/resnet_block_2/MirrorPad_1", "StatefulPartitionedCall/model_1/resnet_block_2/instance_normalization_10/batchnorm/mul"], "attr": {"T": {"type": "DT_FLOAT"}}}, {"name": "StatefulPartitionedCall/model_1/resnet_block_2/instance_normalization_10/batchnorm/sub", "op": "Sub", "input": ["StatefulPartitionedCall/model_1/resnet_block_2/instance_normalization_10/Reshape_1", "StatefulPartitionedCall/model_1/resnet_block_2/instance_normalization_10/batchnorm/mul_2"], "attr": {"T": {"type": "DT_FLOAT"}}}, {"name": "StatefulPartitionedCall/model_1/resnet_block_2/instance_normalization_10/batchnorm/add_1", "op": "AddV2", "input": ["StatefulPartitionedCall/model_1/resnet_block_2/instance_normalization_10/batchnorm/mul_1", "StatefulPartitionedCall/model_1/resnet_block_2/instance_normalization_10/batchnorm/sub"], "attr": {"T": {"type": "DT_FLOAT"}}}, {"name": "StatefulPartitionedCall/model_1/resnet_block_2/add", "op": "AddV2", "input": ["StatefulPartitionedCall/model_1/resnet_block_1/add", "StatefulPartitionedCall/model_1/resnet_block_2/instance_normalization_10/batchnorm/add_1"], "attr": {"T": {"type": "DT_FLOAT"}}}, {"name": "StatefulPartitionedCall/model_1/resnet_block_3/conv2d_11/BiasAdd", "op": "_FusedConv2D", "input": ["StatefulPartitionedCall/model_1/resnet_block_2/add", "StatefulPartitionedCall/model_1/resnet_block_3/conv2d_11/Conv2D/ReadVariableOp", "StatefulPartitionedCall/model_1/resnet_block_3/conv2d_11/BiasAdd/ReadVariableOp"], "device": "/device:CPU:0", "attr": {"strides": {"list": {"i": ["1", "1", "1", "1"]}}, "data_format": {"s": "TkhXQw=="}, "padding": {"s": "VkFMSUQ="}, "epsilon": {"f": 0.0}, "num_args": {"i": "1"}, "dilations": {"list": {"i": ["1", "1", "1", "1"]}}, "use_cudnn_on_gpu": {"b": true}, "explicit_paddings": {"list": {}}, "T": {"type": "DT_FLOAT"}, "fused_ops": {"list": {"s": ["Qmlhc0FkZA=="]}}}}, {"name": "StatefulPartitionedCall/model_1/resnet_block_3/MirrorPad", "op": "MirrorPad", "input": ["StatefulPartitionedCall/model_1/resnet_block_3/conv2d_11/BiasAdd", "unknown_49"], "attr": {"Tpaddings": {"type": "DT_INT32"}, "T": {"type": "DT_FLOAT"}, "mode": {"s": "UkVGTEVDVA=="}}}, {"name": "StatefulPartitionedCall/model_1/resnet_block_3/instance_normalization_11/moments/mean", "op": "Mean", "input": ["StatefulPartitionedCall/model_1/resnet_block_3/MirrorPad", "StatefulPartitionedCall/model_1/resnet_block_3/instance_normalization_11/moments/mean/reduction_indices"], "attr": {"Tidx": {"type": "DT_INT32"}, "T": {"type": "DT_FLOAT"}, "keep_dims": {"b": true}}}, {"name": "StatefulPartitionedCall/model_1/resnet_block_3/instance_normalization_11/moments/SquaredDifference", "op": "SquaredDifference", "input": ["StatefulPartitionedCall/model_1/resnet_block_3/MirrorPad", "StatefulPartitionedCall/model_1/resnet_block_3/instance_normalization_11/moments/mean"], "attr": {"T": {"type": "DT_FLOAT"}}}, {"name": "StatefulPartitionedCall/model_1/resnet_block_3/instance_normalization_11/moments/variance", "op": "Mean", "input": ["StatefulPartitionedCall/model_1/resnet_block_3/instance_normalization_11/moments/SquaredDifference", "StatefulPartitionedCall/model_1/resnet_block_3/instance_normalization_11/moments/variance/reduction_indices"], "attr": {"T": {"type": "DT_FLOAT"}, "keep_dims": {"b": true}, "Tidx": {"type": "DT_INT32"}}}, {"name": "StatefulPartitionedCall/model_1/resnet_block_3/instance_normalization_11/batchnorm/add", "op": "AddV2", "input": ["StatefulPartitionedCall/model_1/resnet_block_3/instance_normalization_11/moments/variance", "StatefulPartitionedCall/model_1/resnet_block_3/instance_normalization_11/batchnorm/add/y"], "attr": {"T": {"type": "DT_FLOAT"}}}, {"name": "StatefulPartitionedCall/model_1/resnet_block_3/instance_normalization_11/batchnorm/Rsqrt", "op": "Rsqrt", "input": ["StatefulPartitionedCall/model_1/resnet_block_3/instance_normalization_11/batchnorm/add"], "attr": {"T": {"type": "DT_FLOAT"}}}, {"name": "StatefulPartitionedCall/model_1/resnet_block_3/instance_normalization_11/batchnorm/mul", "op": "Mul", "input": ["StatefulPartitionedCall/model_1/resnet_block_3/instance_normalization_11/batchnorm/Rsqrt", "StatefulPartitionedCall/model_1/resnet_block_3/instance_normalization_11/Reshape"], "attr": {"T": {"type": "DT_FLOAT"}}}, {"name": "StatefulPartitionedCall/model_1/resnet_block_3/instance_normalization_11/batchnorm/mul_2", "op": "Mul", "input": ["StatefulPartitionedCall/model_1/resnet_block_3/instance_normalization_11/moments/mean", "StatefulPartitionedCall/model_1/resnet_block_3/instance_normalization_11/batchnorm/mul"], "attr": {"T": {"type": "DT_FLOAT"}}}, {"name": "StatefulPartitionedCall/model_1/resnet_block_3/instance_normalization_11/batchnorm/mul_1", "op": "Mul", "input": ["StatefulPartitionedCall/model_1/resnet_block_3/MirrorPad", "StatefulPartitionedCall/model_1/resnet_block_3/instance_normalization_11/batchnorm/mul"], "attr": {"T": {"type": "DT_FLOAT"}}}, {"name": "StatefulPartitionedCall/model_1/resnet_block_3/instance_normalization_11/batchnorm/sub", "op": "Sub", "input": ["StatefulPartitionedCall/model_1/resnet_block_3/instance_normalization_11/Reshape_1", "StatefulPartitionedCall/model_1/resnet_block_3/instance_normalization_11/batchnorm/mul_2"], "attr": {"T": {"type": "DT_FLOAT"}}}, {"name": "StatefulPartitionedCall/model_1/resnet_block_3/instance_normalization_11/batchnorm/add_1", "op": "AddV2", "input": ["StatefulPartitionedCall/model_1/resnet_block_3/instance_normalization_11/batchnorm/mul_1", "StatefulPartitionedCall/model_1/resnet_block_3/instance_normalization_11/batchnorm/sub"], "attr": {"T": {"type": "DT_FLOAT"}}}, {"name": "StatefulPartitionedCall/model_1/resnet_block_3/re_lu_8/Relu", "op": "Relu", "input": ["StatefulPartitionedCall/model_1/resnet_block_3/instance_normalization_11/batchnorm/add_1"], "attr": {"T": {"type": "DT_FLOAT"}}}, {"name": "StatefulPartitionedCall/model_1/resnet_block_3/conv2d_12/BiasAdd", "op": "_FusedConv2D", "input": ["StatefulPartitionedCall/model_1/resnet_block_3/re_lu_8/Relu", "StatefulPartitionedCall/model_1/resnet_block_3/conv2d_12/Conv2D/ReadVariableOp", "StatefulPartitionedCall/model_1/resnet_block_3/conv2d_12/BiasAdd/ReadVariableOp"], "device": "/device:CPU:0", "attr": {"strides": {"list": {"i": ["1", "1", "1", "1"]}}, "epsilon": {"f": 0.0}, "T": {"type": "DT_FLOAT"}, "num_args": {"i": "1"}, "fused_ops": {"list": {"s": ["Qmlhc0FkZA=="]}}, "data_format": {"s": "TkhXQw=="}, "explicit_paddings": {"list": {}}, "use_cudnn_on_gpu": {"b": true}, "padding": {"s": "VkFMSUQ="}, "dilations": {"list": {"i": ["1", "1", "1", "1"]}}}}, {"name": "StatefulPartitionedCall/model_1/resnet_block_3/MirrorPad_1", "op": "MirrorPad", "input": ["StatefulPartitionedCall/model_1/resnet_block_3/conv2d_12/BiasAdd", "unknown_49"], "attr": {"mode": {"s": "UkVGTEVDVA=="}, "T": {"type": "DT_FLOAT"}, "Tpaddings": {"type": "DT_INT32"}}}, {"name": "StatefulPartitionedCall/model_1/resnet_block_3/instance_normalization_12/moments/mean", "op": "Mean", "input": ["StatefulPartitionedCall/model_1/resnet_block_3/MirrorPad_1", "StatefulPartitionedCall/model_1/resnet_block_3/instance_normalization_12/moments/mean/reduction_indices"], "attr": {"T": {"type": "DT_FLOAT"}, "Tidx": {"type": "DT_INT32"}, "keep_dims": {"b": true}}}, {"name": "StatefulPartitionedCall/model_1/resnet_block_3/instance_normalization_12/moments/SquaredDifference", "op": "SquaredDifference", "input": ["StatefulPartitionedCall/model_1/resnet_block_3/MirrorPad_1", "StatefulPartitionedCall/model_1/resnet_block_3/instance_normalization_12/moments/mean"], "attr": {"T": {"type": "DT_FLOAT"}}}, {"name": "StatefulPartitionedCall/model_1/resnet_block_3/instance_normalization_12/moments/variance", "op": "Mean", "input": ["StatefulPartitionedCall/model_1/resnet_block_3/instance_normalization_12/moments/SquaredDifference", "StatefulPartitionedCall/model_1/resnet_block_3/instance_normalization_12/moments/variance/reduction_indices"], "attr": {"Tidx": {"type": "DT_INT32"}, "T": {"type": "DT_FLOAT"}, "keep_dims": {"b": true}}}, {"name": "StatefulPartitionedCall/model_1/resnet_block_3/instance_normalization_12/batchnorm/add", "op": "AddV2", "input": ["StatefulPartitionedCall/model_1/resnet_block_3/instance_normalization_12/moments/variance", "StatefulPartitionedCall/model_1/resnet_block_3/instance_normalization_12/batchnorm/add/y"], "attr": {"T": {"type": "DT_FLOAT"}}}, {"name": "StatefulPartitionedCall/model_1/resnet_block_3/instance_normalization_12/batchnorm/Rsqrt", "op": "Rsqrt", "input": ["StatefulPartitionedCall/model_1/resnet_block_3/instance_normalization_12/batchnorm/add"], "attr": {"T": {"type": "DT_FLOAT"}}}, {"name": "StatefulPartitionedCall/model_1/resnet_block_3/instance_normalization_12/batchnorm/mul", "op": "Mul", "input": ["StatefulPartitionedCall/model_1/resnet_block_3/instance_normalization_12/batchnorm/Rsqrt", "StatefulPartitionedCall/model_1/resnet_block_3/instance_normalization_12/Reshape"], "attr": {"T": {"type": "DT_FLOAT"}}}, {"name": "StatefulPartitionedCall/model_1/resnet_block_3/instance_normalization_12/batchnorm/mul_2", "op": "Mul", "input": ["StatefulPartitionedCall/model_1/resnet_block_3/instance_normalization_12/moments/mean", "StatefulPartitionedCall/model_1/resnet_block_3/instance_normalization_12/batchnorm/mul"], "attr": {"T": {"type": "DT_FLOAT"}}}, {"name": "StatefulPartitionedCall/model_1/resnet_block_3/instance_normalization_12/batchnorm/mul_1", "op": "Mul", "input": ["StatefulPartitionedCall/model_1/resnet_block_3/MirrorPad_1", "StatefulPartitionedCall/model_1/resnet_block_3/instance_normalization_12/batchnorm/mul"], "attr": {"T": {"type": "DT_FLOAT"}}}, {"name": "StatefulPartitionedCall/model_1/resnet_block_3/instance_normalization_12/batchnorm/sub", "op": "Sub", "input": ["StatefulPartitionedCall/model_1/resnet_block_3/instance_normalization_12/Reshape_1", "StatefulPartitionedCall/model_1/resnet_block_3/instance_normalization_12/batchnorm/mul_2"], "attr": {"T": {"type": "DT_FLOAT"}}}, {"name": "StatefulPartitionedCall/model_1/resnet_block_3/instance_normalization_12/batchnorm/add_1", "op": "AddV2", "input": ["StatefulPartitionedCall/model_1/resnet_block_3/instance_normalization_12/batchnorm/mul_1", "StatefulPartitionedCall/model_1/resnet_block_3/instance_normalization_12/batchnorm/sub"], "attr": {"T": {"type": "DT_FLOAT"}}}, {"name": "StatefulPartitionedCall/model_1/resnet_block_3/add", "op": "AddV2", "input": ["StatefulPartitionedCall/model_1/resnet_block_2/add", "StatefulPartitionedCall/model_1/resnet_block_3/instance_normalization_12/batchnorm/add_1"], "attr": {"T": {"type": "DT_FLOAT"}}}, {"name": "StatefulPartitionedCall/model_1/resnet_block_4/conv2d_13/BiasAdd", "op": "_FusedConv2D", "input": ["StatefulPartitionedCall/model_1/resnet_block_3/add", "StatefulPartitionedCall/model_1/resnet_block_4/conv2d_13/Conv2D/ReadVariableOp", "StatefulPartitionedCall/model_1/resnet_block_4/conv2d_13/BiasAdd/ReadVariableOp"], "device": "/device:CPU:0", "attr": {"padding": {"s": "VkFMSUQ="}, "explicit_paddings": {"list": {}}, "use_cudnn_on_gpu": {"b": true}, "num_args": {"i": "1"}, "T": {"type": "DT_FLOAT"}, "epsilon": {"f": 0.0}, "data_format": {"s": "TkhXQw=="}, "dilations": {"list": {"i": ["1", "1", "1", "1"]}}, "fused_ops": {"list": {"s": ["Qmlhc0FkZA=="]}}, "strides": {"list": {"i": ["1", "1", "1", "1"]}}}}, {"name": "StatefulPartitionedCall/model_1/resnet_block_4/MirrorPad", "op": "MirrorPad", "input": ["StatefulPartitionedCall/model_1/resnet_block_4/conv2d_13/BiasAdd", "unknown_58"], "attr": {"T": {"type": "DT_FLOAT"}, "mode": {"s": "UkVGTEVDVA=="}, "Tpaddings": {"type": "DT_INT32"}}}, {"name": "StatefulPartitionedCall/model_1/resnet_block_4/instance_normalization_13/moments/mean", "op": "Mean", "input": ["StatefulPartitionedCall/model_1/resnet_block_4/MirrorPad", "StatefulPartitionedCall/model_1/resnet_block_4/instance_normalization_13/moments/mean/reduction_indices"], "attr": {"keep_dims": {"b": true}, "T": {"type": "DT_FLOAT"}, "Tidx": {"type": "DT_INT32"}}}, {"name": "StatefulPartitionedCall/model_1/resnet_block_4/instance_normalization_13/moments/SquaredDifference", "op": "SquaredDifference", "input": ["StatefulPartitionedCall/model_1/resnet_block_4/MirrorPad", "StatefulPartitionedCall/model_1/resnet_block_4/instance_normalization_13/moments/mean"], "attr": {"T": {"type": "DT_FLOAT"}}}, {"name": "StatefulPartitionedCall/model_1/resnet_block_4/instance_normalization_13/moments/variance", "op": "Mean", "input": ["StatefulPartitionedCall/model_1/resnet_block_4/instance_normalization_13/moments/SquaredDifference", "StatefulPartitionedCall/model_1/resnet_block_4/instance_normalization_13/moments/variance/reduction_indices"], "attr": {"keep_dims": {"b": true}, "T": {"type": "DT_FLOAT"}, "Tidx": {"type": "DT_INT32"}}}, {"name": "StatefulPartitionedCall/model_1/resnet_block_4/instance_normalization_13/batchnorm/add", "op": "AddV2", "input": ["StatefulPartitionedCall/model_1/resnet_block_4/instance_normalization_13/moments/variance", "StatefulPartitionedCall/model_1/resnet_block_4/instance_normalization_13/batchnorm/add/y"], "attr": {"T": {"type": "DT_FLOAT"}}}, {"name": "StatefulPartitionedCall/model_1/resnet_block_4/instance_normalization_13/batchnorm/Rsqrt", "op": "Rsqrt", "input": ["StatefulPartitionedCall/model_1/resnet_block_4/instance_normalization_13/batchnorm/add"], "attr": {"T": {"type": "DT_FLOAT"}}}, {"name": "StatefulPartitionedCall/model_1/resnet_block_4/instance_normalization_13/batchnorm/mul", "op": "Mul", "input": ["StatefulPartitionedCall/model_1/resnet_block_4/instance_normalization_13/batchnorm/Rsqrt", "StatefulPartitionedCall/model_1/resnet_block_4/instance_normalization_13/Reshape"], "attr": {"T": {"type": "DT_FLOAT"}}}, {"name": "StatefulPartitionedCall/model_1/resnet_block_4/instance_normalization_13/batchnorm/mul_2", "op": "Mul", "input": ["StatefulPartitionedCall/model_1/resnet_block_4/instance_normalization_13/moments/mean", "StatefulPartitionedCall/model_1/resnet_block_4/instance_normalization_13/batchnorm/mul"], "attr": {"T": {"type": "DT_FLOAT"}}}, {"name": "StatefulPartitionedCall/model_1/resnet_block_4/instance_normalization_13/batchnorm/mul_1", "op": "Mul", "input": ["StatefulPartitionedCall/model_1/resnet_block_4/MirrorPad", "StatefulPartitionedCall/model_1/resnet_block_4/instance_normalization_13/batchnorm/mul"], "attr": {"T": {"type": "DT_FLOAT"}}}, {"name": "StatefulPartitionedCall/model_1/resnet_block_4/instance_normalization_13/batchnorm/sub", "op": "Sub", "input": ["StatefulPartitionedCall/model_1/resnet_block_4/instance_normalization_13/Reshape_1", "StatefulPartitionedCall/model_1/resnet_block_4/instance_normalization_13/batchnorm/mul_2"], "attr": {"T": {"type": "DT_FLOAT"}}}, {"name": "StatefulPartitionedCall/model_1/resnet_block_4/instance_normalization_13/batchnorm/add_1", "op": "AddV2", "input": ["StatefulPartitionedCall/model_1/resnet_block_4/instance_normalization_13/batchnorm/mul_1", "StatefulPartitionedCall/model_1/resnet_block_4/instance_normalization_13/batchnorm/sub"], "attr": {"T": {"type": "DT_FLOAT"}}}, {"name": "StatefulPartitionedCall/model_1/resnet_block_4/re_lu_9/Relu", "op": "Relu", "input": ["StatefulPartitionedCall/model_1/resnet_block_4/instance_normalization_13/batchnorm/add_1"], "attr": {"T": {"type": "DT_FLOAT"}}}, {"name": "StatefulPartitionedCall/model_1/resnet_block_4/conv2d_14/BiasAdd", "op": "_FusedConv2D", "input": ["StatefulPartitionedCall/model_1/resnet_block_4/re_lu_9/Relu", "StatefulPartitionedCall/model_1/resnet_block_4/conv2d_14/Conv2D/ReadVariableOp", "StatefulPartitionedCall/model_1/resnet_block_4/conv2d_14/BiasAdd/ReadVariableOp"], "device": "/device:CPU:0", "attr": {"dilations": {"list": {"i": ["1", "1", "1", "1"]}}, "T": {"type": "DT_FLOAT"}, "num_args": {"i": "1"}, "fused_ops": {"list": {"s": ["Qmlhc0FkZA=="]}}, "padding": {"s": "VkFMSUQ="}, "data_format": {"s": "TkhXQw=="}, "strides": {"list": {"i": ["1", "1", "1", "1"]}}, "epsilon": {"f": 0.0}, "use_cudnn_on_gpu": {"b": true}, "explicit_paddings": {"list": {}}}}, {"name": "StatefulPartitionedCall/model_1/resnet_block_4/MirrorPad_1", "op": "MirrorPad", "input": ["StatefulPartitionedCall/model_1/resnet_block_4/conv2d_14/BiasAdd", "unknown_58"], "attr": {"mode": {"s": "UkVGTEVDVA=="}, "T": {"type": "DT_FLOAT"}, "Tpaddings": {"type": "DT_INT32"}}}, {"name": "StatefulPartitionedCall/model_1/resnet_block_4/instance_normalization_14/moments/mean", "op": "Mean", "input": ["StatefulPartitionedCall/model_1/resnet_block_4/MirrorPad_1", "StatefulPartitionedCall/model_1/resnet_block_4/instance_normalization_14/moments/mean/reduction_indices"], "attr": {"Tidx": {"type": "DT_INT32"}, "T": {"type": "DT_FLOAT"}, "keep_dims": {"b": true}}}, {"name": "StatefulPartitionedCall/model_1/resnet_block_4/instance_normalization_14/moments/SquaredDifference", "op": "SquaredDifference", "input": ["StatefulPartitionedCall/model_1/resnet_block_4/MirrorPad_1", "StatefulPartitionedCall/model_1/resnet_block_4/instance_normalization_14/moments/mean"], "attr": {"T": {"type": "DT_FLOAT"}}}, {"name": "StatefulPartitionedCall/model_1/resnet_block_4/instance_normalization_14/moments/variance", "op": "Mean", "input": ["StatefulPartitionedCall/model_1/resnet_block_4/instance_normalization_14/moments/SquaredDifference", "StatefulPartitionedCall/model_1/resnet_block_4/instance_normalization_14/moments/variance/reduction_indices"], "attr": {"T": {"type": "DT_FLOAT"}, "keep_dims": {"b": true}, "Tidx": {"type": "DT_INT32"}}}, {"name": "StatefulPartitionedCall/model_1/resnet_block_4/instance_normalization_14/batchnorm/add", "op": "AddV2", "input": ["StatefulPartitionedCall/model_1/resnet_block_4/instance_normalization_14/moments/variance", "StatefulPartitionedCall/model_1/resnet_block_4/instance_normalization_14/batchnorm/add/y"], "attr": {"T": {"type": "DT_FLOAT"}}}, {"name": "StatefulPartitionedCall/model_1/resnet_block_4/instance_normalization_14/batchnorm/Rsqrt", "op": "Rsqrt", "input": ["StatefulPartitionedCall/model_1/resnet_block_4/instance_normalization_14/batchnorm/add"], "attr": {"T": {"type": "DT_FLOAT"}}}, {"name": "StatefulPartitionedCall/model_1/resnet_block_4/instance_normalization_14/batchnorm/mul", "op": "Mul", "input": ["StatefulPartitionedCall/model_1/resnet_block_4/instance_normalization_14/batchnorm/Rsqrt", "StatefulPartitionedCall/model_1/resnet_block_4/instance_normalization_14/Reshape"], "attr": {"T": {"type": "DT_FLOAT"}}}, {"name": "StatefulPartitionedCall/model_1/resnet_block_4/instance_normalization_14/batchnorm/mul_2", "op": "Mul", "input": ["StatefulPartitionedCall/model_1/resnet_block_4/instance_normalization_14/moments/mean", "StatefulPartitionedCall/model_1/resnet_block_4/instance_normalization_14/batchnorm/mul"], "attr": {"T": {"type": "DT_FLOAT"}}}, {"name": "StatefulPartitionedCall/model_1/resnet_block_4/instance_normalization_14/batchnorm/mul_1", "op": "Mul", "input": ["StatefulPartitionedCall/model_1/resnet_block_4/MirrorPad_1", "StatefulPartitionedCall/model_1/resnet_block_4/instance_normalization_14/batchnorm/mul"], "attr": {"T": {"type": "DT_FLOAT"}}}, {"name": "StatefulPartitionedCall/model_1/resnet_block_4/instance_normalization_14/batchnorm/sub", "op": "Sub", "input": ["StatefulPartitionedCall/model_1/resnet_block_4/instance_normalization_14/Reshape_1", "StatefulPartitionedCall/model_1/resnet_block_4/instance_normalization_14/batchnorm/mul_2"], "attr": {"T": {"type": "DT_FLOAT"}}}, {"name": "StatefulPartitionedCall/model_1/resnet_block_4/instance_normalization_14/batchnorm/add_1", "op": "AddV2", "input": ["StatefulPartitionedCall/model_1/resnet_block_4/instance_normalization_14/batchnorm/mul_1", "StatefulPartitionedCall/model_1/resnet_block_4/instance_normalization_14/batchnorm/sub"], "attr": {"T": {"type": "DT_FLOAT"}}}, {"name": "StatefulPartitionedCall/model_1/resnet_block_4/add", "op": "AddV2", "input": ["StatefulPartitionedCall/model_1/resnet_block_3/add", "StatefulPartitionedCall/model_1/resnet_block_4/instance_normalization_14/batchnorm/add_1"], "attr": {"T": {"type": "DT_FLOAT"}}}, {"name": "StatefulPartitionedCall/model_1/resnet_block_5/conv2d_15/BiasAdd", "op": "_FusedConv2D", "input": ["StatefulPartitionedCall/model_1/resnet_block_4/add", "StatefulPartitionedCall/model_1/resnet_block_5/conv2d_15/Conv2D/ReadVariableOp", "StatefulPartitionedCall/model_1/resnet_block_5/conv2d_15/BiasAdd/ReadVariableOp"], "device": "/device:CPU:0", "attr": {"T": {"type": "DT_FLOAT"}, "strides": {"list": {"i": ["1", "1", "1", "1"]}}, "use_cudnn_on_gpu": {"b": true}, "explicit_paddings": {"list": {}}, "epsilon": {"f": 0.0}, "dilations": {"list": {"i": ["1", "1", "1", "1"]}}, "data_format": {"s": "TkhXQw=="}, "num_args": {"i": "1"}, "padding": {"s": "VkFMSUQ="}, "fused_ops": {"list": {"s": ["Qmlhc0FkZA=="]}}}}, {"name": "StatefulPartitionedCall/model_1/resnet_block_5/MirrorPad", "op": "MirrorPad", "input": ["StatefulPartitionedCall/model_1/resnet_block_5/conv2d_15/BiasAdd", "unknown_67"], "attr": {"T": {"type": "DT_FLOAT"}, "mode": {"s": "UkVGTEVDVA=="}, "Tpaddings": {"type": "DT_INT32"}}}, {"name": "StatefulPartitionedCall/model_1/resnet_block_5/instance_normalization_15/moments/mean", "op": "Mean", "input": ["StatefulPartitionedCall/model_1/resnet_block_5/MirrorPad", "StatefulPartitionedCall/model_1/resnet_block_5/instance_normalization_15/moments/mean/reduction_indices"], "attr": {"T": {"type": "DT_FLOAT"}, "Tidx": {"type": "DT_INT32"}, "keep_dims": {"b": true}}}, {"name": "StatefulPartitionedCall/model_1/resnet_block_5/instance_normalization_15/moments/SquaredDifference", "op": "SquaredDifference", "input": ["StatefulPartitionedCall/model_1/resnet_block_5/MirrorPad", "StatefulPartitionedCall/model_1/resnet_block_5/instance_normalization_15/moments/mean"], "attr": {"T": {"type": "DT_FLOAT"}}}, {"name": "StatefulPartitionedCall/model_1/resnet_block_5/instance_normalization_15/moments/variance", "op": "Mean", "input": ["StatefulPartitionedCall/model_1/resnet_block_5/instance_normalization_15/moments/SquaredDifference", "StatefulPartitionedCall/model_1/resnet_block_5/instance_normalization_15/moments/variance/reduction_indices"], "attr": {"keep_dims": {"b": true}, "Tidx": {"type": "DT_INT32"}, "T": {"type": "DT_FLOAT"}}}, {"name": "StatefulPartitionedCall/model_1/resnet_block_5/instance_normalization_15/batchnorm/add", "op": "AddV2", "input": ["StatefulPartitionedCall/model_1/resnet_block_5/instance_normalization_15/moments/variance", "StatefulPartitionedCall/model_1/resnet_block_5/instance_normalization_15/batchnorm/add/y"], "attr": {"T": {"type": "DT_FLOAT"}}}, {"name": "StatefulPartitionedCall/model_1/resnet_block_5/instance_normalization_15/batchnorm/Rsqrt", "op": "Rsqrt", "input": ["StatefulPartitionedCall/model_1/resnet_block_5/instance_normalization_15/batchnorm/add"], "attr": {"T": {"type": "DT_FLOAT"}}}, {"name": "StatefulPartitionedCall/model_1/resnet_block_5/instance_normalization_15/batchnorm/mul", "op": "Mul", "input": ["StatefulPartitionedCall/model_1/resnet_block_5/instance_normalization_15/batchnorm/Rsqrt", "StatefulPartitionedCall/model_1/resnet_block_5/instance_normalization_15/Reshape"], "attr": {"T": {"type": "DT_FLOAT"}}}, {"name": "StatefulPartitionedCall/model_1/resnet_block_5/instance_normalization_15/batchnorm/mul_2", "op": "Mul", "input": ["StatefulPartitionedCall/model_1/resnet_block_5/instance_normalization_15/moments/mean", "StatefulPartitionedCall/model_1/resnet_block_5/instance_normalization_15/batchnorm/mul"], "attr": {"T": {"type": "DT_FLOAT"}}}, {"name": "StatefulPartitionedCall/model_1/resnet_block_5/instance_normalization_15/batchnorm/mul_1", "op": "Mul", "input": ["StatefulPartitionedCall/model_1/resnet_block_5/MirrorPad", "StatefulPartitionedCall/model_1/resnet_block_5/instance_normalization_15/batchnorm/mul"], "attr": {"T": {"type": "DT_FLOAT"}}}, {"name": "StatefulPartitionedCall/model_1/resnet_block_5/instance_normalization_15/batchnorm/sub", "op": "Sub", "input": ["StatefulPartitionedCall/model_1/resnet_block_5/instance_normalization_15/Reshape_1", "StatefulPartitionedCall/model_1/resnet_block_5/instance_normalization_15/batchnorm/mul_2"], "attr": {"T": {"type": "DT_FLOAT"}}}, {"name": "StatefulPartitionedCall/model_1/resnet_block_5/instance_normalization_15/batchnorm/add_1", "op": "AddV2", "input": ["StatefulPartitionedCall/model_1/resnet_block_5/instance_normalization_15/batchnorm/mul_1", "StatefulPartitionedCall/model_1/resnet_block_5/instance_normalization_15/batchnorm/sub"], "attr": {"T": {"type": "DT_FLOAT"}}}, {"name": "StatefulPartitionedCall/model_1/resnet_block_5/re_lu_10/Relu", "op": "Relu", "input": ["StatefulPartitionedCall/model_1/resnet_block_5/instance_normalization_15/batchnorm/add_1"], "attr": {"T": {"type": "DT_FLOAT"}}}, {"name": "StatefulPartitionedCall/model_1/resnet_block_5/conv2d_16/BiasAdd", "op": "_FusedConv2D", "input": ["StatefulPartitionedCall/model_1/resnet_block_5/re_lu_10/Relu", "StatefulPartitionedCall/model_1/resnet_block_5/conv2d_16/Conv2D/ReadVariableOp", "StatefulPartitionedCall/model_1/resnet_block_5/conv2d_16/BiasAdd/ReadVariableOp"], "device": "/device:CPU:0", "attr": {"data_format": {"s": "TkhXQw=="}, "T": {"type": "DT_FLOAT"}, "epsilon": {"f": 0.0}, "strides": {"list": {"i": ["1", "1", "1", "1"]}}, "fused_ops": {"list": {"s": ["Qmlhc0FkZA=="]}}, "padding": {"s": "VkFMSUQ="}, "num_args": {"i": "1"}, "use_cudnn_on_gpu": {"b": true}, "dilations": {"list": {"i": ["1", "1", "1", "1"]}}, "explicit_paddings": {"list": {}}}}, {"name": "StatefulPartitionedCall/model_1/resnet_block_5/MirrorPad_1", "op": "MirrorPad", "input": ["StatefulPartitionedCall/model_1/resnet_block_5/conv2d_16/BiasAdd", "unknown_67"], "attr": {"mode": {"s": "UkVGTEVDVA=="}, "T": {"type": "DT_FLOAT"}, "Tpaddings": {"type": "DT_INT32"}}}, {"name": "StatefulPartitionedCall/model_1/resnet_block_5/instance_normalization_16/moments/mean", "op": "Mean", "input": ["StatefulPartitionedCall/model_1/resnet_block_5/MirrorPad_1", "StatefulPartitionedCall/model_1/resnet_block_5/instance_normalization_16/moments/mean/reduction_indices"], "attr": {"T": {"type": "DT_FLOAT"}, "Tidx": {"type": "DT_INT32"}, "keep_dims": {"b": true}}}, {"name": "StatefulPartitionedCall/model_1/resnet_block_5/instance_normalization_16/moments/SquaredDifference", "op": "SquaredDifference", "input": ["StatefulPartitionedCall/model_1/resnet_block_5/MirrorPad_1", "StatefulPartitionedCall/model_1/resnet_block_5/instance_normalization_16/moments/mean"], "attr": {"T": {"type": "DT_FLOAT"}}}, {"name": "StatefulPartitionedCall/model_1/resnet_block_5/instance_normalization_16/moments/variance", "op": "Mean", "input": ["StatefulPartitionedCall/model_1/resnet_block_5/instance_normalization_16/moments/SquaredDifference", "StatefulPartitionedCall/model_1/resnet_block_5/instance_normalization_16/moments/variance/reduction_indices"], "attr": {"T": {"type": "DT_FLOAT"}, "Tidx": {"type": "DT_INT32"}, "keep_dims": {"b": true}}}, {"name": "StatefulPartitionedCall/model_1/resnet_block_5/instance_normalization_16/batchnorm/add", "op": "AddV2", "input": ["StatefulPartitionedCall/model_1/resnet_block_5/instance_normalization_16/moments/variance", "StatefulPartitionedCall/model_1/resnet_block_5/instance_normalization_16/batchnorm/add/y"], "attr": {"T": {"type": "DT_FLOAT"}}}, {"name": "StatefulPartitionedCall/model_1/resnet_block_5/instance_normalization_16/batchnorm/Rsqrt", "op": "Rsqrt", "input": ["StatefulPartitionedCall/model_1/resnet_block_5/instance_normalization_16/batchnorm/add"], "attr": {"T": {"type": "DT_FLOAT"}}}, {"name": "StatefulPartitionedCall/model_1/resnet_block_5/instance_normalization_16/batchnorm/mul", "op": "Mul", "input": ["StatefulPartitionedCall/model_1/resnet_block_5/instance_normalization_16/batchnorm/Rsqrt", "StatefulPartitionedCall/model_1/resnet_block_5/instance_normalization_16/Reshape"], "attr": {"T": {"type": "DT_FLOAT"}}}, {"name": "StatefulPartitionedCall/model_1/resnet_block_5/instance_normalization_16/batchnorm/mul_2", "op": "Mul", "input": ["StatefulPartitionedCall/model_1/resnet_block_5/instance_normalization_16/moments/mean", "StatefulPartitionedCall/model_1/resnet_block_5/instance_normalization_16/batchnorm/mul"], "attr": {"T": {"type": "DT_FLOAT"}}}, {"name": "StatefulPartitionedCall/model_1/resnet_block_5/instance_normalization_16/batchnorm/mul_1", "op": "Mul", "input": ["StatefulPartitionedCall/model_1/resnet_block_5/MirrorPad_1", "StatefulPartitionedCall/model_1/resnet_block_5/instance_normalization_16/batchnorm/mul"], "attr": {"T": {"type": "DT_FLOAT"}}}, {"name": "StatefulPartitionedCall/model_1/resnet_block_5/instance_normalization_16/batchnorm/sub", "op": "Sub", "input": ["StatefulPartitionedCall/model_1/resnet_block_5/instance_normalization_16/Reshape_1", "StatefulPartitionedCall/model_1/resnet_block_5/instance_normalization_16/batchnorm/mul_2"], "attr": {"T": {"type": "DT_FLOAT"}}}, {"name": "StatefulPartitionedCall/model_1/resnet_block_5/instance_normalization_16/batchnorm/add_1", "op": "AddV2", "input": ["StatefulPartitionedCall/model_1/resnet_block_5/instance_normalization_16/batchnorm/mul_1", "StatefulPartitionedCall/model_1/resnet_block_5/instance_normalization_16/batchnorm/sub"], "attr": {"T": {"type": "DT_FLOAT"}}}, {"name": "StatefulPartitionedCall/model_1/resnet_block_5/add", "op": "AddV2", "input": ["StatefulPartitionedCall/model_1/resnet_block_4/add", "StatefulPartitionedCall/model_1/resnet_block_5/instance_normalization_16/batchnorm/add_1"], "attr": {"T": {"type": "DT_FLOAT"}}}, {"name": "StatefulPartitionedCall/model_1/resnet_block_6/conv2d_17/BiasAdd", "op": "_FusedConv2D", "input": ["StatefulPartitionedCall/model_1/resnet_block_5/add", "StatefulPartitionedCall/model_1/resnet_block_6/conv2d_17/Conv2D/ReadVariableOp", "StatefulPartitionedCall/model_1/resnet_block_6/conv2d_17/BiasAdd/ReadVariableOp"], "device": "/device:CPU:0", "attr": {"padding": {"s": "VkFMSUQ="}, "fused_ops": {"list": {"s": ["Qmlhc0FkZA=="]}}, "explicit_paddings": {"list": {}}, "data_format": {"s": "TkhXQw=="}, "strides": {"list": {"i": ["1", "1", "1", "1"]}}, "epsilon": {"f": 0.0}, "use_cudnn_on_gpu": {"b": true}, "dilations": {"list": {"i": ["1", "1", "1", "1"]}}, "num_args": {"i": "1"}, "T": {"type": "DT_FLOAT"}}}, {"name": "StatefulPartitionedCall/model_1/resnet_block_6/MirrorPad", "op": "MirrorPad", "input": ["StatefulPartitionedCall/model_1/resnet_block_6/conv2d_17/BiasAdd", "unknown_76"], "attr": {"Tpaddings": {"type": "DT_INT32"}, "mode": {"s": "UkVGTEVDVA=="}, "T": {"type": "DT_FLOAT"}}}, {"name": "StatefulPartitionedCall/model_1/resnet_block_6/instance_normalization_17/moments/mean", "op": "Mean", "input": ["StatefulPartitionedCall/model_1/resnet_block_6/MirrorPad", "StatefulPartitionedCall/model_1/resnet_block_6/instance_normalization_17/moments/mean/reduction_indices"], "attr": {"keep_dims": {"b": true}, "Tidx": {"type": "DT_INT32"}, "T": {"type": "DT_FLOAT"}}}, {"name": "StatefulPartitionedCall/model_1/resnet_block_6/instance_normalization_17/moments/SquaredDifference", "op": "SquaredDifference", "input": ["StatefulPartitionedCall/model_1/resnet_block_6/MirrorPad", "StatefulPartitionedCall/model_1/resnet_block_6/instance_normalization_17/moments/mean"], "attr": {"T": {"type": "DT_FLOAT"}}}, {"name": "StatefulPartitionedCall/model_1/resnet_block_6/instance_normalization_17/moments/variance", "op": "Mean", "input": ["StatefulPartitionedCall/model_1/resnet_block_6/instance_normalization_17/moments/SquaredDifference", "StatefulPartitionedCall/model_1/resnet_block_6/instance_normalization_17/moments/variance/reduction_indices"], "attr": {"T": {"type": "DT_FLOAT"}, "keep_dims": {"b": true}, "Tidx": {"type": "DT_INT32"}}}, {"name": "StatefulPartitionedCall/model_1/resnet_block_6/instance_normalization_17/batchnorm/add", "op": "AddV2", "input": ["StatefulPartitionedCall/model_1/resnet_block_6/instance_normalization_17/moments/variance", "StatefulPartitionedCall/model_1/resnet_block_6/instance_normalization_17/batchnorm/add/y"], "attr": {"T": {"type": "DT_FLOAT"}}}, {"name": "StatefulPartitionedCall/model_1/resnet_block_6/instance_normalization_17/batchnorm/Rsqrt", "op": "Rsqrt", "input": ["StatefulPartitionedCall/model_1/resnet_block_6/instance_normalization_17/batchnorm/add"], "attr": {"T": {"type": "DT_FLOAT"}}}, {"name": "StatefulPartitionedCall/model_1/resnet_block_6/instance_normalization_17/batchnorm/mul", "op": "Mul", "input": ["StatefulPartitionedCall/model_1/resnet_block_6/instance_normalization_17/batchnorm/Rsqrt", "StatefulPartitionedCall/model_1/resnet_block_6/instance_normalization_17/Reshape"], "attr": {"T": {"type": "DT_FLOAT"}}}, {"name": "StatefulPartitionedCall/model_1/resnet_block_6/instance_normalization_17/batchnorm/mul_2", "op": "Mul", "input": ["StatefulPartitionedCall/model_1/resnet_block_6/instance_normalization_17/moments/mean", "StatefulPartitionedCall/model_1/resnet_block_6/instance_normalization_17/batchnorm/mul"], "attr": {"T": {"type": "DT_FLOAT"}}}, {"name": "StatefulPartitionedCall/model_1/resnet_block_6/instance_normalization_17/batchnorm/mul_1", "op": "Mul", "input": ["StatefulPartitionedCall/model_1/resnet_block_6/MirrorPad", "StatefulPartitionedCall/model_1/resnet_block_6/instance_normalization_17/batchnorm/mul"], "attr": {"T": {"type": "DT_FLOAT"}}}, {"name": "StatefulPartitionedCall/model_1/resnet_block_6/instance_normalization_17/batchnorm/sub", "op": "Sub", "input": ["StatefulPartitionedCall/model_1/resnet_block_6/instance_normalization_17/Reshape_1", "StatefulPartitionedCall/model_1/resnet_block_6/instance_normalization_17/batchnorm/mul_2"], "attr": {"T": {"type": "DT_FLOAT"}}}, {"name": "StatefulPartitionedCall/model_1/resnet_block_6/instance_normalization_17/batchnorm/add_1", "op": "AddV2", "input": ["StatefulPartitionedCall/model_1/resnet_block_6/instance_normalization_17/batchnorm/mul_1", "StatefulPartitionedCall/model_1/resnet_block_6/instance_normalization_17/batchnorm/sub"], "attr": {"T": {"type": "DT_FLOAT"}}}, {"name": "StatefulPartitionedCall/model_1/resnet_block_6/re_lu_11/Relu", "op": "Relu", "input": ["StatefulPartitionedCall/model_1/resnet_block_6/instance_normalization_17/batchnorm/add_1"], "attr": {"T": {"type": "DT_FLOAT"}}}, {"name": "StatefulPartitionedCall/model_1/resnet_block_6/conv2d_18/BiasAdd", "op": "_FusedConv2D", "input": ["StatefulPartitionedCall/model_1/resnet_block_6/re_lu_11/Relu", "StatefulPartitionedCall/model_1/resnet_block_6/conv2d_18/Conv2D/ReadVariableOp", "StatefulPartitionedCall/model_1/resnet_block_6/conv2d_18/BiasAdd/ReadVariableOp"], "device": "/device:CPU:0", "attr": {"padding": {"s": "VkFMSUQ="}, "dilations": {"list": {"i": ["1", "1", "1", "1"]}}, "data_format": {"s": "TkhXQw=="}, "use_cudnn_on_gpu": {"b": true}, "epsilon": {"f": 0.0}, "explicit_paddings": {"list": {}}, "num_args": {"i": "1"}, "fused_ops": {"list": {"s": ["Qmlhc0FkZA=="]}}, "strides": {"list": {"i": ["1", "1", "1", "1"]}}, "T": {"type": "DT_FLOAT"}}}, {"name": "StatefulPartitionedCall/model_1/resnet_block_6/MirrorPad_1", "op": "MirrorPad", "input": ["StatefulPartitionedCall/model_1/resnet_block_6/conv2d_18/BiasAdd", "unknown_76"], "attr": {"mode": {"s": "UkVGTEVDVA=="}, "T": {"type": "DT_FLOAT"}, "Tpaddings": {"type": "DT_INT32"}}}, {"name": "StatefulPartitionedCall/model_1/resnet_block_6/instance_normalization_18/moments/mean", "op": "Mean", "input": ["StatefulPartitionedCall/model_1/resnet_block_6/MirrorPad_1", "StatefulPartitionedCall/model_1/resnet_block_6/instance_normalization_18/moments/mean/reduction_indices"], "attr": {"T": {"type": "DT_FLOAT"}, "keep_dims": {"b": true}, "Tidx": {"type": "DT_INT32"}}}, {"name": "StatefulPartitionedCall/model_1/resnet_block_6/instance_normalization_18/moments/SquaredDifference", "op": "SquaredDifference", "input": ["StatefulPartitionedCall/model_1/resnet_block_6/MirrorPad_1", "StatefulPartitionedCall/model_1/resnet_block_6/instance_normalization_18/moments/mean"], "attr": {"T": {"type": "DT_FLOAT"}}}, {"name": "StatefulPartitionedCall/model_1/resnet_block_6/instance_normalization_18/moments/variance", "op": "Mean", "input": ["StatefulPartitionedCall/model_1/resnet_block_6/instance_normalization_18/moments/SquaredDifference", "StatefulPartitionedCall/model_1/resnet_block_6/instance_normalization_18/moments/variance/reduction_indices"], "attr": {"Tidx": {"type": "DT_INT32"}, "keep_dims": {"b": true}, "T": {"type": "DT_FLOAT"}}}, {"name": "StatefulPartitionedCall/model_1/resnet_block_6/instance_normalization_18/batchnorm/add", "op": "AddV2", "input": ["StatefulPartitionedCall/model_1/resnet_block_6/instance_normalization_18/moments/variance", "StatefulPartitionedCall/model_1/resnet_block_6/instance_normalization_18/batchnorm/add/y"], "attr": {"T": {"type": "DT_FLOAT"}}}, {"name": "StatefulPartitionedCall/model_1/resnet_block_6/instance_normalization_18/batchnorm/Rsqrt", "op": "Rsqrt", "input": ["StatefulPartitionedCall/model_1/resnet_block_6/instance_normalization_18/batchnorm/add"], "attr": {"T": {"type": "DT_FLOAT"}}}, {"name": "StatefulPartitionedCall/model_1/resnet_block_6/instance_normalization_18/batchnorm/mul", "op": "Mul", "input": ["StatefulPartitionedCall/model_1/resnet_block_6/instance_normalization_18/batchnorm/Rsqrt", "StatefulPartitionedCall/model_1/resnet_block_6/instance_normalization_18/Reshape"], "attr": {"T": {"type": "DT_FLOAT"}}}, {"name": "StatefulPartitionedCall/model_1/resnet_block_6/instance_normalization_18/batchnorm/mul_2", "op": "Mul", "input": ["StatefulPartitionedCall/model_1/resnet_block_6/instance_normalization_18/moments/mean", "StatefulPartitionedCall/model_1/resnet_block_6/instance_normalization_18/batchnorm/mul"], "attr": {"T": {"type": "DT_FLOAT"}}}, {"name": "StatefulPartitionedCall/model_1/resnet_block_6/instance_normalization_18/batchnorm/mul_1", "op": "Mul", "input": ["StatefulPartitionedCall/model_1/resnet_block_6/MirrorPad_1", "StatefulPartitionedCall/model_1/resnet_block_6/instance_normalization_18/batchnorm/mul"], "attr": {"T": {"type": "DT_FLOAT"}}}, {"name": "StatefulPartitionedCall/model_1/resnet_block_6/instance_normalization_18/batchnorm/sub", "op": "Sub", "input": ["StatefulPartitionedCall/model_1/resnet_block_6/instance_normalization_18/Reshape_1", "StatefulPartitionedCall/model_1/resnet_block_6/instance_normalization_18/batchnorm/mul_2"], "attr": {"T": {"type": "DT_FLOAT"}}}, {"name": "StatefulPartitionedCall/model_1/resnet_block_6/instance_normalization_18/batchnorm/add_1", "op": "AddV2", "input": ["StatefulPartitionedCall/model_1/resnet_block_6/instance_normalization_18/batchnorm/mul_1", "StatefulPartitionedCall/model_1/resnet_block_6/instance_normalization_18/batchnorm/sub"], "attr": {"T": {"type": "DT_FLOAT"}}}, {"name": "StatefulPartitionedCall/model_1/resnet_block_6/add", "op": "AddV2", "input": ["StatefulPartitionedCall/model_1/resnet_block_5/add", "StatefulPartitionedCall/model_1/resnet_block_6/instance_normalization_18/batchnorm/add_1"], "attr": {"T": {"type": "DT_FLOAT"}}}, {"name": "StatefulPartitionedCall/model_1/resnet_block_7/conv2d_19/BiasAdd", "op": "_FusedConv2D", "input": ["StatefulPartitionedCall/model_1/resnet_block_6/add", "StatefulPartitionedCall/model_1/resnet_block_7/conv2d_19/Conv2D/ReadVariableOp", "StatefulPartitionedCall/model_1/resnet_block_7/conv2d_19/BiasAdd/ReadVariableOp"], "device": "/device:CPU:0", "attr": {"use_cudnn_on_gpu": {"b": true}, "padding": {"s": "VkFMSUQ="}, "num_args": {"i": "1"}, "epsilon": {"f": 0.0}, "data_format": {"s": "TkhXQw=="}, "strides": {"list": {"i": ["1", "1", "1", "1"]}}, "explicit_paddings": {"list": {}}, "dilations": {"list": {"i": ["1", "1", "1", "1"]}}, "T": {"type": "DT_FLOAT"}, "fused_ops": {"list": {"s": ["Qmlhc0FkZA=="]}}}}, {"name": "StatefulPartitionedCall/model_1/resnet_block_7/MirrorPad", "op": "MirrorPad", "input": ["StatefulPartitionedCall/model_1/resnet_block_7/conv2d_19/BiasAdd", "unknown_85"], "attr": {"Tpaddings": {"type": "DT_INT32"}, "mode": {"s": "UkVGTEVDVA=="}, "T": {"type": "DT_FLOAT"}}}, {"name": "StatefulPartitionedCall/model_1/resnet_block_7/instance_normalization_19/moments/mean", "op": "Mean", "input": ["StatefulPartitionedCall/model_1/resnet_block_7/MirrorPad", "StatefulPartitionedCall/model_1/resnet_block_7/instance_normalization_19/moments/mean/reduction_indices"], "attr": {"keep_dims": {"b": true}, "Tidx": {"type": "DT_INT32"}, "T": {"type": "DT_FLOAT"}}}, {"name": "StatefulPartitionedCall/model_1/resnet_block_7/instance_normalization_19/moments/SquaredDifference", "op": "SquaredDifference", "input": ["StatefulPartitionedCall/model_1/resnet_block_7/MirrorPad", "StatefulPartitionedCall/model_1/resnet_block_7/instance_normalization_19/moments/mean"], "attr": {"T": {"type": "DT_FLOAT"}}}, {"name": "StatefulPartitionedCall/model_1/resnet_block_7/instance_normalization_19/moments/variance", "op": "Mean", "input": ["StatefulPartitionedCall/model_1/resnet_block_7/instance_normalization_19/moments/SquaredDifference", "StatefulPartitionedCall/model_1/resnet_block_7/instance_normalization_19/moments/variance/reduction_indices"], "attr": {"keep_dims": {"b": true}, "T": {"type": "DT_FLOAT"}, "Tidx": {"type": "DT_INT32"}}}, {"name": "StatefulPartitionedCall/model_1/resnet_block_7/instance_normalization_19/batchnorm/add", "op": "AddV2", "input": ["StatefulPartitionedCall/model_1/resnet_block_7/instance_normalization_19/moments/variance", "StatefulPartitionedCall/model_1/resnet_block_7/instance_normalization_19/batchnorm/add/y"], "attr": {"T": {"type": "DT_FLOAT"}}}, {"name": "StatefulPartitionedCall/model_1/resnet_block_7/instance_normalization_19/batchnorm/Rsqrt", "op": "Rsqrt", "input": ["StatefulPartitionedCall/model_1/resnet_block_7/instance_normalization_19/batchnorm/add"], "attr": {"T": {"type": "DT_FLOAT"}}}, {"name": "StatefulPartitionedCall/model_1/resnet_block_7/instance_normalization_19/batchnorm/mul", "op": "Mul", "input": ["StatefulPartitionedCall/model_1/resnet_block_7/instance_normalization_19/batchnorm/Rsqrt", "StatefulPartitionedCall/model_1/resnet_block_7/instance_normalization_19/Reshape"], "attr": {"T": {"type": "DT_FLOAT"}}}, {"name": "StatefulPartitionedCall/model_1/resnet_block_7/instance_normalization_19/batchnorm/mul_2", "op": "Mul", "input": ["StatefulPartitionedCall/model_1/resnet_block_7/instance_normalization_19/moments/mean", "StatefulPartitionedCall/model_1/resnet_block_7/instance_normalization_19/batchnorm/mul"], "attr": {"T": {"type": "DT_FLOAT"}}}, {"name": "StatefulPartitionedCall/model_1/resnet_block_7/instance_normalization_19/batchnorm/mul_1", "op": "Mul", "input": ["StatefulPartitionedCall/model_1/resnet_block_7/MirrorPad", "StatefulPartitionedCall/model_1/resnet_block_7/instance_normalization_19/batchnorm/mul"], "attr": {"T": {"type": "DT_FLOAT"}}}, {"name": "StatefulPartitionedCall/model_1/resnet_block_7/instance_normalization_19/batchnorm/sub", "op": "Sub", "input": ["StatefulPartitionedCall/model_1/resnet_block_7/instance_normalization_19/Reshape_1", "StatefulPartitionedCall/model_1/resnet_block_7/instance_normalization_19/batchnorm/mul_2"], "attr": {"T": {"type": "DT_FLOAT"}}}, {"name": "StatefulPartitionedCall/model_1/resnet_block_7/instance_normalization_19/batchnorm/add_1", "op": "AddV2", "input": ["StatefulPartitionedCall/model_1/resnet_block_7/instance_normalization_19/batchnorm/mul_1", "StatefulPartitionedCall/model_1/resnet_block_7/instance_normalization_19/batchnorm/sub"], "attr": {"T": {"type": "DT_FLOAT"}}}, {"name": "StatefulPartitionedCall/model_1/resnet_block_7/re_lu_12/Relu", "op": "Relu", "input": ["StatefulPartitionedCall/model_1/resnet_block_7/instance_normalization_19/batchnorm/add_1"], "attr": {"T": {"type": "DT_FLOAT"}}}, {"name": "StatefulPartitionedCall/model_1/resnet_block_7/conv2d_20/BiasAdd", "op": "_FusedConv2D", "input": ["StatefulPartitionedCall/model_1/resnet_block_7/re_lu_12/Relu", "StatefulPartitionedCall/model_1/resnet_block_7/conv2d_20/Conv2D/ReadVariableOp", "StatefulPartitionedCall/model_1/resnet_block_7/conv2d_20/BiasAdd/ReadVariableOp"], "device": "/device:CPU:0", "attr": {"dilations": {"list": {"i": ["1", "1", "1", "1"]}}, "epsilon": {"f": 0.0}, "data_format": {"s": "TkhXQw=="}, "T": {"type": "DT_FLOAT"}, "explicit_paddings": {"list": {}}, "num_args": {"i": "1"}, "padding": {"s": "VkFMSUQ="}, "use_cudnn_on_gpu": {"b": true}, "strides": {"list": {"i": ["1", "1", "1", "1"]}}, "fused_ops": {"list": {"s": ["Qmlhc0FkZA=="]}}}}, {"name": "StatefulPartitionedCall/model_1/resnet_block_7/MirrorPad_1", "op": "MirrorPad", "input": ["StatefulPartitionedCall/model_1/resnet_block_7/conv2d_20/BiasAdd", "unknown_85"], "attr": {"T": {"type": "DT_FLOAT"}, "Tpaddings": {"type": "DT_INT32"}, "mode": {"s": "UkVGTEVDVA=="}}}, {"name": "StatefulPartitionedCall/model_1/resnet_block_7/instance_normalization_20/moments/mean", "op": "Mean", "input": ["StatefulPartitionedCall/model_1/resnet_block_7/MirrorPad_1", "StatefulPartitionedCall/model_1/resnet_block_7/instance_normalization_20/moments/mean/reduction_indices"], "attr": {"keep_dims": {"b": true}, "T": {"type": "DT_FLOAT"}, "Tidx": {"type": "DT_INT32"}}}, {"name": "StatefulPartitionedCall/model_1/resnet_block_7/instance_normalization_20/moments/SquaredDifference", "op": "SquaredDifference", "input": ["StatefulPartitionedCall/model_1/resnet_block_7/MirrorPad_1", "StatefulPartitionedCall/model_1/resnet_block_7/instance_normalization_20/moments/mean"], "attr": {"T": {"type": "DT_FLOAT"}}}, {"name": "StatefulPartitionedCall/model_1/resnet_block_7/instance_normalization_20/moments/variance", "op": "Mean", "input": ["StatefulPartitionedCall/model_1/resnet_block_7/instance_normalization_20/moments/SquaredDifference", "StatefulPartitionedCall/model_1/resnet_block_7/instance_normalization_20/moments/variance/reduction_indices"], "attr": {"Tidx": {"type": "DT_INT32"}, "keep_dims": {"b": true}, "T": {"type": "DT_FLOAT"}}}, {"name": "StatefulPartitionedCall/model_1/resnet_block_7/instance_normalization_20/batchnorm/add", "op": "AddV2", "input": ["StatefulPartitionedCall/model_1/resnet_block_7/instance_normalization_20/moments/variance", "StatefulPartitionedCall/model_1/resnet_block_7/instance_normalization_20/batchnorm/add/y"], "attr": {"T": {"type": "DT_FLOAT"}}}, {"name": "StatefulPartitionedCall/model_1/resnet_block_7/instance_normalization_20/batchnorm/Rsqrt", "op": "Rsqrt", "input": ["StatefulPartitionedCall/model_1/resnet_block_7/instance_normalization_20/batchnorm/add"], "attr": {"T": {"type": "DT_FLOAT"}}}, {"name": "StatefulPartitionedCall/model_1/resnet_block_7/instance_normalization_20/batchnorm/mul", "op": "Mul", "input": ["StatefulPartitionedCall/model_1/resnet_block_7/instance_normalization_20/batchnorm/Rsqrt", "StatefulPartitionedCall/model_1/resnet_block_7/instance_normalization_20/Reshape"], "attr": {"T": {"type": "DT_FLOAT"}}}, {"name": "StatefulPartitionedCall/model_1/resnet_block_7/instance_normalization_20/batchnorm/mul_2", "op": "Mul", "input": ["StatefulPartitionedCall/model_1/resnet_block_7/instance_normalization_20/moments/mean", "StatefulPartitionedCall/model_1/resnet_block_7/instance_normalization_20/batchnorm/mul"], "attr": {"T": {"type": "DT_FLOAT"}}}, {"name": "StatefulPartitionedCall/model_1/resnet_block_7/instance_normalization_20/batchnorm/mul_1", "op": "Mul", "input": ["StatefulPartitionedCall/model_1/resnet_block_7/MirrorPad_1", "StatefulPartitionedCall/model_1/resnet_block_7/instance_normalization_20/batchnorm/mul"], "attr": {"T": {"type": "DT_FLOAT"}}}, {"name": "StatefulPartitionedCall/model_1/resnet_block_7/instance_normalization_20/batchnorm/sub", "op": "Sub", "input": ["StatefulPartitionedCall/model_1/resnet_block_7/instance_normalization_20/Reshape_1", "StatefulPartitionedCall/model_1/resnet_b…
rm/add"], "attr": {"T": {"type": "DT_FLOAT"}}}, {"name": "StatefulPartitionedCall/model_1/instance_normalization_26/batchnorm/mul", "op": "Mul", "input": ["StatefulPartitionedCall/model_1/instance_normalization_26/batchnorm/Rsqrt", "StatefulPartitionedCall/model_1/instance_normalization_26/Reshape"], "attr": {"T": {"type": "DT_FLOAT"}}}, {"name": "StatefulPartitionedCall/model_1/instance_normalization_26/batchnorm/mul_2", "op": "Mul", "input": ["StatefulPartitionedCall/model_1/instance_normalization_26/moments/mean", "StatefulPartitionedCall/model_1/instance_normalization_26/batchnorm/mul"], "attr": {"T": {"type": "DT_FLOAT"}}}, {"name": "StatefulPartitionedCall/model_1/instance_normalization_26/batchnorm/mul_1", "op": "Mul", "input": ["StatefulPartitionedCall/model_1/conv2d_transpose_3/BiasAdd", "StatefulPartitionedCall/model_1/instance_normalization_26/batchnorm/mul"], "attr": {"T": {"type": "DT_FLOAT"}}}, {"name": "StatefulPartitionedCall/model_1/instance_normalization_26/batchnorm/sub", "op": "Sub", "input": ["StatefulPartitionedCall/model_1/instance_normalization_26/Reshape_1", "StatefulPartitionedCall/model_1/instance_normalization_26/batchnorm/mul_2"], "attr": {"T": {"type": "DT_FLOAT"}}}, {"name": "StatefulPartitionedCall/model_1/instance_normalization_26/batchnorm/add_1", "op": "AddV2", "input": ["StatefulPartitionedCall/model_1/instance_normalization_26/batchnorm/mul_1", "StatefulPartitionedCall/model_1/instance_normalization_26/batchnorm/sub"], "attr": {"T": {"type": "DT_FLOAT"}}}, {"name": "StatefulPartitionedCall/model_1/re_lu_17/Relu", "op": "Relu", "input": ["StatefulPartitionedCall/model_1/instance_normalization_26/batchnorm/add_1"], "attr": {"T": {"type": "DT_FLOAT"}}}, {"name": "StatefulPartitionedCall/model_1/tf.compat.v1.pad_1/MirrorPad", "op": "MirrorPad", "input": ["StatefulPartitionedCall/model_1/re_lu_17/Relu", "unknown"], "attr": {"mode": {"s": "UkVGTEVDVA=="}, "Tpaddings": {"type": "DT_INT32"}, "T": {"type": "DT_FLOAT"}}}, {"name": "StatefulPartitionedCall/model_1/conv2d_23/BiasAdd", "op": "_FusedConv2D", "input": ["StatefulPartitionedCall/model_1/tf.compat.v1.pad_1/MirrorPad", "StatefulPartitionedCall/model_1/conv2d_23/Conv2D/ReadVariableOp", "StatefulPartitionedCall/model_1/conv2d_23/BiasAdd/ReadVariableOp"], "device": "/device:CPU:0", "attr": {"padding": {"s": "VkFMSUQ="}, "epsilon": {"f": 0.0}, "dilations": {"list": {"i": ["1", "1", "1", "1"]}}, "use_cudnn_on_gpu": {"b": true}, "T": {"type": "DT_FLOAT"}, "data_format": {"s": "TkhXQw=="}, "explicit_paddings": {"list": {}}, "num_args": {"i": "1"}, "strides": {"list": {"i": ["1", "1", "1", "1"]}}, "fused_ops": {"list": {"s": ["Qmlhc0FkZA=="]}}}}, {"name": "StatefulPartitionedCall/model_1/conv2d_23/Tanh", "op": "Tanh", "input": ["StatefulPartitionedCall/model_1/conv2d_23/BiasAdd"], "attr": {"T": {"type": "DT_FLOAT"}}}, {"name": "Identity", "op": "Identity", "input": ["StatefulPartitionedCall/model_1/conv2d_23/Tanh"], "attr": {"T": {"type": "DT_FLOAT"}}}], "library": {}, "versions": {"producer": 716}}, "weightsManifest": [{"paths": ["group1-shard1of44.bin", "group1-shard2of44.bin", "group1-shard3of44.bin", "group1-shard4of44.bin", "group1-shard5of44.bin", "group1-shard6of44.bin", "group1-shard7of44.bin", "group1-shard8of44.bin", "group1-shard9of44.bin", "group1-shard10of44.bin", "group1-shard11of44.bin", "group1-shard12of44.bin", "group1-shard13of44.bin", "group1-shard14of44.bin", "group1-shard15of44.bin", "group1-shard16of44.bin", "group1-shard17of44.bin", "group1-shard18of44.bin", "group1-shard19of44.bin", "group1-shard20of44.bin", "group1-shard21of44.bin", "group1-shard22of44.bin", "group1-shard23of44.bin", "group1-shard24of44.bin", "group1-shard25of44.bin", "group1-shard26of44.bin", "group1-shard27of44.bin", "group1-shard28of44.bin", "group1-shard29of44.bin", "group1-shard30of44.bin", "group1-shard31of44.bin", "group1-shard32of44.bin", "group1-shard33of44.bin", "group1-shard34of44.bin", "group1-shard35of44.bin", "group1-shard36of44.bin", "group1-shard37of44.bin", "group1-shard38of44.bin", "group1-shard39of44.bin", "group1-shard40of44.bin", "group1-shard41of44.bin", "group1-shard42of44.bin", "group1-shard43of44.bin", "group1-shard44of44.bin"], "weights": [{"name": "StatefulPartitionedCall/model_1/instance_normalization_26/Reshape_1", "shape": [1, 1, 1, 64], "dtype": "float32", "quantization": {"dtype": "uint8", "min": -0.361190527677536, "scale": 0.0012171897525880852, "original_dtype": "float32"}}, {"name": "StatefulPartitionedCall/model_1/conv2d_transpose_3/strided_slice/stack", "shape": [1], "dtype": "int32"}, {"name": "StatefulPartitionedCall/model_1/conv2d_transpose_3/strided_slice/stack_1", "shape": [1], "dtype": "int32"}, {"name": "StatefulPartitionedCall/model_1/conv2d_transpose_3/strided_slice/stack_2", "shape": [1], "dtype": "int32"}, {"name": "StatefulPartitionedCall/model_1/conv2d_transpose_3/stack/1", "shape": [], "dtype": "int32"}, {"name": "StatefulPartitionedCall/model_1/conv2d_transpose_3/stack/2", "shape": [], "dtype": "int32"}, {"name": "StatefulPartitionedCall/model_1/conv2d_transpose_3/stack/3", "shape": [], "dtype": "int32"}, {"name": "StatefulPartitionedCall/model_1/conv2d_transpose_3/conv2d_transpose/ReadVariableOp", "shape": [3, 3, 64, 128], "dtype": "float32", "quantization": {"dtype": "uint8", "min": -1.743054360034419, "scale": 0.011467462894963283, "original_dtype": "float32"}}, {"name": "StatefulPartitionedCall/model_1/instance_normalization_25/Reshape_1", "shape": [1, 1, 1, 128], "dtype": "float32", "quantization": {"dtype": "uint8", "min": -0.5874951481819153, "scale": 0.002122772967114168, "original_dtype": "float32"}}, {"name": "StatefulPartitionedCall/model_1/conv2d_transpose_2/strided_slice/stack", "shape": [1], "dtype": "int32"}, {"name": "StatefulPartitionedCall/model_1/conv2d_transpose_2/strided_slice/stack_1", "shape": [1], "dtype": "int32"}, {"name": "StatefulPartitionedCall/model_1/conv2d_transpose_2/strided_slice/stack_2", "shape": [1], "dtype": "int32"}, {"name": "StatefulPartitionedCall/model_1/conv2d_transpose_2/stack/1", "shape": [], "dtype": "int32"}, {"name": "StatefulPartitionedCall/model_1/conv2d_transpose_2/stack/2", "shape": [], "dtype": "int32"}, {"name": "StatefulPartitionedCall/model_1/conv2d_transpose_2/stack/3", "shape": [], "dtype": "int32"}, {"name": "StatefulPartitionedCall/model_1/conv2d_transpose_2/conv2d_transpose/ReadVariableOp", "shape": [3, 3, 128, 256], "dtype": "float32", "quantization": {"dtype": "uint8", "min": -1.1379715975593117, "scale": 0.007586477317062078, "original_dtype": "float32"}}, {"name": "StatefulPartitionedCall/model_1/instance_normalization_24/Reshape_1", "shape": [1, 1, 1, 256], "dtype": "float32", "quantization": {"dtype": "uint8", "min": -0.7673821449279785, "scale": 0.0026656081571298485, "original_dtype": "float32"}}, {"name": "StatefulPartitionedCall/model_1/conv2d_transpose_1/strided_slice/stack", "shape": [1], "dtype": "int32"}, {"name": "StatefulPartitionedCall/model_1/conv2d_transpose_1/strided_slice/stack_1", "shape": [1], "dtype": "int32"}, {"name": "StatefulPartitionedCall/model_1/conv2d_transpose_1/strided_slice/stack_2", "shape": [1], "dtype": "int32"}, {"name": "StatefulPartitionedCall/model_1/conv2d_transpose_1/stack/1", "shape": [], "dtype": "int32"}, {"name": "StatefulPartitionedCall/model_1/conv2d_transpose_1/stack/2", "shape": [], "dtype": "int32"}, {"name": "StatefulPartitionedCall/model_1/conv2d_transpose_1/stack/3", "shape": [], "dtype": "int32"}, {"name": "StatefulPartitionedCall/model_1/conv2d_transpose_1/conv2d_transpose/ReadVariableOp", "shape": [3, 3, 256, 512], "dtype": "float32", "quantization": {"dtype": "uint8", "min": -1.243889955445832, "scale": 0.008404661861120486, "original_dtype": "float32"}}, {"name": "StatefulPartitionedCall/model_1/instance_normalization_23/Reshape_1", "shape": [1, 1, 1, 512], "dtype": "float32", "quantization": {"dtype": "uint8", "min": -0.9319350123405457, "scale": 0.0036504268294711615, "original_dtype": "float32"}}, {"name": "StatefulPartitionedCall/model_1/conv2d_transpose/strided_slice/stack", "shape": [1], "dtype": "int32"}, {"name": "StatefulPartitionedCall/model_1/conv2d_transpose/strided_slice/stack_1", "shape": [1], "dtype": "int32"}, {"name": "StatefulPartitionedCall/model_1/conv2d_transpose/strided_slice/stack_2", "shape": [1], "dtype": "int32"}, {"name": "StatefulPartitionedCall/model_1/conv2d_transpose/stack/1", "shape": [], "dtype": "int32"}, {"name": "StatefulPartitionedCall/model_1/conv2d_transpose/stack/2", "shape": [], "dtype": "int32"}, {"name": "StatefulPartitionedCall/model_1/conv2d_transpose/stack/3", "shape": [], "dtype": "int32"}, {"name": "StatefulPartitionedCall/model_1/conv2d_transpose/conv2d_transpose/ReadVariableOp", "shape": [3, 3, 512, 1024], "dtype": "float32", "quantization": {"dtype": "uint8", "min": -1.2369588365741806, "scale": 0.009975474488501456, "original_dtype": "float32"}}, {"name": "StatefulPartitionedCall/model_1/resnet_block_8/instance_normalization_22/Reshape_1", "shape": [1, 1, 1, 1024], "dtype": "float32", "quantization": {"dtype": "uint8", "min": -0.2623486722216887, "scale": 0.0017846848450455012, "original_dtype": "float32"}}, {"name": "StatefulPartitionedCall/model_1/resnet_block_8/instance_normalization_21/Reshape_1", "shape": [1, 1, 1, 1024], "dtype": "float32", "quantization": {"dtype": "uint8", "min": -1.164451500598122, "scale": 0.004913297470878152, "original_dtype": "float32"}}, {"name": "StatefulPartitionedCall/model_1/resnet_block_7/instance_normalization_20/Reshape_1", "shape": [1, 1, 1, 1024], "dtype": "float32", "quantization": {"dtype": "uint8", "min": -0.26234856914071475, "scale": 0.001784684143814386, "original_dtype": "float32"}}, {"name": "StatefulPartitionedCall/model_1/resnet_block_7/instance_normalization_19/Reshape_1", "shape": [1, 1, 1, 1024], "dtype": "float32", "quantization": {"dtype": "uint8", "min": -0.9901257753372192, "scale": 0.0032434863202712113, "original_dtype": "float32"}}, {"name": "StatefulPartitionedCall/model_1/resnet_block_6/instance_normalization_18/Reshape_1", "shape": [1, 1, 1, 1024], "dtype": "float32", "quantization": {"dtype": "uint8", "min": -0.26234935083810024, "scale": 0.001784689461483675, "original_dtype": "float32"}}, {"name": "StatefulPartitionedCall/model_1/resnet_block_6/instance_normalization_17/Reshape_1", "shape": [1, 1, 1, 1024], "dtype": "float32", "quantization": {"dtype": "uint8", "min": -0.8931852579116821, "scale": 0.0028641634712032243, "original_dtype": "float32"}}, {"name": "StatefulPartitionedCall/model_1/resnet_block_5/instance_normalization_16/Reshape_1", "shape": [1, 1, 1, 1024], "dtype": "float32", "quantization": {"dtype": "uint8", "min": -0.26234936801826253, "scale": 0.0017846895783555274, "original_dtype": "float32"}}, {"name": "StatefulPartitionedCall/model_1/resnet_block_5/instance_normalization_15/Reshape_1", "shape": [1, 1, 1, 1024], "dtype": "float32", "quantization": {"dtype": "uint8", "min": -0.9580622911453247, "scale": 0.002855584317562627, "original_dtype": "float32"}}, {"name": "StatefulPartitionedCall/model_1/resnet_block_4/instance_normalization_14/Reshape_1", "shape": [1, 1, 1, 1024], "dtype": "float32", "quantization": {"dtype": "uint8", "min": -0.26234885261339297, "scale": 0.0017846860721999524, "original_dtype": "float32"}}, {"name": "StatefulPartitionedCall/model_1/resnet_block_4/instance_normalization_13/Reshape_1", "shape": [1, 1, 1, 1024], "dtype": "float32", "quantization": {"dtype": "uint8", "min": -1.1826995611190796, "scale": 0.0038162195215038224, "original_dtype": "float32"}}, {"name": "StatefulPartitionedCall/model_1/resnet_block_3/instance_normalization_12/Reshape_1", "shape": [1, 1, 1, 1024], "dtype": "float32", "quantization": {"dtype": "uint8", "min": -0.26234915326623354, "scale": 0.001784688117457371, "original_dtype": "float32"}}, {"name": "StatefulPartitionedCall/model_1/resnet_block_3/instance_normalization_11/Reshape_1", "shape": [1, 1, 1, 1024], "dtype": "float32", "quantization": {"dtype": "uint8", "min": -1.325079083442688, "scale": 0.004687966903050741, "original_dtype": "float32"}}, {"name": "StatefulPartitionedCall/model_1/resnet_block_2/instance_normalization_10/Reshape_1", "shape": [1, 1, 1, 1024], "dtype": "float32", "quantization": {"dtype": "uint8", "min": -0.26234918762655823, "scale": 0.0017846883512010762, "original_dtype": "float32"}}, {"name": "StatefulPartitionedCall/model_1/resnet_block_2/instance_normalization_9/Reshape_1", "shape": [1, 1, 1, 1024], "dtype": "float32", "quantization": {"dtype": "uint8", "min": -0.9848480820655823, "scale": 0.003526580567453422, "original_dtype": "float32"}}, {"name": "StatefulPartitionedCall/model_1/resnet_block_1/instance_normalization_8/Reshape_1", "shape": [1, 1, 1, 1024], "dtype": "float32", "quantization": {"dtype": "uint8", "min": -0.2623498318826451, "scale": 0.0017846927338955449, "original_dtype": "float32"}}, {"name": "StatefulPartitionedCall/model_1/resnet_block_1/instance_normalization_7/Reshape_1", "shape": [1, 1, 1, 1024], "dtype": "float32", "quantization": {"dtype": "uint8", "min": -1.202495065331459, "scale": 0.004888191322485606, "original_dtype": "float32"}}, {"name": "StatefulPartitionedCall/model_1/resnet_block/instance_normalization_6/Reshape_1", "shape": [1, 1, 1, 1024], "dtype": "float32", "quantization": {"dtype": "uint8", "min": -0.2623491618563147, "scale": 0.0017846881758932973, "original_dtype": "float32"}}, {"name": "StatefulPartitionedCall/model_1/resnet_block/instance_normalization_5/Reshape_1", "shape": [1, 1, 1, 1024], "dtype": "float32", "quantization": {"dtype": "uint8", "min": -1.5094719735869007, "scale": 0.0060378878943476025, "original_dtype": "float32"}}, {"name": "StatefulPartitionedCall/model_1/instance_normalization_4/Reshape_1", "shape": [1, 1, 1, 1024], "dtype": "float32", "quantization": {"dtype": "uint8", "min": -0.9059108083739, "scale": 0.004507018947133831, "original_dtype": "float32"}}, {"name": "StatefulPartitionedCall/model_1/instance_normalization_3/Reshape_1", "shape": [1, 1, 1, 512], "dtype": "float32", "quantization": {"dtype": "uint8", "min": -1.4357964466599857, "scale": 0.006936214718164182, "original_dtype": "float32"}}, {"name": "StatefulPartitionedCall/model_1/instance_normalization_2/Reshape_1", "shape": [1, 1, 1, 256], "dtype": "float32", "quantization": {"dtype": "uint8", "min": -1.1504884923205656, "scale": 0.0063213653424206906, "original_dtype": "float32"}}, {"name": "StatefulPartitionedCall/model_1/instance_normalization_1/Reshape_1", "shape": [1, 1, 1, 128], "dtype": "float32", "quantization": {"dtype": "uint8", "min": -0.987050693175372, "scale": 0.00747765676648009, "original_dtype": "float32"}}, {"name": "StatefulPartitionedCall/model_1/instance_normalization/Reshape_1", "shape": [1, 1, 1, 64], "dtype": "float32", "quantization": {"dtype": "uint8", "min": -0.558425791123334, "scale": 0.009307096518722234, "original_dtype": "float32"}}, {"name": "StatefulPartitionedCall/model_1/conv2d/Conv2D/ReadVariableOp", "shape": [7, 7, 3, 64], "dtype": "float32", "quantization": {"dtype": "uint8", "min": -0.7961862540712543, "scale": 0.005986362812565822, "original_dtype": "float32"}}, {"name": "StatefulPartitionedCall/model_1/conv2d/BiasAdd/ReadVariableOp", "shape": [64], "dtype": "float32", "quantization": {"dtype": "uint8", "min": -0.13638455598962074, "scale": 0.0011558013219459384, "original_dtype": "float32"}}, {"name": "StatefulPartitionedCall/model_1/instance_normalization/moments/mean/reduction_indices", "shape": [2], "dtype": "int32"}, {"name": "StatefulPartitionedCall/model_1/instance_normalization/moments/variance/reduction_indices", "shape": [2], "dtype": "int32"}, {"name": "StatefulPartitionedCall/model_1/instance_normalization/batchnorm/add/y", "shape": [], "dtype": "float32", "quantization": {"dtype": "uint8", "min": 0.0010000000474974513, "scale": 1.0, "original_dtype": "float32"}}, {"name": "StatefulPartitionedCall/model_1/instance_normalization/Reshape", "shape": [1, 1, 1, 64], "dtype": "float32", "quantization": {"dtype": "uint8", "min": 0.5103466510772705, "scale": 0.005042426258909936, "original_dtype": "float32"}}, {"name": "StatefulPartitionedCall/model_1/conv2d_1/Conv2D/ReadVariableOp", "shape": [3, 3, 64, 128], "dtype": "float32", "quantization": {"dtype": "uint8", "min": -0.8126314997673035, "scale": 0.006828836132498349, "original_dtype": "float32"}}, {"name": "StatefulPartitionedCall/model_1/conv2d_1/BiasAdd/ReadVariableOp", "shape": [128], "dtype": "float32", "quantization": {"dtype": "uint8", "min": -0.06719180323621805, "scale": 0.0004698727499036228, "original_dtype": "float32"}}, {"name": "StatefulPartitionedCall/model_1/instance_normalization_1/moments/mean/reduction_indices", "shape": [2], "dtype": "int32"}, {"name": "StatefulPartitionedCall/model_1/instance_normalization_1/moments/variance/reduction_indices", "shape": [2], "dtype": "int32"}, {"name": "StatefulPartitionedCall/model_1/instance_normalization_1/batchnorm/add/y", "shape": [], "dtype": "float32", "quantization": {"dtype": "uint8", "min": 0.0010000000474974513, "scale": 1.0, "original_dtype": "float32"}}, {"name": "StatefulPartitionedCall/model_1/instance_normalization_1/Reshape", "shape": [1, 1, 1, 128], "dtype": "float32", "quantization": {"dtype": "uint8", "min": 0.5664097666740417, "scale": 0.005554145691441555, "original_dtype": "float32"}}, {"name": "StatefulPartitionedCall/model_1/conv2d_2/Conv2D/ReadVariableOp", "shape": [3, 3, 128, 256], "dtype": "float32", "quantization": {"dtype": "uint8", "min": -1.1002588954626344, "scale": 0.008031086828194412, "original_dtype": "float32"}}, {"name": "StatefulPartitionedCall/model_1/conv2d_2/BiasAdd/ReadVariableOp", "shape": [256], "dtype": "float32", "quantization": {"dtype": "uint8", "min": -0.06113341196494944, "scale": 0.00047390241833294137, "original_dtype": "float32"}}, {"name": "StatefulPartitionedCall/model_1/instance_normalization_2/moments/mean/reduction_indices", "shape": [2], "dtype": "int32"}, {"name": "StatefulPartitionedCall/model_1/instance_normalization_2/moments/variance/reduction_indices", "shape": [2], "dtype": "int32"}, {"name": "StatefulPartitionedCall/model_1/instance_normalization_2/batchnorm/add/y", "shape": [], "dtype": "float32", "quantization": {"dtype": "uint8", "min": 0.0010000000474974513, "scale": 1.0, "original_dtype": "float32"}}, {"name": "StatefulPartitionedCall/model_1/instance_normalization_2/Reshape", "shape": [1, 1, 1, 256], "dtype": "float32", "quantization": {"dtype": "uint8", "min": 0.3787465989589691, "scale": 0.006788959339553234, "original_dtype": "float32"}}, {"name": "StatefulPartitionedCall/model_1/conv2d_3/Conv2D/ReadVariableOp", "shape": [3, 3, 256, 512], "dtype": "float32", "quantization": {"dtype": "uint8", "min": -1.575912737378887, "scale": 0.010367846956440047, "original_dtype": "float32"}}, {"name": "StatefulPartitionedCall/model_1/conv2d_3/BiasAdd/ReadVariableOp", "shape": [512], "dtype": "float32", "quantization": {"dtype": "uint8", "min": -0.053062152862548825, "scale": 0.0004145480692386627, "original_dtype": "float32"}}, {"name": "StatefulPartitionedCall/model_1/instance_normalization_3/moments/mean/reduction_indices", "shape": [2], "dtype": "int32"}, {"name": "StatefulPartitionedCall/model_1/instance_normalization_3/moments/variance/reduction_indices", "shape": [2], "dtype": "int32"}, {"name": "StatefulPartitionedCall/model_1/instance_normalization_3/batchnorm/add/y", "shape": [], "dtype": "float32", "quantization": {"dtype": "uint8", "min": 0.0010000000474974513, "scale": 1.0, "original_dtype": "float32"}}, {"name": "StatefulPartitionedCall/model_1/instance_normalization_3/Reshape", "shape": [1, 1, 1, 512], "dtype": "float32", "quantization": {"dtype": "uint8", "min": 0.3525603711605072, "scale": 0.005802765196444942, "original_dtype": "float32"}}, {"name": "StatefulPartitionedCall/model_1/conv2d_4/Conv2D/ReadVariableOp", "shape": [3, 3, 512, 1024], "dtype": "float32", "quantization": {"dtype": "uint8", "min": -1.2354196660658894, "scale": 0.010295163883882411, "original_dtype": "float32"}}, {"name": "StatefulPartitionedCall/model_1/conv2d_4/BiasAdd/ReadVariableOp", "shape": [1024], "dtype": "float32", "quantization": {"dtype": "uint8", "min": -0.06269227143596201, "scale": 0.00044780193882830004, "original_dtype": "float32"}}, {"name": "StatefulPartitionedCall/model_1/instance_normalization_4/moments/mean/reduction_indices", "shape": [2], "dtype": "int32"}, {"name": "StatefulPartitionedCall/model_1/instance_normalization_4/moments/variance/reduction_indices", "shape": [2], "dtype": "int32"}, {"name": "StatefulPartitionedCall/model_1/instance_normalization_4/batchnorm/add/y", "shape": [], "dtype": "float32", "quantization": {"dtype": "uint8", "min": 0.0010000000474974513, "scale": 1.0, "original_dtype": "float32"}}, {"name": "StatefulPartitionedCall/model_1/instance_normalization_4/Reshape", "shape": [1, 1, 1, 1024], "dtype": "float32", "quantization": {"dtype": "uint8", "min": 0.4627685248851776, "scale": 0.0061181555776035085, "original_dtype": "float32"}}, {"name": "StatefulPartitionedCall/model_1/resnet_block/conv2d_5/Conv2D/ReadVariableOp", "shape": [3, 3, 1024, 1024], "dtype": "float32", "quantization": {"dtype": "uint8", "min": -1.6999804973602295, "scale": 0.009444336096445719, "original_dtype": "float32"}}, {"name": "StatefulPartitionedCall/model_1/resnet_block/conv2d_5/BiasAdd/ReadVariableOp", "shape": [1024], "dtype": "float32", "quantization": {"dtype": "uint8", "min": -0.053763424356778465, "scale": 0.0004675080378850301, "original_dtype": "float32"}}, {"name": "StatefulPartitionedCall/model_1/resnet_block/instance_normalization_5/moments/mean/reduction_indices", "shape": [2], "dtype": "int32"}, {"name": "StatefulPartitionedCall/model_1/resnet_block/instance_normalization_5/moments/variance/reduction_indices", "shape": [2], "dtype": "int32"}, {"name": "StatefulPartitionedCall/model_1/resnet_block/instance_normalization_5/batchnorm/add/y", "shape": [], "dtype": "float32", "quantization": {"dtype": "uint8", "min": 0.0010000000474974513, "scale": 1.0, "original_dtype": "float32"}}, {"name": "StatefulPartitionedCall/model_1/resnet_block/instance_normalization_5/Reshape", "shape": [1, 1, 1, 1024], "dtype": "float32", "quantization": {"dtype": "uint8", "min": 0.2433122843503952, "scale": 0.005679557662384183, "original_dtype": "float32"}}, {"name": "StatefulPartitionedCall/model_1/resnet_block/conv2d_6/Conv2D/ReadVariableOp", "shape": [3, 3, 1024, 1024], "dtype": "float32", "quantization": {"dtype": "uint8", "min": -1.0998395728129968, "scale": 0.009563822372286928, "original_dtype": "float32"}}, {"name": "StatefulPartitionedCall/model_1/resnet_block/conv2d_6/BiasAdd/ReadVariableOp", "shape": [1024], "dtype": "float32", "quantization": {"dtype": "uint8", "min": -0.065611732006073, "scale": 0.0005207280317942302, "original_dtype": "float32"}}, {"name": "unknown_22", "shape": [4, 2], "dtype": "int32"}, {"name": "StatefulPartitionedCall/model_1/resnet_block/instance_normalization_6/moments/mean/reduction_indices", "shape": [2], "dtype": "int32"}, {"name": "StatefulPartitionedCall/model_1/resnet_block/instance_normalization_6/moments/variance/reduction_indices", "shape": [2], "dtype": "int32"}, {"name": "StatefulPartitionedCall/model_1/resnet_block/instance_normalization_6/batchnorm/add/y", "shape": [], "dtype": "float32", "quantization": {"dtype": "uint8", "min": 0.0010000000474974513, "scale": 1.0, "original_dtype": "float32"}}, {"name": "StatefulPartitionedCall/model_1/resnet_block/instance_normalization_6/Reshape", "shape": [1, 1, 1, 1024], "dtype": "float32", "quantization": {"dtype": "uint8", "min": -0.013435064811332553, "scale": 0.006717532405666277, "original_dtype": "float32"}}, {"name": "StatefulPartitionedCall/model_1/resnet_block_1/conv2d_7/Conv2D/ReadVariableOp", "shape": [3, 3, 1024, 1024], "dtype": "float32", "quantization": {"dtype": "uint8", "min": -1.0283907722024357, "scale": 0.008569923101686965, "original_dtype": "float32"}}, {"name": "StatefulPartitionedCall/model_1/resnet_block_1/conv2d_7/BiasAdd/ReadVariableOp", "shape": [1024], "dtype": "float32", "quantization": {"dtype": "uint8", "min": -0.07059326084221111, "scale": 0.000493659166728749, "original_dtype": "float32"}}, {"name": "StatefulPartitionedCall/model_1/resnet_block_1/instance_normalization_7/moments/mean/reduction_indices", "shape": [2], "dtype": "int32"}, {"name": "StatefulPartitionedCall/model_1/resnet_block_1/instance_normalization_7/moments/variance/reduction_indices", "shape": [2], "dtype": "int32"}, {"name": "StatefulPartitionedCall/model_1/resnet_block_1/instance_normalization_7/batchnorm/add/y", "shape": [], "dtype": "float32", "quantization": {"dtype": "uint8", "min": 0.0010000000474974513, "scale": 1.0, "original_dtype": "float32"}}, {"name": "StatefulPartitionedCall/model_1/resnet_block_1/instance_normalization_7/Reshape", "shape": [1, 1, 1, 1024], "dtype": "float32", "quantization": {"dtype": "uint8", "min": 0.2508285343647003, "scale": 0.004355991938534905, "original_dtype": "float32"}}, {"name": "StatefulPartitionedCall/model_1/resnet_block_1/conv2d_8/Conv2D/ReadVariableOp", "shape": [3, 3, 1024, 1024], "dtype": "float32", "quantization": {"dtype": "uint8", "min": -0.995030823875876, "scale": 0.008291923532298967, "original_dtype": "float32"}}, {"name": "StatefulPartitionedCall/model_1/resnet_block_1/conv2d_8/BiasAdd/ReadVariableOp", "shape": [1024], "dtype": "float32", "quantization": {"dtype": "uint8", "min": -0.06472647190093994, "scale": 0.0005219876766204834, "original_dtype": "float32"}}, {"name": "unknown_31", "shape": [4, 2], "dtype": "int32"}, {"name": "StatefulPartitionedCall/model_1/resnet_block_1/instance_normalization_8/moments/mean/reduction_indices", "shape": [2], "dtype": "int32"}, {"name": "StatefulPartitionedCall/model_1/resnet_block_1/instance_normalization_8/moments/variance/reduction_indices", "shape": [2], "dtype": "int32"}, {"name": "StatefulPartitionedCall/model_1/resnet_block_1/instance_normalization_8/batchnorm/add/y", "shape": [], "dtype": "float32", "quantization": {"dtype": "uint8", "min": 0.0010000000474974513, "scale": 1.0, "original_dtype": "float32"}}, {"name": "StatefulPartitionedCall/model_1/resnet_block_1/instance_normalization_8/Reshape", "shape": [1, 1, 1, 1024], "dtype": "float32", "quantization": {"dtype": "uint8", "min": -0.0, "scale": 0.006888300280871929, "original_dtype": "float32"}}, {"name": "StatefulPartitionedCall/model_1/resnet_block_2/conv2d_9/Conv2D/ReadVariableOp", "shape": [3, 3, 1024, 1024], "dtype": "float32", "quantization": {"dtype": "uint8", "min": -0.8963224074419808, "scale": 0.007346904979032629, "original_dtype": "float32"}}, {"name": "StatefulPartitionedCall/model_1/resnet_block_2/conv2d_9/BiasAdd/ReadVariableOp", "shape": [1024], "dtype": "float32", "quantization": {"dtype": "uint8", "min": -0.0744461549555554, "scale": 0.0005206024822066812, "original_dtype": "float32"}}, {"name": "StatefulPartitionedCall/model_1/resnet_block_2/instance_normalization_9/moments/mean/reduction_indices", "shape": [2], "dtype": "int32"}, {"name": "StatefulPartitionedCall/model_1/resnet_block_2/instance_normalization_9/moments/variance/reduction_indices", "shape": [2], "dtype": "int32"}, {"name": "StatefulPartitionedCall/model_1/resnet_block_2/instance_normalization_9/batchnorm/add/y", "shape": [], "dtype": "float32", "quantization": {"dtype": "uint8", "min": 0.0010000000474974513, "scale": 1.0, "original_dtype": "float32"}}, {"name": "StatefulPartitionedCall/model_1/resnet_block_2/instance_normalization_9/Reshape", "shape": [1, 1, 1, 1024], "dtype": "float32", "quantization": {"dtype": "uint8", "min": 0.3547206521034241, "scale": 0.004039047044866225, "original_dtype": "float32"}}, {"name": "StatefulPartitionedCall/model_1/resnet_block_2/conv2d_10/Conv2D/ReadVariableOp", "shape": [3, 3, 1024, 1024], "dtype": "float32", "quantization": {"dtype": "uint8", "min": -0.865750563845915, "scale": 0.006871036220999325, "original_dtype": "float32"}}, {"name": "StatefulPartitionedCall/model_1/resnet_block_2/conv2d_10/BiasAdd/ReadVariableOp", "shape": [1024], "dtype": "float32", "quantization": {"dtype": "uint8", "min": -0.09327683374285699, "scale": 0.0006096525081232483, "original_dtype": "float32"}}, {"name": "unknown_40", "shape": [4, 2], "dtype": "int32"}, {"name": "StatefulPartitionedCall/model_1/resnet_block_2/instance_normalization_10/moments/mean/reduction_indices", "shape": [2], "dtype": "int32"}, {"name": "StatefulPartitionedCall/model_1/resnet_block_2/instance_normalization_10/moments/variance/reduction_indices", "shape": [2], "dtype": "int32"}, {"name": "StatefulPartitionedCall/model_1/resnet_block_2/instance_normalization_10/batchnorm/add/y", "shape": [], "dtype": "float32", "quantization": {"dtype": "uint8", "min": 0.0010000000474974513, "scale": 1.0, "original_dtype": "float32"}}, {"name": "StatefulPartitionedCall/model_1/resnet_block_2/instance_normalization_10/Reshape", "shape": [1, 1, 1, 1024], "dtype": "float32", "quantization": {"dtype": "uint8", "min": 0.11414723098278046, "scale": 0.006172345958504023, "original_dtype": "float32"}}, {"name": "StatefulPartitionedCall/model_1/resnet_block_3/conv2d_11/Conv2D/ReadVariableOp", "shape": [3, 3, 1024, 1024], "dtype": "float32", "quantization": {"dtype": "uint8", "min": -0.9392809353622736, "scale": 0.00717008347604789, "original_dtype": "float32"}}, {"name": "StatefulPartitionedCall/model_1/resnet_block_3/conv2d_11/BiasAdd/ReadVariableOp", "shape": [1024], "dtype": "float32", "quantization": {"dtype": "uint8", "min": -0.06664500341695898, "scale": 0.0005166279334647983, "original_dtype": "float32"}}, {"name": "StatefulPartitionedCall/model_1/resnet_block_3/instance_normalization_11/moments/mean/reduction_indices", "shape": [2], "dtype": "int32"}, {"name": "StatefulPartitionedCall/model_1/resnet_block_3/instance_normalization_11/moments/variance/reduction_indices", "shape": [2], "dtype": "int32"}, {"name": "StatefulPartitionedCall/model_1/resnet_block_3/instance_normalization_11/batchnorm/add/y", "shape": [], "dtype": "float32", "quantization": {"dtype": "uint8", "min": 0.0010000000474974513, "scale": 1.0, "original_dtype": "float32"}}, {"name": "StatefulPartitionedCall/model_1/resnet_block_3/instance_normalization_11/Reshape", "shape": [1, 1, 1, 1024], "dtype": "float32", "quantization": {"dtype": "uint8", "min": 0.5434085130691528, "scale": 0.0033760935652489754, "original_dtype": "float32"}}, {"name": "StatefulPartitionedCall/model_1/resnet_block_3/conv2d_12/Conv2D/ReadVariableOp", "shape": [3, 3, 1024, 1024], "dtype": "float32", "quantization": {"dtype": "uint8", "min": -0.9467749619016461, "scale": 0.0075741996952131685, "original_dtype": "float32"}}, {"name": "StatefulPartitionedCall/model_1/resnet_block_3/conv2d_12/BiasAdd/ReadVariableOp", "shape": [1024], "dtype": "float32", "quantization": {"dtype": "uint8", "min": -0.06787196080766472, "scale": 0.0005103154947944716, "original_dtype": "float32"}}, {"name": "unknown_49", "shape": [4, 2], "dtype": "int32"}, {"name": "StatefulPartitionedCall/model_1/resnet_block_3/instance_normalization_12/moments/mean/reduction_indices", "shape": [2], "dtype": "int32"}, {"name": "StatefulPartitionedCall/model_1/resnet_block_3/instance_normalization_12/moments/variance/reduction_indices", "shape": [2], "dtype": "int32"}, {"name": "StatefulPartitionedCall/model_1/resnet_block_3/instance_normalization_12/batchnorm/add/y", "shape": [], "dtype": "float32", "quantization": {"dtype": "uint8", "min": 0.0010000000474974513, "scale": 1.0, "original_dtype": "float32"}}, {"name": "StatefulPartitionedCall/model_1/resnet_block_3/instance_normalization_12/Reshape", "shape": [1, 1, 1, 1024], "dtype": "float32", "quantization": {"dtype": "uint8", "min": 0.3077245056629181, "scale": 0.005379071305779849, "original_dtype": "float32"}}, {"name": "StatefulPartitionedCall/model_1/resnet_block_4/conv2d_13/Conv2D/ReadVariableOp", "shape": [3, 3, 1024, 1024], "dtype": "float32", "quantization": {"dtype": "uint8", "min": -0.8816516240437825, "scale": 0.006482732529733695, "original_dtype": "float32"}}, {"name": "StatefulPartitionedCall/model_1/resnet_block_4/conv2d_13/BiasAdd/ReadVariableOp", "shape": [1024], "dtype": "float32", "quantization": {"dtype": "uint8", "min": -0.06828915973504385, "scale": 0.0005212912956873576, "original_dtype": "float32"}}, {"name": "StatefulPartitionedCall/model_1/resnet_block_4/instance_normalization_13/moments/mean/reduction_indices", "shape": [2], "dtype": "int32"}, {"name": "StatefulPartitionedCall/model_1/resnet_block_4/instance_normalization_13/moments/variance/reduction_indices", "shape": [2], "dtype": "int32"}, {"name": "StatefulPartitionedCall/model_1/resnet_block_4/instance_normalization_13/batchnorm/add/y", "shape": [], "dtype": "float32", "quantization": {"dtype": "uint8", "min": 0.0010000000474974513, "scale": 1.0, "original_dtype": "float32"}}, {"name": "StatefulPartitionedCall/model_1/resnet_block_4/instance_normalization_13/Reshape", "shape": [1, 1, 1, 1024], "dtype": "float32", "quantization": {"dtype": "uint8", "min": 0.5160375833511353, "scale": 0.003198394588395661, "original_dtype": "float32"}}, {"name": "StatefulPartitionedCall/model_1/resnet_block_4/conv2d_14/Conv2D/ReadVariableOp", "shape": [3, 3, 1024, 1024], "dtype": "float32", "quantization": {"dtype": "uint8", "min": -0.745886547425214, "scale": 0.006375098695942, "original_dtype": "float32"}}, {"name": "StatefulPartitionedCall/model_1/resnet_block_4/conv2d_14/BiasAdd/ReadVariableOp", "shape": [1024], "dtype": "float32", "quantization": {"dtype": "uint8", "min": -0.08106692895001055, "scale": 0.0005477495199325038, "original_dtype": "float32"}}, {"name": "unknown_58", "shape": [4, 2], "dtype": "int32"}, {"name": "StatefulPartitionedCall/model_1/resnet_block_4/instance_normalization_14/moments/mean/reduction_indices", "shape": [2], "dtype": "int32"}, {"name": "StatefulPartitionedCall/model_1/resnet_block_4/instance_normalization_14/moments/variance/reduction_indices", "shape": [2], "dtype": "int32"}, {"name": "StatefulPartitionedCall/model_1/resnet_block_4/instance_normalization_14/batchnorm/add/y", "shape": [], "dtype": "float32", "quantization": {"dtype": "uint8", "min": 0.0010000000474974513, "scale": 1.0, "original_dtype": "float32"}}, {"name": "StatefulPartitionedCall/model_1/resnet_block_4/instance_normalization_14/Reshape", "shape": [1, 1, 1, 1024], "dtype": "float32", "quantization": {"dtype": "uint8", "min": 0.3752204179763794, "scale": 0.005659317035301059, "original_dtype": "float32"}}, {"name": "StatefulPartitionedCall/model_1/resnet_block_5/conv2d_15/Conv2D/ReadVariableOp", "shape": [3, 3, 1024, 1024], "dtype": "float32", "quantization": {"dtype": "uint8", "min": -0.811983865850112, "scale": 0.0067665322154176, "original_dtype": "float32"}}, {"name": "StatefulPartitionedCall/model_1/resnet_block_5/conv2d_15/BiasAdd/ReadVariableOp", "shape": [1024], "dtype": "float32", "quantization": {"dtype": "uint8", "min": -0.06240852416730395, "scale": 0.0005032945497363222, "original_dtype": "float32"}}, {"name": "StatefulPartitionedCall/model_1/resnet_block_5/instance_normalization_15/moments/mean/reduction_indices", "shape": [2], "dtype": "int32"}, {"name": "StatefulPartitionedCall/model_1/resnet_block_5/instance_normalization_15/moments/variance/reduction_indices", "shape": [2], "dtype": "int32"}, {"name": "StatefulPartitionedCall/model_1/resnet_block_5/instance_normalization_15/batchnorm/add/y", "shape": [], "dtype": "float32", "quantization": {"dtype": "uint8", "min": 0.0010000000474974513, "scale": 1.0, "original_dtype": "float32"}}, {"name": "StatefulPartitionedCall/model_1/resnet_block_5/instance_normalization_15/Reshape", "shape": [1, 1, 1, 1024], "dtype": "float32", "quantization": {"dtype": "uint8", "min": 0.4252164661884308, "scale": 0.003133805943470375, "original_dtype": "float32"}}, {"name": "StatefulPartitionedCall/model_1/resnet_block_5/conv2d_16/Conv2D/ReadVariableOp", "shape": [3, 3, 1024, 1024], "dtype": "float32", "quantization": {"dtype": "uint8", "min": -0.9869500833399155, "scale": 0.00715181219811533, "original_dtype": "float32"}}, {"name": "StatefulPartitionedCall/model_1/resnet_block_5/conv2d_16/BiasAdd/ReadVariableOp", "shape": [1024], "dtype": "float32", "quantization": {"dtype": "uint8", "min": -0.05746219070518718, "scale": 0.00045604913258085063, "original_dtype": "float32"}}, {"name": "unknown_67", "shape": [4, 2], "dtype": "int32"}, {"name": "StatefulPartitionedCall/model_1/resnet_block_5/instance_normalization_16/moments/mean/reduction_indices", "shape": [2], "dtype": "int32"}, {"name": "StatefulPartitionedCall/model_1/resnet_block_5/instance_normalization_16/moments/variance/reduction_indices", "shape": [2], "dtype": "int32"}, {"name": "StatefulPartitionedCall/model_1/resnet_block_5/instance_normalization_16/batchnorm/add/y", "shape": [], "dtype": "float32", "quantization": {"dtype": "uint8", "min": 0.0010000000474974513, "scale": 1.0, "original_dtype": "float32"}}, {"name": "StatefulPartitionedCall/model_1/resnet_block_5/instance_normalization_16/Reshape", "shape": [1, 1, 1, 1024], "dtype": "float32", "quantization": {"dtype": "uint8", "min": 0.24768710136413574, "scale": 0.007164870991426355, "original_dtype": "float32"}}, {"name": "StatefulPartitionedCall/model_1/resnet_block_6/conv2d_17/Conv2D/ReadVariableOp", "shape": [3, 3, 1024, 1024], "dtype": "float32", "quantization": {"dtype": "uint8", "min": -0.907896308337941, "scale": 0.006393635974210852, "original_dtype": "float32"}}, {"name": "StatefulPartitionedCall/model_1/resnet_block_6/conv2d_17/BiasAdd/ReadVariableOp", "shape": [1024], "dtype": "float32", "quantization": {"dtype": "uint8", "min": -0.08659508583300254, "scale": 0.0005586779731161454, "original_dtype": "float32"}}, {"name": "StatefulPartitionedCall/model_1/resnet_block_6/instance_normalization_17/moments/mean/reduction_indices", "shape": [2], "dtype": "int32"}, {"name": "StatefulPartitionedCall/model_1/resnet_block_6/instance_normalization_17/moments/variance/reduction_indices", "shape": [2], "dtype": "int32"}, {"name": "StatefulPartitionedCall/model_1/resnet_block_6/instance_normalization_17/batchnorm/add/y", "shape": [], "dtype": "float32", "quantization": {"dtype": "uint8", "min": 0.0010000000474974513, "scale": 1.0, "original_dtype": "float32"}}, {"name": "StatefulPartitionedCall/model_1/resnet_block_6/instance_normalization_17/Reshape", "shape": [1, 1, 1, 1024], "dtype": "float32", "quantization": {"dtype": "uint8", "min": 0.5315572619438171, "scale": 0.0029787257605907963, "original_dtype": "float32"}}, {"name": "StatefulPartitionedCall/model_1/resnet_block_6/conv2d_18/Conv2D/ReadVariableOp", "shape": [3, 3, 1024, 1024], "dtype": "float32", "quantization": {"dtype": "uint8", "min": -0.8529509815515257, "scale": 0.006716149461035635, "original_dtype": "float32"}}, {"name": "StatefulPartitionedCall/model_1/resnet_block_6/conv2d_18/BiasAdd/ReadVariableOp", "shape": [1024], "dtype": "float32", "quantization": {"dtype": "uint8", "min": -0.06351850295768065, "scale": 0.0005428931876724841, "original_dtype": "float32"}}, {"name": "unknown_76", "shape": [4, 2], "dtype": "int32"}, {"name": "StatefulPartitionedCall/model_1/resnet_block_6/instance_normalization_18/moments/mean/reduction_indices", "shape": [2], "dtype": "int32"}, {"name": "StatefulPartitionedCall/model_1/resnet_block_6/instance_normalization_18/moments/variance/reduction_indices", "shape": [2], "dtype": "int32"}, {"name": "StatefulPartitionedCall/model_1/resnet_block_6/instance_normalization_18/batchnorm/add/y", "shape": [], "dtype": "float32", "quantization": {"dtype": "uint8", "min": 0.0010000000474974513, "scale": 1.0, "original_dtype": "float32"}}, {"name": "StatefulPartitionedCall/model_1/resnet_block_6/instance_normalization_18/Reshape", "shape": [1, 1, 1, 1024], "dtype": "float32", "quantization": {"dtype": "uint8", "min": 0.40449729561805725, "scale": 0.00783268178210539, "original_dtype": "float32"}}, {"name": "StatefulPartitionedCall/model_1/resnet_block_7/conv2d_19/Conv2D/ReadVariableOp", "shape": [3, 3, 1024, 1024], "dtype": "float32", "quantization": {"dtype": "uint8", "min": -0.7517664362402523, "scale": 0.006537099445567411, "original_dtype": "float32"}}, {"name": "StatefulPartitionedCall/model_1/resnet_block_7/conv2d_19/BiasAdd/ReadVariableOp", "shape": [1024], "dtype": "float32", "quantization": {"dtype": "uint8", "min": -0.059256621274878, "scale": 0.0005338434349088108, "original_dtype": "float32"}}, {"name": "StatefulPartitionedCall/model_1/resnet_block_7/instance_normalization_19/moments/mean/reduction_indices", "shape": [2], "dtype": "int32"}, {"name": "StatefulPartitionedCall/model_1/resnet_block_7/instance_normalization_19/moments/variance/reduction_indices", "shape": [2], "dtype": "int32"}, {"name": "StatefulPartitionedCall/model_1/resnet_block_7/instance_normalization_19/batchnorm/add/y", "shape": [], "dtype": "float32", "quantization": {"dtype": "uint8", "min": 0.0010000000474974513, "scale": 1.0, "original_dtype": "float32"}}, {"name": "StatefulPartitionedCall/model_1/resnet_block_7/instance_normalization_19/Reshape", "shape": [1, 1, 1, 1024], "dtype": "float32", "quantization": {"dtype": "uint8", "min": 0.3677142560482025, "scale": 0.005775932354085586, "original_dtype": "float32"}}, {"name": "StatefulPartitionedCall/model_1/resnet_block_7/conv2d_20/Conv2D/ReadVariableOp", "shape": [3, 3, 1024, 1024], "dtype": "float32", "quantization": {"dtype": "uint8", "min": -0.8338927998262293, "scale": 0.006618196824017693, "original_dtype": "float32"}}, {"name": "StatefulPartitionedCall/model_1/resnet_block_7/conv2d_20/BiasAdd/ReadVariableOp", "shape": [1024], "dtype": "float32", "quantization": {"dtype": "uint8", "min": -0.055017871658007304, "scale": 0.0004623350559496412, "original_dtype": "float32"}}, {"name": "unknown_85", "shape": [4, 2], "dtype": "int32"}, {"name": "StatefulPartitionedCall/model_1/resnet_block_7/instance_normalization_20/moments/mean/reduction_indices", "shape": [2], "dtype": "int32"}, {"name": "StatefulPartitionedCall/model_1/resnet_block_7/instance_normalization_20/moments/variance/reduction_indices", "shape": [2], "dtype": "int32"}, {"name": "StatefulPartitionedCall/model_1/resnet_block_7/instance_normalization_20/batchnorm/add/y", "shape": [], "dtype": "float32", "quantization": {"dtype": "uint8", "min": 0.0010000000474974513, "scale": 1.0, "original_dtype": "float32"}}, {"name": "StatefulPartitionedCall/model_1/resnet_block_7/instance_normalization_20/Reshape", "shape": [1, 1, 1, 1024], "dtype": "float32", "quantization": {"dtype": "uint8", "min": 0.4277593791484833, "scale": 0.008491457326739442, "original_dtype": "float32"}}, {"name": "StatefulPartitionedCall/model_1/resnet_block_8/conv2d_21/Conv2D/ReadVariableOp", "shape": [3, 3, 1024, 1024], "dtype": "float32", "quantization": {"dtype": "uint8", "min": -0.8970985272351434, "scale": 0.007800856758566464, "original_dtype": "float32"}}, {"name": "StatefulPartitionedCall/model_1/resnet_block_8/conv2d_21/BiasAdd/ReadVariableOp", "shape": [1024], "dtype": "float32", "quantization": {"dtype": "uint8", "min": -0.06755760791254979, "scale": 0.0005277938118167952, "original_dtype": "float32"}}, {"name": "StatefulPartitionedCall/model_1/resnet_block_8/instance_normalization_21/moments/mean/reduction_indices", "shape": [2], "dtype": "int32"}, {"name": "StatefulPartitionedCall/model_1/resnet_block_8/instance_normalization_21/moments/variance/reduction_indices", "shape": [2], "dtype": "int32"}, {"name": "StatefulPartitionedCall/model_1/resnet_block_8/instance_normalization_21/batchnorm/add/y", "shape": [], "dtype": "float32", "quantization": {"dtype": "uint8", "min": 0.0010000000474974513, "scale": 1.0, "original_dtype": "float32"}}, {"name": "StatefulPartitionedCall/model_1/resnet_block_8/instance_normalization_21/Reshape", "shape": [1, 1, 1, 1024], "dtype": "float32", "quantization": {"dtype": "uint8", "min": 0.5535808801651001, "scale": 0.005145441317090801, "original_dtype": "float32"}}, {"name": "StatefulPartitionedCall/model_1/resnet_block_8/conv2d_22/Conv2D/ReadVariableOp", "shape": [3, 3, 1024, 1024], "dtype": "float32", "quantization": {"dtype": "uint8", "min": -1.2134897895887786, "scale": 0.011031725359897987, "original_dtype": "float32"}}, {"name": "StatefulPartitionedCall/model_1/resnet_block_8/conv2d_22/BiasAdd/ReadVariableOp", "shape": [1024], "dtype": "float32", "quantization": {"dtype": "uint8", "min": -0.07341068223410963, "scale": 0.0005243620159579258, "original_dtype": "float32"}}, {"name": "unknown_94", "shape": [4, 2], "dtype": "int32"}, {"name": "StatefulPartitionedCall/model_1/resnet_block_8/instance_normalization_22/moments/mean/reduction_indices", "shape": [2], "dtype": "int32"}, {"name": "StatefulPartitionedCall/model_1/resnet_block_8/instance_normalization_22/moments/variance/reduction_indices", "shape": [2], "dtype": "int32"}, {"name": "StatefulPartitionedCall/model_1/resnet_block_8/instance_normalization_22/batchnorm/add/y", "shape": [], "dtype": "float32", "quantization": {"dtype": "uint8", "min": 0.0010000000474974513, "scale": 1.0, "original_dtype": "float32"}}, {"name": "StatefulPartitionedCall/model_1/resnet_block_8/instance_normalization_22/Reshape", "shape": [1, 1, 1, 1024], "dtype": "float32", "quantization": {"dtype": "uint8", "min": 0.40554338693618774, "scale": 0.01611374102386774, "original_dtype": "float32"}}, {"name": "StatefulPartitionedCall/model_1/conv2d_transpose/BiasAdd/ReadVariableOp", "shape": [512], "dtype": "float32", "quantization": {"dtype": "uint8", "min": -0.06399047327976601, "scale": 0.0004999255724981719, "original_dtype": "float32"}}, {"name": "StatefulPartitionedCall/model_1/instance_normalization_23/moments/mean/reduction_indices", "shape": [2], "dtype": "int32"}, {"name": "StatefulPartitionedCall/model_1/instance_normalization_23/moments/variance/reduction_indices", "shape": [2], "dtype": "int32"}, {"name": "StatefulPartitionedCall/model_1/instance_normalization_23/batchnorm/add/y", "shape": [], "dtype": "float32", "quantization": {"dtype": "uint8", "min": 0.0010000000474974513, "scale": 1.0, "original_dtype": "float32"}}, {"name": "StatefulPartitionedCall/model_1/instance_normalization_23/Reshape", "shape": [1, 1, 1, 512], "dtype": "float32", "quantization": {"dtype": "uint8", "min": 0.6256559491157532, "scale": 0.0029921510640312644, "original_dtype": "float32"}}, {"name": "StatefulPartitionedCall/model_1/conv2d_transpose_1/BiasAdd/ReadVariableOp", "shape": [256], "dtype": "float32", "quantization": {"dtype": "uint8", "min": -0.05754610779238682, "scale": 0.00044266236763374476, "original_dtype": "float32"}}, {"name": "StatefulPartitionedCall/model_1/instance_normalization_24/moments/mean/reduction_indices", "shape": [2], "dtype": "int32"}, {"name": "StatefulPartitionedCall/model_1/instance_normalization_24/moments/variance/reduction_indices", "shape": [2], "dtype": "int32"}, {"name": "StatefulPartitionedCall/model_1/instance_normalization_24/batchnorm/add/y", "shape": [], "dtype": "float32", "quantization": {"dtype": "uint8", "min": 0.0010000000474974513, "scale": 1.0, "original_dtype": "float32"}}, {"name": "StatefulPartitionedCall/model_1/instance_normalization_24/Reshape", "shape": [1, 1, 1, 256], "dtype": "float32", "quantization": {"dtype": "uint8", "min": 0.7164762616157532, "scale": 0.0025502043611863082, "original_dtype": "float32"}}, {"name": "StatefulPartitionedCall/model_1/conv2d_transpose_2/BiasAdd/ReadVariableOp", "shape": [128], "dtype": "float32", "quantization": {"dtype": "uint8", "min": -0.09240283767382304, "scale": 0.0006647686163584392, "original_dtype": "float32"}}, {"name": "StatefulPartitionedCall/model_1/instance_normalization_25/moments/mean/reduction_indices", "shape": [2], "dtype": "int32"}, {"name": "StatefulPartitionedCall/model_1/instance_normalization_25/moments/variance/reduction_indices", "shape": [2], "dtype": "int32"}, {"name": "StatefulPartitionedCall/model_1/instance_normalization_25/batchnorm/add/y", "shape": [], "dtype": "float32", "quantization": {"dtype": "uint8", "min": 0.0010000000474974513, "scale": 1.0, "original_dtype": "float32"}}, {"name": "StatefulPartitionedCall/model_1/instance_normalization_25/Reshape", "shape": [1, 1, 1, 128], "dtype": "float32", "quantization": {"dtype": "uint8", "min": 0.6728207468986511, "scale": 0.002326805217593324, "original_dtype": "float32"}}, {"name": "StatefulPartitionedCall/model_1/conv2d_transpose_3/BiasAdd/ReadVariableOp", "shape": [64], "dtype": "float32", "quantization": {"dtype": "uint8", "min": -0.1273114611120785, "scale": 0.0010975125957937801, "original_dtype": "float32"}}, {"name": "StatefulPartitionedCall/model_1/instance_normalization_26/moments/mean/reduction_indices", "shape": [2], "dtype": "int32"}, {"name": "StatefulPartitionedCall/model_1/instance_normalization_26/moments/variance/reduction_indices", "shape": [2], "dtype": "int32"}, {"name": "StatefulPartitionedCall/model_1/instance_normalization_26/batchnorm/add/y", "shape": [], "dtype": "float32", "quantization": {"dtype": "uint8", "min": 0.0010000000474974513, "scale": 1.0, "original_dtype": "float32"}}, {"name": "StatefulPartitionedCall/model_1/instance_normalization_26/Reshape", "shape": [1, 1, 1, 64], "dtype": "float32", "quantization": {"dtype": "uint8", "min": 0.5194892883300781, "scale": 0.0015580368976967007, "original_dtype": "float32"}}, {"name": "unknown", "shape": [4, 2], "dtype": "int32"}, {"name": "StatefulPartitionedCall/model_1/conv2d_23/Conv2D/ReadVariableOp", "shape": [7, 7, 64, 3], "dtype": "float32", "quantization": {"dtype": "uint8", "min": -1.388305064977384, "scale": 0.008517208987591313, "original_dtype": "float32"}}, {"name": "StatefulPartitionedCall/model_1/conv2d_23/BiasAdd/ReadVariableOp", "shape": [3], "dtype": "float32", "quantization": {"dtype": "uint8", "min": -0.044277972684187046, "scale": 0.0004099812285572875, "original_dtype": "float32"}}]}]}